checkpoint.pth (torch, 270948 bytes, 8 tensors)

fc1.weight f4 [192, 4]
-0.07401274 0.24180073 -0.67818546 -0.3483616 -0.14105093 0.18727666 0.3102026 0.35962725
-0.055157203 0.09433364 0.033423904 -0.069181226 -0.5244583 -0.31786355 0.15456825 0.07121383
0.17481172 0.2066822 -0.20773377 -0.11240014 0.25874215 0.41268823 -0.017932225 0.38981235
-0.09546354 0.017167134 0.6594321 -0.44071594 -0.2847148 -0.07221335 0.0034410423 0.3948234
-0.275118 -0.28609666 -0.6907832 -0.40920368 -0.29491585 0.40515825 0.23795536 0.26692876
0.038768593 -0.31042817 0.23114412 -0.40359756 -0.3071001 -0.20269422 0.49944475 0.2563625
-0.20526654 0.030010039 0.65745544 0.4742005 0.24656159 0.009131257 0.48798028 -0.2752545
0.040343594 -0.4440174 -0.67582726 -0.18527097 0.25505304 0.15456603 -0.61573654 0.20602685
0.2939072 -0.07175961 0.02087524 0.10372921 0.30891892 0.44921497 -0.6497797 -0.15294057
-0.0848491 0.39888945 0.87670976 0.443041 0.062493972 -0.45880145 -0.07092552 -0.394237
-0.45425448 0.40112096 0.6473599 -0.44440848 0.10319684 -0.11356102 -0.3843323 -0.18650143
0.24510491 -0.21684074 0.42503497 0.18835539 0.28549403 0.100030266 -0.78329456 -0.25429136
0.21484394 0.046323754 -0.23124157 -0.24728686 0.41070387 0.19308907 -0.06798838 0.026250733
-0.4224879 -0.014208494 -0.682066 -0.38109303 -0.10493557 0.1267061 -0.25226325 0.2927517
-0.22612883 0.3202814 0.5919563 -0.34705353 -0.15478604 -0.0044224444 0.26106822 0.1439986
0.24716704 0.04586968 -0.4513859 0.24455327 -0.21325344 -0.28858188 -0.623087 -0.28339264
-0.048769396 -0.34237903 -0.2819158 0.043338306 -0.24000567 0.053587917 0.35568443 -0.084680565
0.08779383 -0.02551983 0.051516462 0.27625635 0.62871903 0.306178 0.26803106 -0.07667419
-0.35225445 -0.15014839 0.5477511 -0.04445432 -0.17061889 -0.36201382 -0.78361374 -0.4329782
-0.09540405 0.24469131 0.40090838 -0.46902862 0.33143646 -0.36811396 -0.09244498 -0.22588758
-0.078467235 -0.1228445 -0.7334355 -0.398193 -0.071393594 0.06377266 -0.37516952 0.12921508
-0.3881382 -0.0020074672 0.2536022 -0.18310986 0.34407827 0.21220574 -0.37413436 0.35499603
-0.031488597 -0.25923628 0.5388161 -0.38885644 -0.112104006 -0.06155685 0.89129335 0.14530161
0.22136605 0.0890961 0.20066714 -0.01197946 -0.30840528 0.29468176 0.5515838 0.30772927
-0.2414312 -0.004231077 -0.76016814 -0.26703846 -0.24101621 0.16342102 -0.24578366 0.0062334896
-0.07568507 0.23605995 -0.59872746 -0.29291677 -0.2732521 0.4013505 -0.2708254 0.3707765
0.20168188 0.03140715 -0.007951354 -0.09336122 0.037117217 -0.121153496 0.33286768 0.10059749
-0.35679135 -0.26998043 0.64750385 -0.38271198 0.005050845 0.4455901 0.4325725 0.053533085
-0.43483 0.22766544 -0.5706068 -0.11666589 -0.18302947 0.027136022 0.23340781 0.29092956
0.153261 0.37546965 0.5320239 -0.27238357 0.3184582 -0.22826454 -0.3535504 0.09114454
0.12027812 0.32218933 0.10113236 0.041372407 0.2508281 -0.48773068 0.3505771 -0.44007313
0.05602765 -0.058665626 -0.43489105 0.054591134 0.52364254 -0.15564497 -0.6591415 -0.201871
00000000: fe93 97bd 9c9a 773e 909d 2dbf 745c b2be
00000010: a86f 10be 74c5 3f3e e0d2 9e3e 1021 b83e
00000020: 85ec 61bd ff31 c13d 81e7 083d e3ae 8dbd
00000030: e642 06bf 03bf a2be 2447 1e3e 8ed8 913d
00000040: d801 333e 80a4 533e 29b8 54be 0b32 e6bd
00000050: da79 843e df4b d33e 9ae6 92bc 7c95 c73e
00000060: 6382 c3bd 17a2 8c3c 8bd0 283f 85a5 e1be
00000070: 23c6 91be 98e4 93bd 1c83 613b 4b26 ca3e
00000080: 44dc 8cbe 437b 92be 2bd7 30bf 2583 d1be
00000090: 36ff 96be e770 cf3e 92aa 733e e3aa 883e
000000a0: d1cb 1e3d 71f0 9ebe 0bb1 6c3e 57a4 cebe
000000b0: 393c 9dbe 138f 4fbe 39b7 ff3e f241 833e
000000c0: 6431 52be 9dd7 f53c 004f 283f 68ca f23e
000000d0: a47a 7c3e 459b 153c 8dd8 f93e 28ee 8cbe
000000e0: 533f 253d 4056 e3be 0403 2dbf acb7 3dbe
000000f0: 5096 823e 8f46 1e3e e9a0 1dbf b4f8 523e
00000100: 017b 963e b4f6 92bd 8d02 ab3c fb6f d43d
00000110: 9f2a 9e3e 81ff e53e f657 26bf 749c 1cbe
00000120: 5dc5 adbd 3d3b cc3e 0d70 603f 45d6 e23e
00000130: aef9 7f3d 06e8 eabe 6641 91bd 6fd9 c9be
00000140: 0b94 e8be ba5f cd3e 61b9 253f 8289 e3be
00000150: dd58 d33d ae92 e8bd 34c7 c4be 3bfa 3ebe
00000160: c8fc 7a3e 800b 5ebe 2f9e d93e 3ce0 403e
00000170: 462c 923e abdc cc3d fe85 48bf 7a32 82be
00000180: 0d00 5c3e fabd 3d3d 97ca 6cbe c438 7dbe
00000190: c747 d23e 24b9 453e 7e3d 8bbd c70b d73c
000001a0: 5650 d8be beca 68bc e19b 2ebf a01e c3be
000001b0: 76e8 d6bd 3ebf 013e a628 81be 8de3 953e
000001c0: 518e 67be ecfb a33e 738a 173f 00b1 b1be
000001d0: 3b80 1ebe 27ea 90bb bcaa 853e 5e74 133e
000001e0: 5b19 7d3e d8e1 3b3d 0d1c e7be 2c6c 7a3e
000001f0: 1c5f 5abe 01c1 93be a182 1fbf d718 91be
00000200: 6bc2 47bd 4e4c afbe 4557 90be 8283 313d
00000210: 0cc4 75be 017f 5b3d 451c b63e 016d adbd
00000220: 40cd b33d f60e d1bc ed02 533d 7971 8d3e
00000230: bbf3 203f 5dc3 9c3e 5e3b 893e 5c07 9dbd
00000240: b25a b4be 80c0 19be 6b39 0c3f bc15 36bd
00000250: b8b6 2ebe e059 b9be e99a 48bf 52af ddbe
00000260: 3363 c3bd 5c90 7a3e dd43 cd3e 8524 f0be
00000270: 0ab2 a93e 6f79 bcbe cb53 bdbd 134f 67be
00000280: 6eb3 a0bd e695 fbbd 6ec2 3bbf f4df cbbe
00000290: ce36 92bd 3e9b 823d 3816 c0be f550 043e
000002a0: 0dba c6be b68f 03bb 26d8 813e 2781 3bbe
000002b0: 072b b03e 764c 593e 8a8e bfbe 0ac2 b53e
000002c0: 30fa 00bd 9eba 84be daef 093f 3118 c7be
000002d0: c996 e5bd 0923 7cbd cd2b 643f f2c9 143e
000002e0: c8ad 623e 0478 b63d b07b 4d3e 7f45 44bc
000002f0: 4ce7 9dbe 87e0 963e 9934 0d3f b18e 9d3e
00000300: be39 77be d9a4 8abb 619a 42bf 44b9 88be
00000310: f4cc 76be d757 273e b6ae 7bbe 4d42 cc3b
00000320: c600 9bbd b3b9 713e 3446 19bf 30f9 95be
00000330: b3e7 8bbe d07d cd3e a0a9 8abe 6bd6 bd3e
00000340: b285 4e3e c9a4 003d 6546 02bc 2b34 bfbd
00000350: 3908 183d 531f f8bd a26d aa3e 0f06 ce3d
00000360: 5bad b6be e03a 8abe d0c2 253f d3f2 c3be
00000370: 8f81 a53b 6324 e43e 257a dd3e 8245 5b3d
00000380: 0aa2 debe 2121 693e 4a13 12bf 87ee eebd
00000390: 146c 3bbe 5d4c de3c 7502 6f3e b8f4 943e
000003a0: 74f0 1c3e 8f3d c03e b832 083f dc75 8bbe
000003b0: f40c a33e 2ebe 69be 8f04 b5be fda9 ba3d
000003c0: 6054 f63d 00f6 a43e 7c1e cf3d 1d76 293d
000003d0: 8a6c 803e d6b7 f9be d77e b33e 4451 e1be
000003e0: 407d 653d 5e4b 70bd 0aaa debe f49a 5f3d
000003f0: 700d 063f 6561 1fbe 7fbd 28bf 45b7 4ebe

fc1.bias f4 [192]
-0.38879338 -0.17316197 0.19233854 -0.39053145 0.26503673 0.25384268 0.31071255 -0.37379095
0.5041515 -0.3198714 0.51988494 -0.500329 -0.46574783 0.29521775 0.119125195 0.06128539
-0.3244422 -0.20712557 -0.17816943 -0.4912975 -0.005738267 0.051043708 -0.053107478 0.14173354
0.49685535 0.07993054 -0.18882228 -0.21718748 -0.43729752 -0.35117847 -0.076259404 -0.14530693
0.24853273 -0.34172687 0.38401687 -0.40656307 -0.07837487 0.4465868 0.48994905 -0.3123235
0.065619916 0.073199734 -0.30974877 -0.16562858 0.13121676 -0.31399888 0.033734936 0.29217187
-0.21235508 0.41510168 -0.07207461 0.233941 0.5202707 -0.11343057 0.280344 -0.20185317
-0.09155496 -0.1644511 -0.014405447 -0.25524363 0.08942009 0.015562667 0.31538433 -0.18793255
-0.0016175894 -0.22705476 -0.40845183 0.14815786 0.016967835 -0.27063954 -0.2823989 0.15154588
-0.07391638 0.3116812 0.05606323 0.1902928 0.21962655 -0.16555549 0.24693981 0.39046428
0.07347947 0.13269255 -0.019602502 0.3566809 -0.16458312 -0.28614694 0.2669258 -0.5350255
-0.01624419 -0.16771838 0.35202083 -0.5144573 0.326183 0.51378846 0.02096275 -0.13115373
0.490641 -0.28524008 -0.08734064 -0.22491343 -0.14260203 0.07987877 0.027126495 -0.14210588
-0.5545636 0.036611695 -0.0829841 0.085841775 0.37985417 0.46722257 -0.37836298 -0.09647013
-0.24733284 -0.51620305 -0.37223864 0.48180434 0.3211801 0.26481512 0.31559238 -0.37532035
0.00020645602 0.50251186 -0.28635764 0.47066286 0.083733976 0.35378328 -0.1993469 0.2492386
-0.49228415 -0.02152795 0.17502625 0.1792578 0.4523132 0.4981837 0.4329374 0.35190192
0.34346884 -0.08461809 -0.42036572 -0.15464978 -0.22380516 -0.37912452 0.2786174 0.14073579
0.06890284 0.115730844 0.43433413 -0.0387252 -0.31272978 -0.3186549 0.17683929 0.09848014
0.25114626 -0.51628274 -0.46143466 0.32645234 0.35342208 -0.4503469 0.20268738 -0.3540491
0.3874095 0.12676622 0.50885195 -0.49299598 -0.4906866 0.36114773 0.43691903 0.31282303
0.33607325 -0.42113566 0.37823218 -0.53369015 0.10380348 -0.3843619 -0.23021796 0.10840627
-0.25982022 -0.1124588 -0.45075586 -0.4074944 0.20192026 -0.22925144 -0.3259222 -0.2515555
-0.35658562 -0.39791653 0.28343704 0.24009494 0.022201244 -0.32249546 0.2010996 0.008748301
00000000: ed0f c7be 5f51 31be 65f4 443e bdf3 c7be
00000010: e5b2 873e abf7 813e b715 9f3e 8761 bfbe
00000020: 1310 013f 2fc6 a3be 2e17 053f 9015 00bf
00000030: 8076 eebe c826 973e e9f7 f33d 6406 7b3d
00000040: 4a1d a6be ba18 54be 0c72 36be 598b fbbe
00000050: 1308 bcbb 3513 513d 3a87 59bd 9922 113e
00000060: d363 fe3e 9fb2 a33d a15a 41be 6566 5ebe
00000070: 76e5 dfbe aacd b3be e42d 9cbd 57cb 14be
00000080: 5d7f 7e3e d3f6 aebe dc9d c43e 0929 d0be
00000090: 0183 a0bd 06a7 e43e 9ada fa3e dee8 9fbe
000000a0: bc63 863d bee9 953d 6497 9ebe 8a9a 29be
000000b0: b05d 063e 76c4 a0be a52d 0a3d 8d97 953e
000000c0: 9c73 59be 3588 d43e da9b 93bd 3b8e 6f3e
000000d0: 7630 053f 494e e8bd 4089 8f3e 99b2 4ebe
000000e0: 2b81 bbbd df65 28be d304 6cbc 4baf 82be
000000f0: e121 b73d 8efa 7e3c 0e7a a13e 6471 40be
00000100: 4b05 d4ba 0b81 68be 9920 d1be b2b6 173e
00000110: 2100 8b3c 4491 8abe 9796 90be d82e 1b3e
00000120: 7961 97bd ae94 9f3e 8fa2 653d 1edc 423e
00000130: c8e5 603e 6187 29be cadd 7c3e efea c73e
00000140: 687c 963d 8ee0 073e 6d95 a0bc e19e b63e
00000150: 7a88 28be da81 92be 80aa 883e 6ef7 08bf
00000160: 8912 85bc 5ebe 2bbe 133c b43e 79b3 03bf
00000170: 7501 a73e a487 033f 13ba ab3c 2a4d 06be
00000180: 4c35 fb3e fd0a 92be a6df b2bd b54f 66be
00000190: 4406 12be 7b97 a33d 6238 de3c 3484 11be
000001a0: e1f7 0dbf 25f6 153d 91f3 a9bd d0cd af3d
000001b0: 3f7c c23e cc37 ef3e cbb8 c1be 2292 c5bd
000001c0: d244 7dbe e225 04bf 1096 bebe 0faf f63e
000001d0: b871 a43e d995 873e 5395 a13e fd29 c0be
000001e0: 1e7c 5839 9ea4 003f 789d 92be b9fa f03e
000001f0: b87c ab3d 1523 b53e 9821 4cbe 6738 7f3e
00000200: ab0c fcbe 625b b0bc 153a 333e 5b8f 373e
00000210: 9995 e73e ef11 ff3e f9a9 dd3e 7d2c b43e
00000220: 26db af3e 404c adbd 2d3a d7be 835c 1ebe
00000230: 2e2d 65be 9c1c c2be f1a6 8e3e 0b1d 103e
00000240: ef1c 8d3d 4b04 ed3d 0b61 de3e 519e 1ebd
00000250: 1e1e a0be bc26 a3be 5c15 353e f5af c93d
00000260: 3e96 803e 1b2b 04bf 2a41 ecbe c324 a73e
00000270: bdf3 b43e de93 e6be 488d 4f3e ec45 b5be
00000280: 8a5a c63e 01cf 013e 1f44 023f f869 fcbe
00000290: 463b fbbe 5be8 b83e dab3 df3e 572a a03e
000002a0: cb11 ac3e 189f d7be a6a7 c13e eb9f 08bf
000002b0: eb96 d43d 15cb c4be 42be 6bbe 1b04 de3d
000002c0: 2807 85be cd50 e6bd 79c9 e6be 1ba3 d0be
000002d0: 2fc4 4e3e e4c0 6abe 46df a6be e2cb 80be
000002e0: 6492 b6be b7bb cbbe a91e 913e 73db 753e
000002f0: 62df b53c 201e a5be 0eed 4d3e 0955 0f3c

fc2.weight f4 [256, 192]
-0.051577065 0.0155299865 0.06571285 -0.070985675 -0.071764074 0.009246622 0.054344703 -0.043913964
0.015887028 0.050733592 0.022250816 0.015618101 0.07200467 0.04701599 -0.040589675 0.0062380177
0.036869038 0.06364633 -0.07180309 0.03907978 -0.020952895 -0.070669204 0.016019594 -0.039289672
0.010227196 -0.04685536 -0.054309104 -0.0061235954 -0.02424335 0.042208977 0.0062222565 0.056331962
0.013524644 -0.02320669 0.04888234 0.0039436677 0.013545481 -0.023211112 0.000258999 -0.013876119
-0.006135597 -0.05628294 -0.00044382992 -0.059903283 -0.015525728 0.041825145 -0.050182585 -0.048645496
-0.017621921 -0.01978392 0.012217268 0.0119811455 0.03659654 -0.04971567 -0.005093036 0.040363368
0.06242394 -0.005264386 -0.041758314 0.020745825 0.041098483 -0.045087438 -0.04187907 0.031898476
-0.0050565763 -0.06816332 -0.04161144 0.029266812 -0.024477897 0.04981299 0.0570523 0.010498386
-0.0057067275 -0.022908332 -0.003649275 0.013136227 -0.0551262 -0.017248027 -0.06003006 0.04429394
-0.0459597 0.065929346 -0.018603725 -0.04134371 0.034673717 0.010758856 0.049973708 0.030128283
-0.06952304 0.04564606 -0.013590381 -0.031896513 0.045831066 0.05263488 -0.06343136 -0.006525743
0.05926548 0.027950015 0.060799986 -0.024732148 -0.03981136 0.06205863 0.030081602 0.069280766
-0.030144654 -0.046337184 -0.008459112 -0.06795268 0.02828837 0.053230856 0.017324612 -0.0071307705
0.03578174 -0.04580923 0.07059862 -0.07176057 -0.06913374 -0.017053602 0.05895067 0.0072259563
0.027716111 -0.05290021 0.026318928 -0.008064388 0.02892695 0.050968666 0.03137034 -0.0061389776
-0.0044455347 -0.045262832 -0.026103599 0.046898022 -0.028939433 0.044819683 -0.028617227 -0.016808026
0.0015359102 -0.0662268 -0.00072060316 -0.0072743064 -0.0064833807 -0.014426843 0.05689623 0.053259633
-0.048912916 0.03352433 -0.056607936 -0.061438825 0.022060694 0.0010606269 -0.033667196 -0.069607064
-0.02793914 0.024104338 -0.06679953 -0.07010948 0.009156236 -0.05199069 -0.06322565 -0.027805638
-0.011619235 -0.06558015 -0.048189096 0.0047319517 -0.06805312 -0.010143642 -0.046599578 -0.050030094
0.028364569 -0.055547565 -0.05469197 0.041156523 0.01349313 0.065725036 -0.01929039 -0.03485861
-0.0066789654 0.00036512795 0.05503911 -0.07188588 -0.00513847 0.031924017 -0.039742123 -0.036671903
0.034876846 -0.06915106 0.01710081 -0.055872098 0.035872348 -0.06170723 0.04436971 -0.068317324
-0.12754907 0.01724513 0.06532817 -0.07371068 -0.028653797 0.09825851 0.029679189 0.0372504
-0.071800046 -0.020124065 -0.012991996 0.057072453 0.013899654 -0.0014153216 -0.053451393 -0.11560491
-0.15358317 -0.0726052 -0.07123416 -0.038009375 -0.033538353 -0.063954435 -0.02588938 -0.019990947
0.028111 0.014867186 -0.09514901 0.027611883 -0.026016014 -0.031401735 0.07792594 -0.34268647
-0.03493899 -0.11323217 0.010171054 0.07333739 0.07244421 -0.07221579 0.024932401 0.045157727
-0.010459401 0.029386105 -0.010729779 0.018507194 0.102392375 -0.17262577 0.07153656 0.06571556
-0.092615336 0.06540973 0.034500588 -0.09043671 -0.022020705 -0.058094382 -0.0025979506 0.108483896
-0.07010566 -0.017992985 0.0074153803 -0.058159497 0.061941974 0.0029128622 -0.07898376 -0.5017657
00000000: 7942 53bd 7c71 7e3c 7594 863d f060 91bd
00000010: 0bf9 92bd 257f 173c 8d98 5e3d 21df 33bd
00000020: 8325 823c 07ce 4f3d 5847 b63c 10e3 7f3c
00000030: 2f77 933d d793 403d 5c41 26bd 4968 cc3b
00000040: fd03 173d 0259 823d 800d 93bd 1f12 203d
00000050: 68a5 abbc 04bb 90bd 863b 833c 35ee 20bd
00000060: f88f 273c 68eb 3fbd 3973 5ebd 71a8 c8bb
00000070: fd99 c6bc 52e3 2c3d 12e4 cb3b 58bc 663d
00000080: 7896 5d3c f51b bebc d938 483d e239 813b
00000090: dded 5d3c 3b25 bebc 42ca 8739 a958 63bc
000000a0: 1e0d c9bb f188 66bd d8b1 e8b9 255d 75bd
000000b0: a05f 7ebc d850 2b3d 418c 4dbd 8040 47bd
000000c0: d95b 90bc e311 a2bc f02a 483c 914c 443c
000000d0: 41e6 153d a9a2 4bbd 7ce3 a6bb 0f54 253d
000000e0: 3fb0 7f3d df80 acbb c40a 2bbd 26f3 a93c
000000f0: e256 283d 9bad 38bd 6389 2bbd faa7 023d
00000100: a3b1 a5bb 3699 8bbd c270 2abd f4c0 ef3c
00000110: df85 c8bc b508 4c3d acaf 693d 6c01 2c3c
00000120: 80ff babb 41aa bbbc ad28 6fbb 5439 573c
00000130: 03cc 61bd bc4b 8dbc 15e2 75bd 906d 353d
00000140: 3d40 3cbd f705 873d d766 98bc 0658 29bd
00000150: 0706 0e3d ea45 303c 3bb1 4c3d 97cf f63c
00000160: 1862 8ebd 5df7 3a3d 30aa 5ebc eba5 02bd
00000170: 5bb9 3b3d ac97 573d 4de8 81bd e6d5 d5bb
00000180: 5cc0 723d 6ef7 e43c 6809 793d 139b cabc
00000190: 3d11 23bd 3131 7e3d b16d f63c 13e3 8d3d
000001a0: ecf1 f6bc 0fcc 3dbd 1698 0abc c62a 8bbd
000001b0: 03bd e73c 9908 5a3d 58ec 8d3c 3da9 e9bb
000001c0: e08f 123d 76a2 3bbd 0296 903d 35f7 92bd
000001d0: fe95 8dbd ffb3 8bbc 4276 713d b7c7 ec3b
000001e0: e60c e33c e4ad 58bd cb9a d73c 7f20 04bc
000001f0: 36f8 ec3c 85c4 503d 307e 003d 7a29 c9bb
00000200: d9ab 91bb 8565 39bd 37d7 d5bc 2418 403d
00000210: 6412 edbc d894 373d ad6e eabc fcb0 89bc
00000220: 9850 c93a eba1 87bd dce6 3cba 4e5d eebb
00000230: 8a72 d4bb 915e 6cbc 050c 693d c626 5a3d
00000240: e958 48bd cf50 093d b9dd 67bd 47a7 7bbd
00000250: a1b8 b43c bc04 8b3a 9de6 09bd 268e 8ebd
00000260: a0e0 e4bc 7676 c53c 31ce 88bd 8f95 8fbd
00000270: 0a04 163c 31f4 54bd 737c 81bd a6c8 e3bc
00000280: 9b5e 3ebc e34e 86bd ee61 45bd 7d0e 9b3b
00000290: 6f5f 8bbd 8531 26bc 33df 3ebd 5bec 4cbd
000002a0: d05c e83c d885 63bd b004 60bd be93 283d
000002b0: 4a12 5d3c d99a 863d e106 9ebc e7c7 0ebd
000002c0: 39db dabb a56e bf39 b170 613d e738 93bd
000002d0: 9c60 a8bb c2c2 023d a3c8 22bd 4735 16bd
000002e0: 06db 0e3d 129f 8dbd ff16 8c3c 24da 64bd
000002f0: e2ee 123d b8c0 7cbd 03bd 353d f4e9 8bbd
00000300: 399c 02be a945 8d3c c7ca 853d a0f5 96bd
00000310: 5ebb eabc c23b c93d c521 f33c e093 183d
00000320: e70b 93bd 39db a4bc 61dc 54bc cec4 693d
00000330: 60bb 633c 5082 b9ba d9ef 5abd 44c2 ecbd
00000340: e844 1dbe 09b2 94bd 37e3 91bd b8af 1bbd
00000350: 835f 09bd 8bfa 82bd f715 d4bc 0ec4 a3bc
00000360: 0a49 e63c 7f95 733c 7cdd c2bd 5132 e23c
00000370: 891f d5bc 1b9f 00bd a397 9f3d 9a74 afbe
00000380: 301c 0fbd 45e6 e7bd 7ea4 263c ea31 963d
00000390: a15d 943d dfe5 93bd 093f cc3c 4ff7 383d
000003a0: e85d 2bbc 21bb f03c f4cb 2fbc 669c 973c
000003b0: 18b3 d13d cfc4 30be c381 923d e195 863d
000003c0: 1cad bdbd 89f5 853d 7d50 0d3d e236 b9bd
000003d0: c464 b4bc 60f4 6dbd 6142 2abb ce2c de3d
000003e0: 8e93 8fbd 0666 93bc b8fc f23b a738 6ebd
000003f0: deb6 7d3d b8e5 3e3b 3dc2 a1bd b873 00bf

fc2.bias f4 [256]
-0.005581009 0.050994117 -0.0029464876 0.029220456 -0.07604206 -0.063208304 -0.026050366 0.02054527
0.07898562 0.05494104 0.038219385 0.084960096 0.048816696 -0.05264559 0.02162997 0.010420311
-0.06660937 0.02832022 0.024710003 -0.041974206 -0.05875578 0.05469145 0.011208159 0.05952122
0.083426684 0.0059107835 0.10501841 0.09424825 -0.028107828 0.015719995 -0.04051342 0.04715313
-0.057301853 0.019823851 0.06463106 -0.034760453 -0.0070338263 -0.013269258 0.08122495 0.08689702
0.043139774 -0.022057999 0.057316743 0.0068494477 0.022146713 -0.036946688 -0.040141646 -0.06351307
0.010302593 0.022547085 -0.01799734 0.025906276 0.027052727 0.07200232 -0.040030703 -0.037712608
0.0035392237 0.08726591 0.09870858 0.017515909 0.024956005 -0.025837095 0.008674531 -0.018519359
0.111282386 0.03037076 -0.04174864 0.030616323 0.05021104 0.031006357 -0.017070075 -0.021787759
0.067748025 -0.025888408 0.062383752 0.034199357 0.04319995 0.057898737 0.020359877 0.0016008008
0.058283783 -0.016210694 -0.026436144 0.008639386 -0.06720226 0.0042975536 -0.05800285 0.056206476
-0.064638026 0.00019203973 0.07512417 -0.0019110308 0.007257873 -0.074027784 0.01169267 -0.0655095
0.030738544 0.045692306 0.0560146 0.011852444 0.041753314 -0.022965752 -0.010296432 0.060282
-0.033471398 0.02339853 0.09274776 0.022335298 0.041668758 0.09904495 -0.029293159 0.00810347
-0.031902805 -0.0253481 -0.0657169 0.057450317 0.027985599 -0.054913543 0.06250194 -0.041041642
-0.081063956 0.011918353 0.052467886 0.032012638 0.06203471 0.01650423 0.013799768 0.06942575
0.0037183769 -0.0010383293 -0.036595963 0.059024118 0.039123274 0.014205082 -0.045155905 0.04139056
0.023165712 0.04419366 0.033266187 0.07195842 -0.030852765 -0.06462753 0.02556715 0.030592667
0.07937896 -0.014168522 0.07589611 0.016082289 -0.08322546 -0.058380995 0.08163533 -0.04989005
7.866727e-05 0.05739469 -0.034378693 0.055483967 0.04918261 0.046824466 -0.0049938546 -0.036679428
0.052218992 -0.039837617 -0.035125818 0.048002575 -0.014389115 0.07845945 0.015840143 0.031850938
0.021477748 0.03547064 0.051948015 -0.05275327 0.06809716 -0.065992326 0.0075711035 -0.0653514
0.043433014 -0.043677248 0.037907034 -0.0344804 0.030427583 -0.029724486 -0.013135566 -0.053665362
-0.0021140995 -0.007596028 -0.065845154 0.06138682 0.030737305 -0.043168817 0.069390394 -0.03465471
0.04645557 -0.028910527 -0.048579473 0.06767375 0.057603028 0.04385381 0.025885466 0.037839886
-0.04958912 0.05252953 -0.02242015 -0.029416718 0.0024735867 -0.042033978 0.0804183 -0.009759501
0.008103205 -0.059081722 -0.004670098 -0.0044439095 0.0020992127 -0.013015057 -0.012334071 0.060640365
0.0009092139 0.048513673 0.025880933 -0.053281497 0.009887791 -0.00624545 -0.06736446 0.10185261
0.059630673 0.009064336 -0.023652997 0.05012201 0.06994419 -0.07195181 0.0012430853 0.091266856
-0.0024625668 -0.07399905 0.017489117 -0.01341109 0.04133926 0.007925168 -0.014340475 -0.06324006
0.07496231 0.06015099 0.06537715 0.0151907625 0.07911754 0.0445175 0.077466205 -0.03691477
-0.06835607 0.04306606 0.030389844 0.08342963 -0.021350617 0.0065713595 -0.063693136 -0.0125168385
00000000: e6e0 b6bb 35df 503d dc19 41bb bd5f ef3c
00000010: f1bb 9bbd 5b73 81bd 9467 d5bc 8e4e a83c
00000020: 36c3 a13d db09 613d ee8b 1c3d 8fff ad3d
00000030: 04f4 473d e7a2 57bd 5631 b13c f4b9 2a3c
00000040: 7e6a 88bd ceff e73c a26c ca3c 25ed 2bbd
00000050: e7a9 70bd 2404 603d 6da2 373c 86cc 733d
00000060: 9cdb aa3d 3faf c13b e413 d73d 3a05 c13d
00000070: 6342 e6bc 38c7 803c 66f1 25bd a423 413d
00000080: 59b5 6abd a165 a23c 4a5d 843d fa60 0ebd
00000090: 037c e6bb 4d67 59bc 4459 a63d 11f7 b13d
000000a0: 55b3 303d fab2 b4bc f6c4 6a3d 5571 e03b
000000b0: 066d b53c 6955 17bd 916b 24bd 2413 82bd
000000c0: 35cc 283c aab4 b83c 286f 93bc 6639 d43c
000000d0: ae9d dd3c f475 933d 3cf7 23bd 8978 1abd
000000e0: 52f2 673b 78b8 b23d b927 ca3d 867d 8f3c
000000f0: 8970 cc3c 51a8 d3bc 9f1f 0e3c e9b5 97bc
00000100: 05e8 e33d 1acc f83c 9f00 2bbd 15cf fa3c
00000110: 17aa 4d3d 0b01 fe3c 8bd6 8bbc 3e7c b2bc
00000120: 7abf 8a3d ed13 d4bc 1b86 7f3d a014 0c3d
00000130: 6ef2 303d 3a27 6d3d c2c9 a63c f6d1 d13a
00000140: faba 6e3d 4acc 84bc 9d90 d8bc 368c 0d3c
00000150: 57a1 89bd 7ed2 8c3b 6594 6dbd c338 663d
00000160: f160 84bd 465e 4939 b3da 993d 8e7b faba
00000170: 74d3 ed3b e19b 97bd 9d92 3f3c d829 86bd
00000180: 66cf fb3c db27 3b3d 916f 653d c130 423c
00000190: 8605 2b3d ac22 bcbc 5eb2 28bc 42ea 763d
000001a0: 4e19 09bd 46ae bf3c 8af2 bd3d 84f8 b63c
000001b0: dcac 2a3d 14d8 ca3d 35f8 efbc 6bc4 043c
000001c0: 84ac 02bd d2a6 cfbc 9596 86bd 0651 6b3d
000001d0: 0e42 e53c 06ed 60bd 0401 803d 481b 28bd
000001e0: dc04 a6bd 3245 433c 91e8 563d af1f 033d
000001f0: 1c18 7e3d e133 873c 6c18 623c 162f 8e3d
00000200: 03b0 733b 8d18 88ba a6e5 15bd 46c3 713d
00000210: ba3f 203d 6fbc 683c 66f5 38bd 2689 293d
00000220: 05c6 bd3c 6904 353d 2042 083d f05e 933d
00000230: f0be fcbc 705b 84bd 3372 d13c 799d fa3c
00000240: 7091 a23d 1723 68bc 6b6f 9b3d 01bf 833c
00000250: 1c72 aabd e920 6fbd 6d30 a73d 8259 4cbd
00000260: 2bfa a438 b216 6b3d acd0 0cbd 2843 633d
00000270: b473 493d 03cb 3f3d 7da3 a3bb 2b3d 16bd
00000280: 95e3 553d c52c 23bd 17e0 0fbd 599e 443d
00000290: 53c0 6bbc 59af a03d 30c3 813c 2176 023d
000002a0: 1af2 af3c a949 113d 71c7 543d d013 58bd
000002b0: 8676 8b3d fc26 87bd 0517 f83b f4d6 85bd
000002c0: d1e6 313d eae6 32bd 6844 1b3d 523b 0dbd
000002d0: 4443 f93c c480 f3bc 8f36 57bc 36d0 5bbd
000002e0: b48c 0abb 1ae8 f8bb d3d9 86bd bf70 7b3d
000002f0: cdcc fb3c c9d1 30bd 8d1c 8e3d 19f2 0dbd
00000300: 3248 3e3d c5d5 ecbc 45fb 46bd 8998 8a3d
00000310: 27f1 6b3d 0da0 333d c20d d43c fffd 1a3d
00000320: f61d 4bbd 3429 573d 76aa b7bc 54fb f0bc
00000330: e61b 223b d22b 2cbd 5ab2 a43d 50e6 1fbc
00000340: 4ec3 043c adff 71bd 9f07 99bb 379e 91bb
00000350: f292 093b 1b3d 55bc d814 4abc 0862 783d
00000360: 5058 6e3a 46b6 463d 4004 d43c b33d 5abd
00000370: 6700 223c a2a6 ccbb 61f6 89bd 1a98 d03d
00000380: 4b3f 743d 9582 143c eec3 c1bc bd4c 4d3d
00000390: e63e 8f3d 785b 93bd 05ef a23a 1eea ba3d
000003a0: 0463 21bb d08c 97bd 5645 8f3c 30ba 5bbc
000003b0: 5b53 293d 90d8 013c 50f4 6abc 0184 81bd
000003c0: d785 993d e260 763d 75e4 853d ade2 783c
000003d0: 6008 a23d fb57 363d 9aa6 9e3d f133 17bd
000003e0: 44fe 8bbd 0966 303d 1ff4 f83c 27dd aa3d
000003f0: 7de7 aebc 8f54 d73b 8c71 82bd 6d13 4dbc

fc3.weight f4 [64, 256]
-0.027922258 -0.033456977 -0.055991694 -0.016158855 0.04764832 -0.054010376 -0.017918186 -0.052177206
0.048698407 0.028241318 -0.040769987 -0.01130946 -0.048652545 0.019695558 -0.016208423 0.035788763
-0.025447987 0.027714446 -0.05426272 -0.020400045 0.036646105 0.04403285 0.03842595 -0.009558431
-0.027208587 -0.04231509 0.056029923 0.043954734 0.05733158 -0.051296853 0.05234085 -0.039219864
-0.04497711 0.018010842 -0.03872757 0.056302764 0.032315355 0.039640754 0.028354911 -0.056693017
0.032402392 0.051280685 0.0027507087 -0.05497739 0.047865078 -0.034351595 0.029779404 0.010057539
0.039725102 -0.007543208 -0.014126443 -0.061417405 -0.05498188 0.0019681696 -0.024382956 -0.026807882
0.045541346 -0.01600947 -0.0013377266 -0.032691877 0.046283413 -0.0018119354 -0.0010859258 0.010778792
-0.036725216 0.0012398766 0.005084809 -0.041539516 -0.033018816 -0.06800363 0.0035622052 -0.015894592
-0.028021354 0.036875684 -0.06423729 -0.044436842 0.04200947 0.006320813 -0.056778703 0.043498207
-0.030340867 -0.03978515 0.031494398 0.004876332 0.04511402 -0.002436265 -0.016366385 -0.018593144
0.038863778 0.038016144 0.020319851 0.02621349 0.021475554 -0.030465523 -0.01934413 -0.0047745574
-0.044921868 0.061531343 0.043922357 -0.042776663 0.030586194 -0.016517019 0.037779436 -0.03485203
0.054375283 -0.021092255 0.039166562 0.051891655 0.0035551041 -0.009018131 -0.016041987 -0.06578602
0.006986405 0.008990895 -0.028952882 0.012332946 0.040581126 -0.06368197 0.045818556 0.00071927684
0.02190937 0.010717063 0.04680726 0.03095716 0.0261772 -0.016166043 -0.020730827 -0.05859994
-0.061208326 -0.06501691 0.053320054 -0.068655826 0.041315757 -0.06631397 0.05766961 0.013034237
0.0040196264 -0.015089989 -0.014848197 0.049144126 -0.0047523137 -0.0020704486 0.011144399 0.04763051
-0.03174033 0.02924113 -0.009898154 -0.040141877 0.021024782 0.014156169 -0.034721367 -0.048713796
-0.04699277 -0.0482368 0.055526994 0.03865638 -0.055338122 0.045966618 -0.015602372 -0.0042352444
0.030489944 0.05106344 0.0012518987 0.0024872143 0.004448849 -0.06525362 -0.0059320126 -0.061397884
0.042472858 -0.053905707 0.008053886 0.043183845 0.045788694 -0.061243966 -0.016660407 0.035909526
-0.05488014 -0.0035866534 -0.03008954 -0.0030701305 0.019547649 0.015321918 0.01835362 -0.017091537
-0.054650757 0.032731712 0.051834166 0.04284126 -0.06654435 -0.02252984 -0.047195382 -0.045237545
-0.0630998 0.021150574 0.002880238 -0.005025684 -0.055177517 0.02824165 -0.0012027576 0.0051266034
-0.017278846 -0.016273959 0.011896233 0.013167706 -0.015888004 0.045281462 0.03366927 0.012113194
0.022518454 -0.021323562 -0.02194714 -0.028582124 0.020034097 0.011901773 -0.058532022 -0.013803034
0.03803397 0.05103467 0.013426025 -0.004728506 -0.037690077 -0.034742482 -0.008300427 -0.011508259
-0.043047827 0.05574061 0.029033437 0.029628282 -0.046065792 0.012267999 0.03092772 0.022596214
0.049492758 -0.010216638 -0.050817158 -0.032613236 -0.06590534 0.04695301 -0.02085168 0.02970662
0.015315561 0.0024195712 -0.0010614373 -0.053256914 -0.0029555203 -0.009743222 0.0030023083 0.021993726
0.01208473 0.04095931 -0.011788753 0.045562863 -0.045792926 -0.05595064 0.007143139 0.03743774
00000000: 38bd e4bc 2f0a 09bd 8c57 65bd 935f 84bc
00000010: e32a 433d fc39 5dbd 29c9 92bc c4b7 55bd
00000020: fb77 473d 565a e73c 6efe 26bd 504b 39bc
00000030: e447 47bd 9458 a13c 87c7 84bc 3d97 123d
00000040: 4c78 d0bc 6809 e33c 9642 5ebd ff1d a7bc
00000050: 3a1a 163d ca5b 343d 8764 1d3d f79a 1cbc
00000060: 8be4 debc 9652 2dbd a27f 653d e109 343d
00000070: 85d4 6a3d a61c 52bd 5c63 563d 02a5 20bd
00000080: eb39 38bd 798b 933c cda0 1ebd ba9d 663d
00000090: 1b5d 043d 585e 223d 8f48 e83c f036 68bd
000000a0: 5fb8 043d b20b 523d 3c45 343b f92f 61bd
000000b0: 2c0e 443d 42b4 0cbd f0f3 f33c 60c8 243c
000000c0: cab6 223d 042d f7bb 9972 67bc d190 7bbd
000000d0: ae34 61bd 68fc 003b c4be c7bc 349c dbbc
000000e0: 9089 3a3d 4b26 83bc a856 afba ebe7 05bd
000000f0: ad93 3d3d 777e edba a055 8eba 8899 303c
00000100: 2e6d 16bd 5b83 a23a 789e a63b 5725 2abd
00000110: bd3e 07bd 7d45 8bbd e373 693b 6035 82bc
00000120: 0a8d e5bc f50a 173d d78e 83bd 6803 36bd
00000130: 1f12 2c3d d31e cf3b c990 68bd 2d2b 323d
00000140: 698d f8bc c1f5 22bd 4500 013d a3c9 9f3b
00000150: 7bc9 383d bea9 1fbb cc12 86bc a650 98bc
00000160: a02f 1f3d d1b6 1b3d d175 a63c acbd d63c
00000170: 80ed af3c d592 f9bc 9577 9ebc e473 9cbb
00000180: feff 37bd 4a08 7c3d eee7 333d 9536 2fbd
00000190: e68f fa3c b34e 87bc 9cbe 1a3d 01c1 0ebd
000001a0: 9eb8 5e3d aac9 acbc 1e6d 203d 588c 543d
000001b0: c0fc 683b c8c0 13bc 7c6a 83bc d2ba 86bd
000001c0: 36ee e43b 8c4e 133c 982e edbc 2010 4a3c
000001d0: 6538 263d b16b 82bd 3dac 3b3d da8d 3c3a
000001e0: 477b b33c 9f96 2f3c f8b8 3f3d df99 fd3c
000001f0: 9171 d63c a66e 84bc b2d3 a9bc 7e06 70bd
00000200: 95b5 7abd 9627 85bd 2166 5a3d 6d9b 8cbd
00000210: b63a 293d 9ecf 87bd f836 6c3d 8d8d 553c
00000220: 12b7 833b 003c 77bc da45 73bc 5a4b 493d
00000230: 4cb9 9bbb 5db0 07bb ff96 363c 3618 433d
00000240: 2602 02bd 188b ef3c de2b 22bc cf6b 24bd
00000250: 2a3c ac3c 47ef 673c fe37 0ebd 1e88 47bd
00000260: 7e7b 40bd f393 45bd 4670 633d 2756 1e3d
00000270: 3aaa 62bd 7e47 3c3d 17a1 7fbc cec7 8abb
00000280: 0cc6 f93c e627 513d c016 a43a 8800 233b
00000290: a6c7 913b b1a3 85bd 5461 c2bb 597c 7bbd
000002a0: 05f8 2d3d 3bcc 5cbd 72f4 033c 8be1 303d
000002b0: ed8c 3b3d f4da 7abd 687b 88bc de15 133d
000002c0: ffc9 60bd 0f0e 6bbb 577e f6bc 3e34 49bb
000002d0: 6422 a03c c808 7b3c 555a 963c 8d03 8cbc
000002e0: 79d9 5fbd b011 063d 1050 543d 517a 2f3d
000002f0: 6748 88bd 8090 b8bc f24f 41bd 014b 39bd
00000300: 783a 81bd f843 ad3c 60c2 3c3b 7eae a4bb
00000310: d201 62bd 085b e73c d9a5 9dba 11fd a73b
00000320: 5e8c 8dbc f750 85bc 6be8 423c 5dbd 573c
00000330: 8f27 82bc 0e79 393d cae8 093d 6b76 463c
00000340: 9f78 b83c c0ae aebc 7dca b3bc 0f25 eabc
00000350: 8c1e a43c a7ff 423c 46bf 6fbd 1f26 62bc
00000360: 82c9 1b3d bb09 513d d5f8 5b3c 95f1 9abb
00000370: e960 1abd 224e 0ebd 84fe 07bc 238d 3cbc
00000380: eb52 30bd 4450 643d 88d7 ed3c 03b7 f23c
00000390: 7caf 3cbd b8ff 483c 215c fd3c b21b b93c
000003a0: ebb8 4a3d b063 27bc a725 50bd 7595 05bd
000003b0: 61f9 86bd cd51 403d 24d1 aabc 4c5b f33c
000003c0: 1eee 7a3c ab91 1e3b ed1f 8bba ec23 5abd
000003d0: 67b1 41bb 09a2 1fbc 60c2 443b 302c b43c
000003e0: 08ff 453c f3c4 273d 9d25 41bc 20a0 3a3d
000003f0: 5d91 3bbd 802c 65bd fe10 ea3b 5158 193d

fc3.bias f4 [64]
-0.004312362 0.022963304 -0.0688382 0.017592061 0.0030025325 0.041171506 -0.0010943852 0.03660679
-0.021466954 0.049352687 0.046760343 0.039854757 0.008424636 0.018917708 -0.055788174 0.03435926
-0.061220188 0.038892694 -0.06648728 0.04793027 -0.023996824 -0.028459914 -0.02856569 0.07120395
-0.0140884705 -0.02901251 0.06109607 0.0017095634 0.080099225 -0.018089551 0.0012169037 0.054525685
0.034093797 0.048221126 0.03657174 -0.06109362 0.04645916 0.030484434 0.01888697 -0.011423913
-0.0188044 0.09306758 0.068184435 -0.032341868 -0.05593463 0.00063600106 0.052675113 0.048193794
-0.0026279 0.04270263 -0.06940915 -0.04052787 -0.056157526 -0.016815474 0.10170602 0.070579484
-0.009272942 0.062405318 -0.053820565 0.00045517087 0.04091022 0.007440321 -0.010210499 0.09626313
00000000: b74e 8dbb 8a1d bc3c 0bfb 8cbd 3a1d 903c
00000010: 23c6 443b 74a3 283d 7971 8fba 00f1 153d
00000020: 77db afbc 0b26 4a3d c687 3f3d be3e 233d
00000030: 7c07 0a3c 4ff9 9a3c 2482 64bd 4cbc 0c3d
00000040: 05c2 7abd f24d 1f3d 7c2a 88bd 8852 443d
00000050: fd94 c4bc c424 e9bc 9802 eabc 60d3 913d
00000060: 54d3 66bc a5ab edbc df3f 7a3d 6e13 e03a
00000070: 100b a43d 8a30 94bc 8380 9f3a 5356 5f3d
00000080: f0a5 0b3d 8483 453d 40cc 153d 4e3d 7abd
00000090: f64b 3e3d 7eba f93c d9b8 9a3c 5d2b 3bbc
000000a0: af0b 9abc 379a be3d 48a4 8b3d e878 04bd
000000b0: b61b 65bd 4fb9 263a dcc1 573d db66 453d
000000c0: d938 2cbb f4e8 2e3d 6226 8ebd 8d00 26bd
000000d0: 6f05 66bd 9bc0 89bc 3f4b d03d fa8b 903d
000000e0: 8aed 17bc b89c 7f3d f472 5cbd 00a4 ee39
000000f0: 7a91 273d f0cd f33b f049 27bc 9b25 c53d

fc4.weight f4 [2, 64]
-0.09031688 -0.05241784 -0.028288277 0.14538325 0.11847324 -0.09803517 0.13884553 -0.10393494
-0.115724914 -0.00890746 -0.57036847 0.07877706 0.06281074 0.07166234 -0.019540159 0.15473442
-0.101780176 -0.0151757905 -0.091376506 -0.028003125 -0.111779585 -0.07197082 0.08223607 0.0898454
-0.102108285 0.0349693 0.07045967 0.1294792 0.15420064 0.03144701 -0.03584107 0.084297374
-0.09442383 0.07180635 -0.61659396 -0.047057405 0.073629715 -0.056410324 -0.06290504 -0.08650871
-0.06752589 0.1227877 0.14000355 0.07639019 -0.030180845 -0.050781175 -0.017337253 -0.055170108
0.10779264 0.030726671 -0.057697706 0.02338956 0.008034884 0.022895804 0.09862281 0.08919121
0.027765289 0.077943444 -0.08777529 0.057634488 -0.026555069 -0.0951734 -0.032868713 0.014982424
-0.014209422 0.08351335 -0.04102926 -0.02743872 -0.016337948 -0.061191197 0.15754661 0.06895143
0.042407766 0.1366524 -0.1903302 -0.092268854 0.17477544 -0.07576932 0.114745125 0.13957974
0.011937254 0.16410702 0.09257826 -0.09756164 -0.115917966 0.02336515 -0.082758516 0.10474457
0.019681826 -0.012971874 0.12977158 0.12254383 -0.0037302058 0.0963516 -0.003948141 0.04648826
0.0052094045 0.004703299 -0.43842235 0.09949803 0.021284712 -0.081330486 0.04777325 0.04613171
0.07255063 0.0054472666 -0.006324631 0.0660366 -0.091416165 0.0019259918 0.0048753778 0.035394784
0.17193638 0.18021896 0.11397319 -0.09841511 -0.051335745 -0.103252314 -0.0014149679 0.17121391
0.0938983 0.02983344 -0.00062081846 -0.013337195 -0.079583436 -0.119594745 0.0072663426 0.16794045
00000000: 0ef8 b8bd 17b4 56bd d1bc e7bc 59df 143e
00000010: 19a2 f23d aac6 c8bd 862d 0e3e d8db d4bd
00000020: 2f01 edbd 98f0 11bc ab03 12bf de55 a13d
00000030: eba2 803d b4c3 923d af12 a0bc b372 1e3e
00000040: 2072 d0bd e1a3 78bc 9b23 bbbd cf66 e5bc
00000050: b2ec e4bd 7065 93bd 626b a83d dd00 b83d
00000060: 261e d1bd f83b 0f3d 294d 903d 3296 043e
00000070: c6e6 1d3e 94ce 003d 16ce 12bd 1aa4 ac3d
00000080: 4861 c1bd 350f 933d 1ad9 1dbf 44bf 40bd
00000090: 2dcb 963d 830e 67bd 5cd4 80bd 7b2b b1bd
000000a0: 044b 8abd 1e78 fb3d 175d 0f3e 7672 9c3d
000000b0: d23d f7bc ecff 4fbd db06 8ebc 0dfa 61bd
000000c0: 63c2 dc3d 80b6 fb3c 6e54 6cbd 769b bf3c
000000d0: bfa4 033c fb8f bb3c c1fa c93d e2a9 b63d
000000e0: 0874 e33c d0a0 9f3d 88c3 b3bd 2412 6c3d
000000f0: 048a d9bc 46ea c2bd 58a1 06bd d778 753c
00000100: a3ce 68bc 0c09 ab3d 4c0e 28bd 2bc7 e0bc
00000110: 29d7 85bc 9fa3 7abd e653 213e 6836 8d3d
00000120: c4b3 2d3d 9bee 0b3e ece5 42be 74f7 bcbd
00000130: 55f8 323e f22c 9bbd 7eff ea3d feed 0e3e
00000140: 7994 433c ac0b 283e ac99 bd3d 66ce c7bd
00000150: 6666 edbd 4568 bf3c 4c7d a9bd 5284 d63d
00000160: c83b a13c fc87 54bc d7e2 043e 42f8 fa3d
00000170: 7876 74bb fd53 c53d 685f 81bb 796a 3e3d
00000180: a7b3 aa3b 221e 9a3b e578 e0be a0c5 cb3d
00000190: 475d ae3c 9990 a6bd e2ad 433d 9bf4 3c3d
000001a0: 6d95 943d fc7e b23b da3e cfbb 323e 873d
000001b0: 6638 bbbd 9071 fc3a a2c1 9f3b 1ffa 103d
000001c0: 1710 303e 528b 383e c76a e93d dc8d c9bd
000001d0: 6e45 52bd f375 d3bd 7276 b9ba b352 2f3e
000001e0: c04d c03d 4265 f43c 6cbe 22ba 4084 5abc
000001f0: a4fc a2bd 17ee f4bd 801a ee3b 95f8 2b3e

fc4.bias f4 [2]
0.015489478 0.11190083
00000000: 94c7 7d3c 432c e53d
