models/cartpole_ddqn.pth (torch, 270472 bytes, 8 tensors)

fc1.weight f4 [128, 4]
0.0022033174 0.22364822 -0.7074531 -0.35247356 -0.40426415 0.22606954 -0.031118738 0.35288998
-0.07711501 0.058450527 0.24105142 -0.023765089 -0.3879051 -0.2715679 -0.4310668 -0.012311541
0.15409006 0.1936185 -0.65688056 -0.21254924 -0.009294239 0.40135124 -0.090834595 0.35308546
-0.07109553 -0.0047436254 0.67163116 -0.423716 -0.33214194 -0.021717168 -0.277773 0.37212345
-0.30344838 -0.29657474 -0.22533919 -0.38652092 -0.39494538 0.33845037 0.7659494 0.34170824
-0.03949475 -0.4107654 0.28172734 -0.387708 -0.2660457 -0.23359412 0.55440223 0.24225292
-0.211081 0.036697716 0.6239777 0.4258611 0.23187496 -0.004829707 0.2737663 -0.24603993
0.20321628 -0.32754433 -0.5895682 -0.2656695 0.3385281 0.23185639 -0.57311356 0.09996689
0.1247852 -0.099483445 -0.37240002 0.036277648 0.33051676 0.40983936 -0.6224397 -0.13812761
0.10984293 0.41499192 0.5487931 0.45201302 0.17671147 -0.38278443 0.09078618 -0.34327972
-0.58500624 0.4024969 0.7480691 -0.44414774 0.051203705 -0.12035455 -0.22272775 -0.20938072
0.32341185 -0.24735524 0.38303992 0.21868806 0.3348206 0.1563498 -0.8012655 -0.32108364
0.19959725 0.033921257 -0.6877024 -0.26593322 0.4704862 0.25921842 -0.46843457 -0.11393656
-0.39383548 -0.080213256 -0.64574426 -0.35802525 -0.06447616 0.12266891 -0.44249648 0.24706775
-0.30698618 0.44421202 0.67678547 -0.39534396 -0.16298391 0.040816367 -0.001323977 0.11189095
-0.044909615 0.06513235 -0.345105 0.23867679 -0.50336653 -0.29450408 -0.11478517 -0.29124817
-0.12711829 -0.34031367 -0.39372635 0.07060773 -0.36436254 -0.018575707 0.8772851 -0.070741795
-0.1004058 -0.03129773 0.45305353 0.28790057 0.5096454 0.32380006 0.49021217 -0.07975942
-0.5120558 -0.20077433 0.7694434 -0.028270435 -0.24256437 -0.3876213 -0.75685984 -0.41015115
-0.24694835 0.23104502 0.52500623 -0.45964074 0.31189102 -0.39125472 -0.10570514 -0.20273632
-0.006683957 -0.083700456 -0.39745703 -0.43492028 -0.20902702 -0.01192025 0.10423491 0.20539254
-0.50423324 -0.06401882 0.8730488 -0.19426265 0.39969373 0.20416994 -0.7782002 0.31113273
-0.050453905 -0.21495765 0.667161 -0.37541097 0.12673952 -0.04905309 0.72146773 0.099894814
0.2006119 0.17216243 0.04057076 -0.09991013 -0.40678152 0.31830984 0.9292274 0.33260912
-0.22977448 0.011146269 -0.65476274 -0.2956351 -0.23940703 0.21087125 -0.6003427 -0.07615648
-0.009790409 0.24839523 -0.74247015 -0.31175205 -0.34454727 0.37143308 -0.30268967 0.40974614
0.13749342 0.070603445 -0.18310176 -0.045623876 0.02530678 -0.08552786 -0.083665095 0.050527632
-0.3299884 -0.18678677 0.65455717 -0.41827443 -0.10181146 0.4931154 0.41703513 0.042309653
-0.3634831 0.3190843 -0.09360714 -0.11292038 -0.253794 -0.04296454 -0.11001479 0.37680253
0.046754662 0.40326783 0.4160183 -0.30157134 0.16110982 -0.34133938 -0.4102687 0.1323575
0.021264875 0.30028453 -0.15674105 0.04106404 0.2887549 -0.45220777 0.39053106 -0.38355014
-0.061569173 -0.078854546 -0.48529196 0.09932997 0.42741814 -0.10352316 -0.60405505 -0.23194645
00000000: 8865 103b 0a04 653e a51b 35bf 6a77 b4be
00000010: b6fb cebe c67e 673e b9ec febc ffad b43e
00000020: 79ee 9dbd d269 6f3d 2fd6 763e 01af c2bc
00000030: 7f9b c6be f30a 8bbe cab4 dcbe 58b6 49bc
00000040: c9c9 1d3e ee43 463e 5329 28bf 82a6 59be
00000050: dd46 18bc e97d cd3e 7d07 babd 9ec7 b43e
00000060: 899a 91bd 6a70 9bbb 05f0 2b3f 4ef1 d8be
00000070: 820e aabe 34e8 b1bc 4338 8ebe f786 be3e
00000080: 965d 9bbe a5d8 97be 51bf 66be 12e6 c5be
00000090: 4836 cabe 5e49 ad3e 4315 443f 62f4 ae3e
000000a0: 3fc5 21bd d84f d2be 913e 903e aa81 c6be
000000b0: 2437 88be 4c33 6fbe 4eed 0d3f 2611 783e
000000c0: 9e25 58be 5850 163d 01bd 1f3f 770a da3e
000000d0: a170 6d3e 8542 9ebb 192b 8c3e e4f1 7bbe
000000e0: ee17 503e e4b3 a7be f1ed 16bf d505 88be
000000f0: 8e53 ad3e c36b 6d3e 92b7 12bf 71bb cc3d
00000100: 628f ff3d fabd cbbd 37ab bebe df97 143d
00000110: 7e39 a93e 77d6 d13e 3558 1fbf 5371 0dbe
00000120: 55f5 e03d d279 d43e b47d 0c3f 406e e73e
00000130: daf3 343e 52fc c3be 1bee b93d 5cc2 afbe
00000140: f8c2 15bf 1314 ce3e 7581 3f3f 5567 e3be
00000150: faba 513d 727c f6bd be12 64be e667 56be
00000160: 3d96 a53e b14a 7dbe cf1d c43e c3ef 5f3e
00000170: 9b6d ab3e 291a 203e bc1f 4dbf 1365 a4be
00000180: 3963 4c3e 04f1 0a3d 440d 30bf 6628 88be
00000190: 91e3 f03e 47b8 843e a8d6 efbe 9257 e9bd
000001a0: cea4 c9be d946 a4bd 7f4f 25bf 164f b7be
000001b0: 140c 84bd d639 fb3d e68e e2be 54ff 7c3e
000001c0: 4b2d 9dbe c26f e33e d041 2d3f 866a cabe
000001d0: 41e5 26be 102f 273d 4c89 adba 1527 e53d
000001e0: 25f3 37bd 1c64 853d 9ab1 b0be b067 743e
000001f0: a1dc 00bf 3dc9 96be 7d14 ebbd 7b1e 95be
00000200: 4c2b 02be 983d aebe 8096 c9be c99a 903d
00000210: ba8d babe 152c 98bc c295 603f 13e1 90bd
00000220: 8ea1 cdbd 0c32 00bd a2f6 e73e b467 933e
00000230: 1f78 023f 1fc9 a53e 17fd fa3e e858 a3bd
00000240: 1716 03bf c997 4dbe 3efa 443f 6697 e7bc
00000250: cb62 78be 4d76 c6be 91c1 41bf 55ff d1be
00000260: 07e0 7cbe 1197 6c3e cf66 063f 0856 ebbe
00000270: 2eb0 9f3e 8a52 c8be f07b d8bd 1c9a 4fbe
00000280: 1805 dbbb 256b abbd 7d7f cbbe dfad debe
00000290: 2e0b 56be 274d 43bc 1d79 d53d 6c52 523e
000002a0: 6e15 01bf 4d1c 83bd 2080 5f3f caec 46be
000002b0: a8a4 cc3e ed11 513e 2138 47bf ca4c 9f3e
000002c0: c1a8 4ebd dc1d 5cbe 10cb 2a3f de35 c0be
000002d0: 01c8 013e e5eb 48bd 1cb2 383f a795 cc3d
000002e0: 356d 4d3e 594b 303e 862d 263d af9d ccbd
000002f0: ab45 d0be 82f9 a23e d9e1 6d3f be4b aa3e
00000300: 004a 6bbe d79e 363c 889e 27bf 7c5d 97be
00000310: 1e27 75be a2ee 573e 0fb0 19bf eef7 9bbd
00000320: f467 20bc 525b 7e3e 8612 3ebf f79d 9fbe
00000330: 8068 b0be 7a2c be3e 24fa 9abe 3fca d13e
00000340: 13cb 0c3e 8a98 903d 077f 3bbe 1ae0 3abd
00000350: 2a50 cf3c 3b29 afbd 9b58 abbd 10f6 4e3d
00000360: 3df4 a8be 0845 3fbe 0f91 273f 1128 d6be
00000370: 8782 d0bd 9f79 fc3e a185 d53e e34c 2d3d
00000380: 751a babe 045f a33e 1ab5 bfbd cd42 e7bd
00000390: 4af1 81be 96fb 2fbd 6f4f e1bd 43ec c03e
000003a0: d181 3f3d 1f79 ce3e 5a00 d53e 8f67 9abe
000003b0: f9f9 243e 09c4 aebe bd0e d2be b988 073e
000003c0: ad33 ae3c e5be 993e ba80 20be c432 283d
000003d0: afd7 933e c787 e7be b0f3 c73e af60 c4be
000003e0: f52f 7cbd 7e7e a1bd 3078 f8be 836d cb3d
000003f0: 8dd6 da3e f303 d4bd 5aa3 1abf 5f83 6dbe

fc1.bias f4 [128]
-0.11417576 -0.23150444 0.02239714 0.12962055 -0.31125683 0.06320205 0.2512354 -0.035288602
0.049259815 -0.03099058 0.18232222 -0.41631085 -0.32355753 -0.2904231 0.48209438 -0.08451862
-0.04465825 -0.2809163 0.51518226 0.50202495 -0.43315423 -0.46116102 -0.37853637 0.02028898
-0.19633965 -0.4202301 -0.1729329 0.09438249 -0.18681441 0.12312035 -0.07006248 -0.2589822
0.081133164 0.37986985 -0.34954792 0.028895957 -0.16722895 0.49307293 -0.47665197 -0.4793306
0.48985502 -0.38503504 0.16375607 -0.016773343 -0.10483125 -0.12511408 0.3153371 0.005294454
-0.47738752 -0.24379209 -0.21935555 0.26839325 -0.3714231 0.48373485 -0.08879822 -0.045420088
0.41246492 0.21550626 0.4268225 0.2861783 -0.11251069 -0.36287546 0.030774426 0.40327996
-0.178057 -0.36917385 0.20629099 0.47586024 -0.15437311 -0.5138474 -0.42606682 0.15700324
0.00095116417 -0.30052954 0.06900367 0.20581251 0.40573758 0.41161588 -0.101634376 -0.45586136
-0.45181155 0.47411543 0.21950936 0.24205935 -0.32300216 0.4897039 0.4932103 0.4729745
-0.4217925 -0.20836751 -0.41011438 0.47212708 -0.24792619 -0.18902628 0.31040713 -0.36033073
-0.18107991 -0.0996644 -0.096686296 -0.38903984 0.4354881 -0.27187887 0.12678371 0.4520999
0.25690064 0.024584912 0.44859877 0.09131003 -0.26280922 0.4912157 0.10430954 -0.50235444
-0.15335952 -0.46465585 0.40139276 -0.06208881 -0.5435358 -0.04802547 0.30111322 0.13560122
0.1594312 0.12736568 0.1912954 -0.16327015 -0.2787084 -0.43492112 -0.45591658 0.2373734
00000000: fbd4 e9bd 800f 6dbe 357a b73c 40bb 043e
00000010: 0e5d 9fbe 1470 813d eda1 803e c88a 10bd
00000020: a9c4 493d f5df fdbc adb2 3a3e b226 d5be
00000030: 55a9 a5be 56b2 94be 13d5 f63e 1918 adbd
00000040: 92eb 36bd 43d4 8fbe fce2 033f b584 003f
00000050: 64c6 ddbe 4c1d ecbe 85cf c1be 1335 a63c
00000060: 430d 49be 6628 d7be 5215 31be 9b4b c13d
00000070: 474c 3fbe 8626 fc3d eb7c 8fbd 5199 84be
00000080: 2529 a63d 4d7e c23e f2f7 b2be 37b7 ec3c
00000090: 113e 2bbe 0e74 fc3e ba0b f4be d26a f5be
000000a0: 47ce fa3e 5023 c5be acaf 273e 4068 89bc
000000b0: c4b1 d6bd e81d 00be dd73 a13e 197d ad3b
000000c0: 236c f4be a2a4 79be be9e 60be d76a 893e
000000d0: 2b2b bebe 18ac f73e d7db b5bd 6a0a 3abd
000000e0: 9a2e d33e acad 5c3e 7b88 da3e f685 923e
000000f0: 016c e6bd d0ca b9be a61a fc3c b67a ce3e
00000100: 9354 36be 5b04 bdbe f23d 533e f4a3 f33e
00000110: fc13 1ebe 818b 03bf 6e25 dabe 75c5 203e
00000120: 8c57 793a 02df 99be cc51 8d3d 84c0 523e
00000130: d6bc cf3e 51bf d23e af25 d0bd a966 e9be
00000140: d853 e7be 42bf f23e 10c7 603e 68de 773e
00000150: 8a60 a5be 78ba fa3e 0f86 fc3e b729 f23e
00000160: 30f5 d7be 4b5e 55be 83fa d1be a4ba f13e
00000170: 5de0 7dbe 1b90 41be afed 9e3e 457d b8be
00000180: 036d 39be d91c ccbd 7703 c6bd 3b30 c7be
00000190: 4cf8 de3e b533 8bbe 97d3 013e a379 e73e
000001a0: 7b88 833e 4c66 c93c bdae e53e c100 bb3d
000001b0: ee8e 86be a080 fb3e 3da0 d53d 4d9a 00bf
000001c0: 470a 1dbe 5fe7 edbe 5a83 cd3e d650 7ebd
000001d0: 2a25 0bbf 5bb6 44bd 832b 9a3e 0cdb 0a3e
000001e0: ef41 233e 266c 023e f1e2 433e 4a30 27be
000001f0: deb2 8ebe fbad debe e66d e9be 0312 733e

fc2.weight f4 [256, 128]
-0.041159764 -0.08499092 0.04197665 -0.030403765 -0.06746627 0.06396858 -0.002675849 -0.011020844
-0.08084511 -0.8979109 0.0924636 -0.07102725 0.021230506 -0.08386323 -0.018254938 -0.14192152
-0.0038879293 0.09026986 -0.051455308 0.06350053 -0.015625555 -0.18373938 0.072931096 -0.044060312
-0.009409895 0.05856385 -0.06759305 0.06365089 -0.015966954 0.048967067 -0.08546085 0.10315728
-0.064459816 0.015925627 0.0068322755 0.07745974 -0.032104764 0.06496713 0.054452304 -0.023915512
0.14936763 -0.06592469 -0.0433555 -0.013879732 0.0840287 -0.15895973 0.02788588 -0.35784978
-0.13290483 -0.18390137 0.046337344 -0.05085369 -0.19186518 0.09847019 0.018898917 -0.08435881
0.13405174 -0.11455297 0.056781027 0.0016275371 -0.038711693 0.02974856 -0.09726518 0.080388896
-0.06843194 -0.26016557 -0.012894142 0.123349495 -0.074816205 -0.027053997 -0.024389539 -0.02601798
-0.09531057 -0.20640875 0.04991675 0.02057223 -0.029178184 0.07753061 -0.033262398 0.060027454
0.071684465 -0.05132624 0.033037722 -0.026257496 0.092826195 -0.021351557 0.0934776 -0.082738236
0.053493023 -0.039707147 0.0049315714 0.10486762 0.024569236 -0.27591354 -0.08029714 -0.03146704
-0.4400677 -0.07094812 0.02162412 -0.03234574 -0.07900067 -0.09981101 0.13798149 0.027886877
-0.024100408 -0.044347078 0.11223497 0.05684981 -0.15155141 0.009619348 -0.14809212 0.011071541
-0.012422024 0.06656172 0.063203774 0.020722872 -0.07541014 -0.057614148 0.0014926272 -0.054569773
-0.020280333 0.006724845 -0.06575116 0.03435333 -0.022435034 -0.061926004 -0.12168629 0.07101163
-0.0761422 -0.0258339 0.02142756 -0.07743571 0.03963809 0.046010345 0.04714716 -0.056351736
0.08008315 -0.05239321 0.080372505 -0.08482545 -0.07875136 0.04454929 0.0017264606 -0.007423885
-0.04894579 -0.04553211 -0.032137427 -0.09360185 -0.003851025 0.0032455714 -7.4831725e-05 0.020399714
0.07545903 0.013332065 -0.04116035 -0.036375932 -0.0648117 -0.061272465 -0.014234929 -0.015632857
0.03932066 -0.044865903 0.070463516 -0.069898516 0.0002512163 0.071863815 0.07844309 -0.051200032
0.00805399 0.01044067 -0.04903895 -0.030537719 0.015190819 -0.06146218 0.0069946274 0.03824782
-0.05198459 0.061569553 -0.01417162 0.034492284 0.07516968 -0.03406157 0.03877411 -0.033371363
-0.020500615 -0.014979274 -0.008202118 -0.029415185 0.011943941 0.003330507 0.05602847 -0.025516246
0.0004938087 -0.03287961 -0.06995936 0.028121924 0.0030786896 -0.035398096 -0.029884538 0.015629632
-0.015982106 0.04814455 -0.0030882175 0.026251746 0.042331126 -0.029158534 0.038242534 0.0652247
0.004067487 0.009884838 -0.0047025285 0.053871416 -0.037317146 -0.048491426 0.031547856 -0.083053365
0.0014170824 -0.04064901 0.058339275 -0.089998744 0.05359273 0.06987618 0.011841395 -0.005889021
0.08700506 -0.045618355 -0.0070828726 -0.038705695 -0.018435057 0.019210227 0.004218317 -0.02418692
-0.08837426 0.0045258445 -0.010157884 0.008767902 0.056554414 0.078339614 -0.052439254 -0.0055114063
-0.03541488 -0.08146273 -0.07187724 0.07437802 0.040652353 0.047477897 0.041351628 -0.075656824
0.009282474 0.075464025 -0.05671242 0.07862977 0.023231858 0.06218505 -0.037864476 0.035891406
00000000: 2497 28bd b80f aebd b5ef 2b3d 5111 f9bc
00000010: c12b 8abd f501 833d 4c5d 2fbb c590 34bc
00000020: 1f92 a5bd 7ddd 65bf 8e5d bd3d bc76 91bd
00000030: 99eb ad3c 7cc0 abbd 618b 95bc e053 11be
00000040: a1cc 7ebb 68df b83d cdc2 52bd 910c 823d
00000050: 2a01 80bc 2d26 3cbe e65c 953d 9678 34bd
00000060: f62b 1abc a6e0 6f3d 3a6e 8abd 665b 823d
00000070: 21cd 82bc b191 483d 1906 afbd 2044 d33d
00000080: 8203 84bd 7676 823c 48e1 df3b 36a3 9e3d
00000090: 4980 03bd 7d0d 853d 6109 5f3d 77ea c3bc
000000a0: d4f3 183e 8603 87bd 8995 31bd d167 63bc
000000b0: 3d17 ac3d 57c6 22be ee70 e43c 1638 b7be
000000c0: 3418 08be a450 3cbe 3acc 3d3d f54b 50bd
000000d0: 4e78 44be bdaa c93d e7d1 9a3c 50c4 acbd
000000e0: dc44 093e bf9a eabd 3993 683d 1553 d53a
000000f0: 2790 1ebd 41b3 f33c f732 c7bd efa2 a43d
00000100: 0c26 8cbd 6c34 85be f441 53bc a99e fc3d
00000110: 3d39 99bd 58a0 ddbc 92cc c7bc a923 d5bc
00000120: 3032 c3bd d15c 53be 8275 4c3d 1887 a83c
00000130: 1607 efbc 5ec8 9e3d 273e 08bd 59df 753d
00000140: 4ecf 923d 773b 52bd 9052 073d f619 d7bc
00000150: a91b be3d 76e9 aebc 2f71 bf3d aa72 a9bd
00000160: 801b 5b3d f6a3 22bd 0599 a13b d6c4 d63d
00000170: 6c45 c93c 8a44 8dbe d472 a4bd 95e3 00bd
00000180: 8e50 e1be 3f4d 91bd 1125 b13c f77c 04bd
00000190: 1acb a1bd b769 ccbd 054b 0d3e 0573 e43c
000001a0: 386e c5bc 48a5 35bd 73db e53d 59db 683d
000001b0: 4b30 1bbe 789a 1d3c 76a5 17be 6965 353c
000001c0: bf85 4bbc 8351 883d fb70 813d 03c3 a93c
000001d0: a270 9abd d0fc 6bbd 42a4 c33a 8e84 5fbd
000001e0: f122 a6bc 175c dc3b 8ba8 86bd 14b6 0c3d
000001f0: adc9 b7bc 1fa6 7dbd a936 f9bd 8c6e 913d
00000200: 71f0 9bbd 9da1 d3bc da88 af3c 9d96 9ebd
00000210: 8d5b 223d 5875 3c3d 611d 413d 14d1 66bd
00000220: a202 a43d 439a 56bd 579a a43d f7b8 adbd
00000230: 6548 a1bd 5179 363d 684a e23a 1044 f3bb
00000240: 617b 48bd e17f 3abd 89a2 03bd 54b2 bfbd
00000250: 7a61 7cbb a7b3 543b faee 9cb8 4d1d a73c
00000260: 448a 9a3d bc6e 5a3c c197 28bd eefe 14bd
00000270: ffbb 84bd d6f8 7abd 9f39 69bc 7a10 80bc
00000280: b30e 213d 4fc5 37bd 2d4f 903d f426 8fbd
00000290: aeb5 8339 562d 933d c5a6 a03d 20b7 51bd
000002a0: e2f4 033c 580f 2b3c 11dd 48bd 3d2a fabc
000002b0: eae2 783c c4bf 7bbd 3033 e53b bfa9 1c3d
000002c0: cbed 54bd 5b30 7c3d 1530 68bc c847 0d3d
000002d0: 90f2 993d 2584 0bbd 9ad1 1e3d 69b0 08bd
000002e0: e8f0 a7bc a16b 75bc 2d62 06bc 1df8 f0bc
000002f0: 85b0 433c a344 5a3b 1c7e 653d 7207 d1bc
00000300: f172 013a c5ac 06bd da46 8fbd f35f e63c
00000310: d7c3 493b 98fd 10bd 6bd0 f4bc b709 803c
00000320: e8ec 82bc 3833 453d b163 4abb e70d d73c
00000330: 6763 2d3d e1dd eebc 34a4 1c3d 8794 853d
00000340: 8e48 853b 04f4 213c ab17 9abb 46a8 5c3d
00000350: ddd9 18bd f29e 46bd 5338 013d e217 aabd
00000360: 65bd b93a 947f 26bd 2af5 6e3d 4351 b8bd
00000370: 0d84 5b3d 3e1b 8f3d 6902 423c b0f8 c0bb
00000380: b52f b23d 50da 3abd 7117 e8bb dd89 1ebd
00000390: 1e05 97bc c45e 9d3c cf39 8a3b a623 c6bc
000003a0: 90fd b4bd 894d 943b 416d 26bc 3fa7 0f3c
000003b0: 9aa5 673d 8570 a03d 8bca 56bd 0799 b4bb
000003c0: 310f 11bd efd5 a6bd 6034 93bd 8153 983d
000003d0: 1583 263d 2f78 423d 5360 293d f7f1 9abd
000003e0: 8515 183c e28c 9a3d 484b 68bd a508 a13d
000003f0: bd50 be3c c0b5 7e3d c817 1bbd de02 133d

fc2.bias f4 [256]
0.0010714774 -0.09390237 0.023193903 0.053542968 0.10852905 0.048602857 0.03996486 0.113705195
-0.017740501 -0.028630683 0.10062374 -0.08730736 0.02078982 -0.02121263 -0.053620957 -0.023932315
0.03180013 0.07374974 0.11695312 0.010501344 0.030087737 0.08380193 -0.02003127 0.068990365
0.07567952 -0.020915153 -0.0072349748 -0.038081724 0.04463971 0.076505095 -0.028119458 0.040969465
0.09134658 0.062211897 -0.05655194 0.012888902 -0.0070283716 0.063652486 -0.012735294 0.015268182
0.034238152 -0.08144041 0.106891535 0.09539869 -0.04385829 0.04771452 -0.0009339835 0.04927108
-0.016755199 0.062690996 -0.021256555 0.069114715 0.13572419 0.03819837 -0.052454323 0.061355274
0.13227202 0.043732353 0.05451454 -0.016823689 0.024374878 0.1354781 0.113049224 0.059718464
-0.031163758 0.121066906 -0.023028867 -0.06419641 0.06800078 0.06583294 -0.10438211 -0.026182117
0.035485566 0.06467885 0.08446145 -0.07568152 0.09091946 -0.0064428025 0.106283344 -0.02699609
0.027254619 -0.005069217 0.080358334 0.085496105 -0.055279236 0.058216043 -0.0196683 -0.00057767256
-0.039875172 0.12005274 0.04761298 -0.032534838 0.10427892 -0.051552087 0.047662716 0.022307478
-0.09441296 0.040047914 0.020575685 -0.052889563 0.032247137 0.012240564 -0.06431514 -0.047526427
0.05278183 0.076175995 -0.10104575 -0.021461343 -0.08303562 -0.017575707 -0.0017842884 0.020394491
-0.03679458 -0.04380029 0.13784644 0.12966283 -0.08226477 -0.05308798 0.0032806683 0.0032764513
0.059453487 -0.04575436 -0.02827687 0.06414464 0.024885196 -0.03874993 0.06394448 0.019682694
0.001376039 -0.004509608 -0.06152609 0.015162619 -0.0823646 -0.015458913 -0.0012338279 0.01444226
0.07055816 -0.078162745 0.02150655 0.0012656085 -0.07571175 0.0259889 -0.08340606 -0.060779013
0.06005954 -0.026210299 -0.018193629 -0.04842848 0.0033863834 0.06751706 -0.07961564 0.064538084
-0.08359873 -0.048416905 0.10159853 0.05920965 0.11037724 0.07905483 0.10779504 0.099355526
0.020481925 -0.08456818 0.059998672 0.028853837 -0.030668676 -0.0036881187 0.017984517 0.048124865
-0.0038009586 -0.062182236 0.09792318 0.05569609 -0.02438701 0.112528004 -0.038177308 -0.07713225
0.07455224 0.07488415 0.011806642 0.0387712 -0.052206516 0.051145043 -0.050042983 0.06128535
0.09681421 0.03104874 0.096165285 0.007916074 0.022622045 -0.1012197 -0.06262204 -0.021924373
-0.06341359 -0.0041562547 0.06482501 -0.10330049 0.069668636 0.06750719 -0.06856288 0.004357829
0.09781496 -0.049947355 0.104447655 -0.0054645706 0.009968764 -0.12835501 0.06588658 0.088247456
0.08459397 0.023754362 0.053678703 0.0666413 -0.041794844 0.074142545 0.10027567 0.03914302
0.07754633 -0.013777253 0.030430788 0.11596458 0.018261993 -0.06924049 0.0026206102 -0.098289825
0.023220532 -0.00090183865 0.0038870438 -0.047118604 0.07074458 -0.04458677 -0.111791335 0.041265335
-0.012132193 -0.109964006 0.055484712 -0.08714516 -0.0106211845 -0.07768285 0.008861451 -0.0054903114
-0.055840384 0.0030026592 -0.05915988 -0.034884945 0.038225707 0.007160948 -0.0006236469 -0.018974716
-0.0571897 -0.00873503 0.09033321 -0.0857375 -0.027120816 -0.016978528 0.049437203 0.025852382
00000000: d170 8c3a e34f c0bd 2401 be3c df4f 5b3d
00000010: 7b44 de3d ca13 473d 31b2 233d 45de e83d
00000020: 8754 91bc e58a eabc d213 ce3d 33ce b2bd
00000030: 6a4f aa3c 1cc6 adbc a6a1 5bbd b40d c4bc
00000040: da40 023d 1b0a 973d 1e85 ef3d d40d 2c3c
00000050: 8f7a f63c 59a0 ab3d 9e18 a4bc d24a 8d3d
00000060: ddfd 9a3d 4156 abbc 5e13 edbb 95fb 1bbd
00000070: 21d8 363d b4ae 9c3d c75a e6bc 99cf 273d
00000080: ea13 bb3d e7d1 7e3d 02a3 67bd f92b 533c
00000090: 414e e6bb 3c5c 823d b2a7 50bc 6627 7a3c
000000a0: 4e3d 0c3d 3bca a6bd f3e9 da3d 6360 c33d
000000b0: c0a4 33bd 4d70 433d 92d6 74ba 79d0 493d
000000c0: 3342 89bc 2364 803d 3a22 aebc 048c 8d3d
000000d0: 48fb 0a3e e575 1c3d 58da 56bd ab4f 7b3d
000000e0: 5172 073e b220 333d a34a 5f3d d5d1 89bc
000000f0: d3ad c73c c5ba 0a3e 5a86 e73d 599b 743d
00000100: 234b ffbc edf1 f73d 09a7 bcbc 6879 83bd
00000110: fe43 8b3d 6cd3 863d 4ac6 d5bd e17b d6bc
00000120: 5059 113d 5876 843d 20fa ac3d eafe 9abd
00000130: fb33 ba3d 251e d3bb 15ab d93d e726 ddbc
00000140: 1445 df3c ad1b a6bb e992 a43d 9518 af3d
00000150: 7b6c 62bd f273 6e3d 6a1f a1bc f36e 17ba
00000160: 2654 23bd 36de f53d d405 433d 4043 05bd
00000170: 3090 d53d 4828 53bd fb39 433d 2cbe b63c
00000180: 955b c1bd 4809 243d 578e a83c baa2 58bd
00000190: 9315 043d a68c 483c a8b7 83bd 12ab 42bd
000001a0: c331 583d 2902 9c3d 13f1 cebd b3cf afbc
000001b0: 940e aabd eefa 8fbc c9de e9ba 5912 a73c
000001c0: eab5 16bd ef67 33bd 9e27 0d3e 55c6 043e
000001d0: 6f7a a8bd c872 59bd 7b00 573b bbb9 563b
000001e0: 8085 733d ec68 3bbd e5a4 e7bc 445e 833d
000001f0: 0adc cb3c 3fb8 1ebd 53f5 823d 9a3d a13c
00000200: 355c b43a 55c5 93bb c802 7cbd a26c 783c
00000210: c5ae a8bd 6147 7dbc 65b8 a1ba 3b9f 6c3c
00000220: cc80 903d ca13 a0bd 812e b03c c6e2 a53a
00000230: c30e 9bbd ace6 d43c ccd0 aabd 6af3 78bd
00000240: fe00 763d fbb6 d6bc ce0a 95bc f15c 46bd
00000250: 16ee 5d3b 6246 8a3d 860d a3bd 8b2c 843d
00000260: d035 abbd ce50 46bd e412 d03d d185 723d
00000270: 760d e23d 80e7 a13d a5c3 dc3d e97a cb3d
00000280: b6c9 a73c 1532 adbd 2bc1 753d e25e ec3c
00000290: e03c fbbc 5db4 71bb 4454 933c 941e 453d
000002a0: 8119 79bb cdb2 7ebd f38b c83d 9521 643d
000002b0: 44c7 c7bc 1575 e63d cf5f 1cbd 83f7 9dbd
000002c0: d8ae 983d dc5c 993d a570 413c 8dce 1e3d
000002d0: 80d6 55bd 777d 513d dff9 4cbd 5906 7b3d
000002e0: 8746 c63d ed59 fe3c 4ef2 c43d 6cb2 013c
000002f0: de51 b93c 464c cfbd fc3f 80bd be9a b3bc
00000300: fcde 81bd 3131 88bb fac2 843d 358f d3bd
00000310: 6eae 8e3d 3641 8a3d b26a 8cbd 1fcc 8e3b
00000320: 3653 c83d 9995 4cbd a7e8 d53d 2410 b3bb
00000330: 0754 233c 7f6f 03be 8bef 863d 15bb b43d
00000340: 9a3f ad3d 8298 c23c 33de 5b3d 3c7b 883d
00000350: 1231 2bbd 0cd8 973d 555d cd3d 6e54 203d
00000360: 9cd0 9e3d fdb9 61bc fd49 f93c d67e ed3d
00000370: 2d9a 953c f5cd 8dbd 8bbe 2b3b 2d4c c9bd
00000380: fc38 be3c 5e69 6cba c6bd 7e3b 70ff 40bd
00000390: 89e2 903d 9ea0 36bd dbf2 e4bd d705 293d
000003a0: 1bc6 46bc cf34 e1bd f043 633d 2979 b2bd
000003b0: 7a04 2ebc 3018 9fbd 9f2f 113c 12e8 b3bb
000003c0: e3b8 64bd 43c8 443b a151 72bd 84e3 0ebd
000003d0: 8f92 1c3d 63a6 ea3b 3c7c 23ba dd70 9bbc
000003e0: bf3f 6abd 5f1d 0fbc 9e00 b93d 2497 afbd
000003f0: 792c debc 8e16 8bbc aa7e 4a3d 60c8 d33c

fc3.weight f4 [128, 256]
0.021692678 -0.0065132007 -0.056240924 0.009823546 -0.008096948 -0.008237349 0.0056871474 -0.05832138
-0.07010813 0.04312907 -0.014883935 -0.017841682 0.0024528801 -0.052815817 -0.0013695508 0.03285761
0.020451017 -0.048819795 0.019530416 0.023591496 0.04117865 -0.024010345 -0.02033066 -0.04046315
0.02535455 0.04351879 -0.040357158 0.025999054 0.017891742 0.0040419623 0.04900381 -0.024276808
-0.014925145 -0.04266318 0.0509834 0.032527037 0.052870534 -0.03317663 -0.008131579 -0.0003830105
-0.060148887 -0.060372174 -0.027041651 -0.038736045 0.059030578 0.050061353 -0.029569857 -0.07162843
-0.05808741 -0.0041728243 -0.050327696 -0.03483919 0.021714978 -0.040065847 -0.029848546 -0.010049395
0.041094147 0.03336612 0.009660073 0.041621894 -0.012544207 -0.031543214 -0.023174113 -0.0019225404
-0.021762483 0.026048686 0.031333268 0.061673783 -0.07562226 -0.054074697 -0.031275667 0.0012228042
-0.00378675 0.03588979 -0.05564893 -0.038748205 0.03784257 -0.009063326 -0.064813256 -0.05360306
0.058688357 -0.0025698096 0.03907416 -0.07023037 -0.0034833401 0.016725026 -0.04907023 0.01411999
-0.049947396 -0.07642631 0.0015347525 0.038888425 -0.015573203 -0.015863858 0.03367038 0.024567986
-0.0030803084 0.030345187 -0.049379833 -0.052114606 0.005530335 -0.03409092 0.033518568 -0.012277752
-0.009903774 -0.05627946 -0.009109043 0.011376418 0.035766818 -0.033511706 -0.013987534 -0.03784866
-0.0061881244 -0.016684309 0.010143952 -0.0126833385 0.030816853 0.034722067 -0.06102656 0.016218148
-0.029397225 -0.002170749 0.0011008531 0.048350826 -0.011801228 -0.0761058 -0.0044851447 -0.03145279
0.0053109825 -0.046466097 -0.02983611 -0.009521084 0.0621071 -0.076637074 0.038016446 0.020884722
-0.058474034 0.045171067 -0.046443112 -0.027928544 0.013374835 0.03427252 -0.011744425 0.05456402
-0.018432997 -0.04339069 -0.040916376 0.008401789 -0.04536335 0.03840591 -0.048169203 0.010770217
-0.014613718 0.050941035 0.020000739 1.2673438e-05 -0.013867529 -0.018695645 -0.037209038 0.046391547
-0.043506626 0.0441546 -0.056043044 0.01673694 -0.027158372 0.050878145 -0.002587013 -0.0088170925
0.025210515 -0.011634961 -0.070611894 0.04521323 -0.001393095 -0.019390604 -0.028948888 0.017888963
0.03501735 -0.05408136 -0.018521264 0.0064011407 -0.03850785 0.051982373 0.056698777 -0.015318386
0.034571715 -0.056684658 0.006057203 -0.038949274 0.025638297 0.04188677 -0.04032065 -0.041410826
0.03312861 0.036655538 -0.045055017 -0.0021071658 -0.057870965 0.013910532 -0.03985694 0.018180843
-0.0383105 0.055929706 -0.04039147 -0.0357493 -0.028020652 0.03631798 0.029653989 -0.021023342
-0.0389753 -0.014221117 0.058882356 0.01383242 0.048758857 0.03917455 0.0048377737 -0.046196982
0.039690677 0.006369181 0.013403483 -0.054674745 0.015958779 -0.011735506 -0.048169315 0.055801377
-0.0154739395 -0.036514126 -0.047020964 0.061707363 0.03933271 0.059490934 0.0600335 -0.036182843
-0.05988665 0.044511534 -0.050000824 -0.0143597275 -0.016983785 -0.022468992 -0.031783022 -0.021308705
0.041661054 0.061091274 0.01960843 -0.048658088 -0.046945155 -0.006844878 0.019475944 -0.04491435
0.059732713 -0.024379231 -0.052736375 -0.058566257 -0.048535652 0.0029401751 -0.034654222 -0.036669903
00000000: d8b4 b13c b06c d5bb e25c 66bd f0f2 203c
00000010: 10a9 04bc f2f5 06bc 405b ba3b 66e2 6ebd
00000020: da94 8fbd 1ca8 303d c0db 73bc b828 92bc
00000030: 80c0 203b 6655 58bd 8082 b3ba b495 063d
00000040: e488 a73c 44f7 47bd 40fe 9f3c f442 c13c
00000050: f2aa 283d 58b1 c4bc 7c8c a6bc b0bc 25bd
00000060: 58b4 cf3c c240 323d 8c4d 25bd f8fb d43c
00000070: b491 923c 7072 843b 38b8 483d 28e0 c6bc
00000080: 9888 74bc 96bf 2ebd f8d3 503d 123b 053d
00000090: c68e 583d 38e4 07bd 503a 05bc cdce c8b9
000000a0: ae5e 76bd d048 77bd 7486 ddbc b0a9 1ebd
000000b0: 0cca 713d 220d 4d3d 7c3c f2bc edb1 92bd
000000c0: 10ed 6dbd 30bc 88bb 6a24 4ebd 8ab3 0ebd
000000d0: 9ce3 b13c 161c 24bd f084 f4bc 38a6 24bc
000000e0: 5652 283d eaaa 083d 4845 1e3c b87b 2a3d
000000f0: 3886 4dbc 7533 01bd a3d7 bdbc c0fd fbba
00000100: 3c47 b2bc 0e64 d53c 5057 003d a69d 7c3d
00000110: d8df 9abd 6e7d 5dbd ea1a 00bd 8046 a03a
00000120: 1f2b 78bb 2c01 133d 22f0 63bd 70b6 1ebd
00000130: d000 1b3d 587e 14bc d0bc 84bd e28e 5bbd
00000140: 3463 703d 406a 28bb 3a0c 203d f1d4 8fbd
00000150: c048 64bb ec02 893c defd 48bd 8857 673c
00000160: a495 4cbd 6685 9cbd c029 c93a 7849 1f3d
00000170: bf26 7fbc ecf4 81bc f4e9 093d cd42 c93c
00000180: 00df 49bb 7896 f83c 8242 4abd 2076 55bd
00000190: d037 b53b eca2 0bbd c44a 093d a028 49bc
000001a0: 7043 22bc 4b85 66bd 183e 15bc 2864 3a3c
000001b0: 3a80 123d 9243 09bd f82b 65bc 3207 1bbd
000001c0: c0c5 cabb 88ad 88bc d232 263c c7cd 4fbc
000001d0: a073 fc3c ba38 0e3d fcf6 79bd ecdb 843c
000001e0: 73d2 f0bc 2043 0ebb 804a 903a 840b 463d
000001f0: f059 41bc 5cdd 9bbd 1ff8 92bb a4d4 00bd
00000200: c007 ae3b 3c53 3ebd dc6a f4bc 52fe 1bbc
00000210: 0464 7e3d e6f3 9cbd 22b7 1b3d 7016 ab3c
00000220: 7882 6fbd 4c05 393d 223b 3ebd 67ca e4bc
00000230: 2022 5b3c 5861 0c3d b06b 40bc 867e 5f3d
00000240: cc00 97bc 70ba 31bd ee97 27bd a8a7 093c
00000250: ecce 39bd 844f 1d3d 124d 45bd 9075 303c
00000260: 606e 6fbc 8ca7 503d 97d8 a33c 00a0 5437
00000270: a234 63bc 9c27 99bc 8168 18bd 1005 3e3d
00000280: 0134 32bd 74db 343d 648d 65bd e81b 893c
00000290: 3c7b debc 9a65 503d e08a 29bb 9175 10bc
000002a0: 4886 ce3c 90a0 3ebc f89c 90bd 8231 393d
000002b0: 8398 b6ba 0bd9 9ebc 3826 edbc e08b 923c
000002c0: 5a6e 0f3d 6b84 5dbd e8b9 97bc a9c0 d13b
000002d0: 68ba 1dbd 78eb 543d fa3c 683d f8f9 7abc
000002e0: 129b 0d3d 2c2e 68bd 807b c63b 4689 1fbd
000002f0: 6807 d23c 7691 2b3d 4427 25bd 669e 29bd
00000300: deb1 073d 1e24 163d 9c8b 38bd 6018 0abb
00000310: 1b0a 6dbd 00e9 633c 0841 23bd feef 943c
00000320: 79eb 1cbd 8c16 653d 8771 25bd dc6d 12bd
00000330: 918b e5bc 2ac2 143d ecec f23c 2539 acbc
00000340: 90a4 1fbd b0ff 68bc a02e 713d 60a1 623c
00000350: 5eb7 473d 7e75 203d 3086 9e3b 0c39 3dbd
00000360: b192 223d 90b4 d03b 489a 5b3c a0f2 5fbd
00000370: fcbb 823c 4846 40bc 304d 45bd fc8f 643d
00000380: 6886 7dbc d68f 15bd 0e99 40bd dcc0 7c3d
00000390: 561b 213d c4ac 733d b0e5 753d 7634 14bd
000003a0: b44b 75bd ba51 363d aacd 4cbd 1045 6bbc
000003b0: 9421 8bbc e410 b8bc ea2e 02bd 988f aebc
000003c0: c8a4 2a3d d83a 7a3d dca1 a03c b44d 47bd
000003d0: 9049 40bd 004b e0bb 048c 9f3c 1cf8 37bd
000003e0: 4aaa 743d f4b6 c7bc 1902 58bd 2ce3 6fbd
000003f0: 52cd 46bd f4af 403b 96f1 0dbd 2e33 16bd

fc3.bias f4 [128]
0.033936385 0.08542225 0.0037030461 0.089865096 0.03587054 -0.017404662 -0.06532265 -0.051918015
-0.04831375 -0.030186001 0.012633692 0.09633653 0.074527904 0.05681258 0.059345122 -0.026895853
0.006683531 0.020222101 -0.040095054 -0.04585205 -0.07694968 0.09059325 0.022359662 0.03511566
0.03064565 -0.07619202 0.02729729 0.12301794 0.0074378313 -0.004867643 0.026787143 0.08929583
0.0061800596 0.034586426 0.043171976 0.012181891 0.03407972 -0.03617987 0.053426314 -0.005004582
0.02824056 0.019708382 -0.06557269 -0.052658252 0.09703531 0.014703461 -0.019342897 -0.040316418
0.106429085 -0.022390904 0.10199215 0.043510642 0.094656184 -0.031654537 0.048719157 0.115307964
-0.057247996 0.02389466 -0.0745522 0.043073047 -0.011724282 -0.026571989 0.068556376 0.08585597
-0.04302389 0.12141129 0.020821767 0.019684786 -0.062015556 0.026908863 0.018395709 -0.032920353
0.027486522 0.12369701 0.10019013 0.08151097 -0.049321197 0.10221005 -0.052172575 0.033716194
0.066526145 0.10039879 0.026642397 0.010509116 0.042831916 0.074300624 -0.026354041 0.05713491
-0.06533524 -0.050962415 0.1221061 0.029112088 0.03205705 0.072661124 -0.041915722 0.015346342
0.039865833 0.029163435 0.117331505 0.025463004 0.013102779 0.07831218 0.009298172 -0.05527301
0.06845026 -0.067782834 -0.05532205 0.057965588 -0.021860404 0.012251302 -0.079629846 0.10162849
0.043345723 0.038646996 0.0585796 0.07338626 0.015347684 -0.042807274 0.033468235 -0.07291774
0.012626016 -0.038650826 -0.055610836 0.056620166 0.086016074 -0.019975377 -0.03516729 -0.06317641
00000000: e100 0b3d dcf1 ae3d ceae 723b 310b b83d
00000010: fdec 123d 3994 8ebc e2c7 85bd fca7 54bd
00000020: a4e4 45bd a248 f7bc 8bfd 4e3c 164c c53d
00000030: 16a2 983d 4fb4 683d df13 733d b154 dcbc
00000040: 8601 db3b d2a8 a53c b63a 24bd 5ccf 3bbd
00000050: cb97 9dbd f488 b93d 9c2b b73c 70d5 0f3d
00000060: 960c fb3c 900a 9cbd 919e df3c d4f0 fb3d
00000070: 0db9 f33b c080 9fbb b670 db3c bbe0 b63d
00000080: 1982 ca3b 7faa 0d3d 19d5 303d 8e96 473c
00000090: 2d97 0b3d 5831 14bd 8dd5 5a3d 7afd a3bb
000000a0: bf58 e73c 7973 a13c f94a 86bd 2eb0 57bd
000000b0: 73ba c63d c9e6 703c ff74 9ebc d422 25bd
000000c0: 7ef7 d93d 216d b7bc 43e1 d03d 3738 323d
000000d0: 1adb c13d 30a8 01bd bd8d 473d 9526 ec3d
000000e0: e07c 6abd bcbe c33c d3ae 98bd 5d6d 303d
000000f0: 3417 40bc 80ad d9bc 4967 8c3d 41d5 af3d
00000100: d239 30bd 7ba6 f83d 6992 aa3c fd41 a13c
00000110: 0604 7ebd fa6f dc3c 99b2 963c 7ed7 06bd
00000120: 6a2b e13c dc54 fd3d 7c30 cd3d 39ef a63d
00000130: 0605 4abd 8153 d13d e9b2 55bd fe19 0a3d
00000140: dc3e 883d e19d cd3d 2841 da3c 6d2e 2c3c
00000150: 8570 2f3d ed2a 983d 6ee4 d7bc 4c06 6a3d
00000160: 7bce 85bd f7bd 50bd c312 fa3d 797c ee3c
00000170: 414e 033d 5bcf 943d d2af 2bbd 396f 7b3c
00000180: 5b4a 233d 28e8 ee3c 804b f03d ca97 d03c
00000190: 0aad 563c 2362 a03d 5c57 183c f465 62bd
000001a0: a62f 8c3d bad1 8abd 6099 62bd 536d 6d3d
000001b0: 9714 b3bc afb9 483c f914 a3bd 9922 d03d
000001c0: 498b 313d 504c 1e3d 2af1 6f3d 894b 963d
000001d0: da74 7b3c ae56 2fbd fd15 093d e555 95bd
000001e0: 59dd 4e3c 5450 1ebd 30c8 63bd 8cea 673d
000001f0: 3229 b03d 67a3 a3bc 940b 10bd a262 81bd

fc4.weight f4 [2, 128]
0.040738773 0.024545707 0.0064972774 0.10481187 0.028345801 0.013299882 0.013455133 0.08381487
-0.073216476 0.032775633 -0.036728445 0.081729576 0.15582621 0.08528945 0.07426092 0.037409123
0.066203356 0.088543944 0.08662759 -0.013451229 -0.060053326 -0.018107798 0.055572506 0.1372936
-0.05529988 0.013058346 -0.08958643 0.102910146 0.12309487 -0.048942804 -0.022988351 -0.043745384
0.07126197 0.10664053 -0.018385747 -0.010772762 0.03749215 0.037616484 0.031504944 0.057265807
0.12904474 0.10779547 -0.042088345 0.009934834 -0.31129405 0.060643654 0.08381492 0.038509186
0.06683195 -0.06386751 0.097338095 -0.046947595 0.049987316 0.04515865 0.08015884 -0.0041035884
-0.033223566 0.05762024 -0.04363572 0.08430046 0.07256836 -0.0014942111 0.06884518 0.10392496
-0.038094573 0.04075663 -0.08214598 -0.02261212 0.053344812 0.054793645 0.057163518 0.08531377
0.07787174 0.08453968 -0.06613152 -0.02129631 0.06022033 -0.020942425 0.044938732 0.09273539
0.15487781 0.11298508 0.08004369 0.102868885 0.10069464 0.100320145 -0.37862566 0.07656903
-0.06879723 -0.009825532 0.005780495 -0.028446788 -0.13387068 0.11397031 0.03237294 0.14004777
0.13433993 -0.044804595 0.00694847 -0.06305905 -0.0018983302 0.047217872 0.17598905 -0.074111424
0.06531972 -0.07254752 -0.035509102 0.118825525 0.00621057 -0.06736468 0.0053972043 0.043181334
-0.060984064 0.07514558 0.023301326 0.15384416 -0.05801864 0.00029892818 -0.068955414 -0.054688483
0.04360391 -0.0670286 -0.015442953 0.07725583 -0.051353868 0.0072959503 -0.038888253 -0.042421643
-0.044826392 0.09508661 -0.06979418 0.066291444 0.25859642 -0.063923664 -0.063938856 -0.025517367
0.014877276 -0.016891332 0.016590616 0.20549497 0.08071257 0.08165294 0.05150338 -0.07551756
-0.05834175 0.042175923 -0.061810847 -0.017960776 0.045962878 0.094850704 0.030992284 0.12734446
-0.026645517 0.083804466 0.12746455 0.12270959 0.048805747 -0.0232841 0.014434686 0.10773396
0.03692445 0.028383447 0.0206574 -0.047377247 0.08680409 0.06430685 0.008984536 -0.072830975
-0.080209315 -0.16086856 -0.06916636 -0.041826375 0.17587021 0.12793808 0.024212463 0.03514362
0.06430969 0.075363055 0.055915955 -0.05437866 0.071000874 0.07417974 0.12664013 0.123731434
-0.05130839 -0.018195357 0.02187484 0.11063101 -0.05022487 0.069548674 -0.033279303 0.11300922
0.0060282224 0.08491677 -0.08095602 -0.034377888 -0.05123818 0.11492072 -0.07345522 0.036218256
0.0098060705 0.0814033 0.12494659 0.11227417 -0.054535292 0.10749015 -0.09244581 0.040933225
-0.12445349 0.07010247 -0.08371622 0.11439356 -0.008852283 -0.057737987 0.020139739 0.07643534
0.00069781917 -0.033685103 0.076705165 -0.06814626 -0.040189967 0.007919064 0.010943155 -0.03650181
0.2544572 0.014463985 0.082967974 -0.08004522 0.007509979 -0.45424 0.19896993 -0.0051935157
0.028738163 0.05523211 0.035154704 -0.05230708 -0.06069483 0.02209267 0.06309888 0.13832049
-0.06798698 0.035673045 -0.63480616 -0.06843718 -0.06799808 0.008442938 0.15038848 0.024373416
0.068385646 0.01743938 -0.057228763 0.033347283 0.14015192 0.025611537 -0.0017219101 0.06789374
00000000: b3dd 263d 1414 c93c 1de7 d43b 9ba7 d63d
00000010: 7435 e83c c0e7 593c eb72 5c3c 21a7 ab3d
00000020: 85f2 95bd be3f 063d 9170 16bd d661 a73d
00000030: e890 1f3e 3cac ae3d 1c16 983d 4f3a 193d
00000040: a095 873d 8756 b53d ce69 b13d 8b62 5cbc
00000050: 7afa 75bd ce56 94bc ff9f 633d b296 0c3e
00000060: 2182 62bd acf2 553c 1779 b7bd 8ec2 d23d
00000070: 2a19 fc3d 4078 48bd 1152 bcbc 5c2e 33bd
00000080: ccf1 913d 5a66 da3d b59d 96bc 3d80 30bc
00000090: 5e91 193d be13 1a3d 540b 013d 8d8f 6a3d
000000a0: 4e24 043e dfc3 dc3d d464 2cbd b7c5 223c
000000b0: ef61 9fbe 7b65 783d 28a7 ab3d cfbb 1d3d
000000c0: 30df 883d f8cc 82bd 3259 c73d 1f4c 40bd
000000d0: 80bf 4c3d 47f8 383d 512a a43d 6577 86bb
000000e0: 6f15 08bd 3303 6c3d 5ebb 32bd b8a5 ac3d
000000f0: b89e 943d 68d9 c3ba b4fe 8c3d 9cd6 d43d
00000100: 0e09 1cbd 6df0 263d 273c a8bd 0d3d b9bc
00000110: 1780 5a3d 4d6f 603d 4b24 6a3d fcb8 ae3d
00000120: 387b 9f3d 2423 ad3d f66f 87bd 9975 aebc
00000130: 98a9 763d 738f abbc ad11 383d 0dec bd3d
00000140: 4a98 1e3e b964 e73d f2ed a33d ecac d23d
00000150: fe38 ce3d a674 cd3d 39db c1be 39d0 9c3d
00000160: 90e5 8cbd 45fb 20bc 4e6a bd3b 3d09 e9bc
00000170: 6515 09be 4469 e93d 7d99 043d af68 0f3e
00000180: 6890 093e 0685 37bd feaf e33b 1a25 81bd
00000190: 64d1 f8ba 8767 413d 7936 343e bbc7 97bd
000001a0: 58c6 853d cb93 94bd fe71 11bd cc5a f33d
000001b0: 0a82 cb3b 7ef6 89bd 08db b03b e9de 303d
000001c0: 6dca 79bd ede5 993d 6ce2 be3c 5389 1d3e
000001d0: f4a4 6dbd 76b9 9c39 7f38 8dbd 0801 60bd
000001e0: 039a 323d 4a46 89bd 7104 7dbc 4e38 9e3d
000001f0: 6f58 52bd de12 ef3b 4a49 1fbd 51c2 2dbd
00000200: e19b 37bd c5bc c23d 40f0 8ebd cfc3 873d
00000210: c066 843e 69ea 82bd 60f2 82bd cc09 d1bc
00000220: d1bf 733c b15f 8abc 0be9 873c 466d 523e
00000230: a24c a53d a839 a73d 35f5 523d f3a8 9abd
00000240: c2f7 6ebd a9c0 2c3d 5f2d 7dbd 7a22 93bc
00000250: 9243 3c3d 1641 c23d 88e3 fd3c 9666 023e
00000260: b347 dabc ada1 ab3d 1186 023e 2a4f fb3d
00000270: 89e8 473d 4cbe bebc 767f 6c3c 9fa3 dc3d
00000280: 183e 173d 6784 e83c b539 a93c a50e 42bd
00000290: 58c6 b13d 4fb3 833d e033 133c 6828 95bd
000002a0: c844 a4bd baba 24be 18a7 8dbd 2252 2bbd
000002b0: 5217 343e 3302 033e 3759 c63c c2f2 0f3d
000002c0: ccb4 833d f257 9a3d 2108 653d 28bc 5ebd
000002d0: e868 913d 8ceb 973d f3ad 013e e866 fd3d
000002e0: bf28 52bd 6e0e 95bc dd32 b33c 8392 e23d
000002f0: 98b8 4dbd 896f 8e3d e14f 08bd 6171 e73d
00000300: 6588 c53b d8e8 ad3d 45cc a5bd d4cf 0cbd
00000310: 20df 51bd 8e5b eb3d b16f 96bd 9859 143d
00000320: a4a9 203c c6b6 a63d ffe3 ff3d 00f0 e53d
00000330: 6660 5fbd cc23 dc3d 3b54 bdbd 99a9 273d
00000340: 79e1 febd e291 8f3d 6973 abbd 2c47 ea3d
00000350: 2a09 11bc ab7e 6cbd 18fc a43c 228a 9c3d
00000360: daed 363a 64f9 09bd 9917 9d3d 4490 8bbd
00000370: 3c9e 24bd f6be 013c eb4a 333c ec82 15bd
00000380: 3748 823e 5afa 6c3c 1deb a93d c0ee a3bd
00000390: 4516 f63b 2592 e8be c6be 4b3e 5e2e aabb
000003a0: 4c6c eb3c 113b 623d 61fe 0f3d f33f 56bd
000003b0: 249b 78bd b0fb b43c fc39 813d e3a3 0d3e
000003c0: c23c 8bbd e61d 123d a882 22bf cb28 8cbd
000003d0: 9442 8bbd 4054 0a3c 70ff 193e c2aa c73c
000003e0: c60d 8c3d 08dd 8e3c b568 6abd 2997 083d
000003f0: fc83 0f3e 49cf d13c b7b1 e1ba e00b 8b3d

fc4.bias f4 [2]
-0.016253827 0.026381316
00000000: bf26 85bc a11d d83c
