models/cartpole_dqn.pth (torch, 270460 bytes, 8 tensors)

fc1.weight f4 [128, 4]
000000 66 28 8d bc d8 ab 5a 3e 01 a5 2e bf 96 ea 9b be
       -0.017231178 0.21354616 -0.68220526 -0.30452412
000010 13 11 97 be 64 1f 31 3e 95 1c a4 3e db a1 b1 3e
       -0.29505214 0.17297131 0.32053056 0.34693798
000020 9b 2a 6a bd 97 0a 26 3d e2 dc ce be 0d 79 b1 3c
       -0.057169538 0.040537443 -0.40402895 0.021664167
000030 40 05 c2 be 25 c4 81 be 14 18 1d bf 75 f2 3c bd
       -0.3789463 -0.2534496 -0.61364865 -0.046129663
000040 38 4c 02 3e 36 60 78 3e 40 e1 31 bf af 86 42 be
       0.12724388 0.24255452 -0.6948433 -0.1899669
000050 d9 37 d8 3d bd 61 d5 3e 1d d8 82 3d c8 c3 d3 3e
       0.10557527 0.4167613 0.063888766 0.41360307
000060 f1 3a 91 bd 64 ca 33 3c de c9 36 3f d7 4f da be
       -0.0709132 0.010973547 0.71401775 -0.42639038
000070 c9 a6 84 be 40 b4 47 bd d5 ef b0 be 88 ea d3 3e
       -0.25908497 -0.048755884 -0.34557977 0.4138987
000080 f0 7f ae be b4 01 89 be d4 b5 0b bf 04 7a ba be
       -0.34081984 -0.26759112 -0.5457432 -0.36421216
000090 a9 1a f3 be 01 23 b3 3e 32 bd 2e 3f 1c c6 9d 3e
       -0.47481278 0.34987643 0.6825744 0.30815208
0000a0 e0 86 ce 3d f9 a0 8d be a4 d8 d1 3d 1c 20 e1 be
       0.10084319 -0.27661875 0.10246399 -0.4396981
0000b0 a0 0b a0 be 81 35 6d be e9 df 29 3f 72 75 8f 3e
       -0.3125887 -0.23164941 0.66357285 0.2801929
0000c0 f5 f9 85 be d3 bd 83 3a 22 51 27 3f b8 83 ef 3e
       -0.26167265 0.0010051079 0.65358174 0.4678018
0000d0 16 f8 a1 3e cc 4a 06 3d a6 bc 01 3f c7 41 99 be
       0.31634587 0.032786176 0.5067848 -0.29932997
0000e0 cd 54 b9 3d 8d 9a b8 be b4 d0 1c bf e9 7e 85 be
       0.090493776 -0.36055413 -0.61255956 -0.26073387
0000f0 d3 7e 37 3e 83 c0 51 3e 02 39 98 be 43 47 79 3e
       0.17919473 0.20483594 -0.29730994 0.2434359
000100 b4 c0 b6 3e 67 5b 66 bc ef ef 5b be 82 e0 b0 3d
       0.35693896 -0.014059878 -0.21478246 0.086365715
000110 0f 24 9a 3e a9 eb d4 3e 72 0b 1d bf 17 27 fb bd
       0.30105636 0.41586044 -0.6134559 -0.12263315
000120 b2 2d d5 3b dd 8a b0 3e 25 7f 4e 3f fe ac fc 3e
       0.0065056914 0.34480944 0.8066276 0.49350733
000130 d9 e6 ac 3d 8d 27 da be f0 5e 4f 3e 44 17 a1 be
       0.08442468 -0.426083 0.2025106 -0.31463063
000140 17 ab d1 be 63 f6 c0 3e e6 60 3b 3f ed f5 d6 be
       -0.40950844 0.37687978 0.7319473 -0.419845
000150 fa ec a9 3e 0b 17 be bd e9 ad 33 bf 2a 76 8f be
       0.3318861 -0.09281739 -0.7018724 -0.2801984
000160 42 0c 8a 3e 33 09 87 be 50 62 b7 3e e5 e2 60 3e
       0.26962477 -0.26374206 0.35817194 0.21961553
000170 47 c0 c0 3e b7 60 22 3e 77 f1 49 bf 27 49 94 be
       0.37646696 0.15857206 -0.7888407 -0.2896206
000180 15 2b 92 3e dd 3b 57 3d f3 eb 3c bf d4 c6 7a be
       0.28548494 0.052547324 -0.7379753 -0.2448991
000190 ee e0 f9 3e dd 17 98 3e be ae 16 bf 1b 9b c1 bd
       0.4880442 0.29705706 -0.58860385 -0.09453412
0001a0 d2 95 d0 be 89 f8 75 bd 21 eb 2c bf ba a3 aa be
       -0.40739304 -0.060051475 -0.6754628 -0.33328038
0001b0 57 1d fd 3c 33 88 1c 3e 30 1c a2 be 9b b8 85 3e
       0.03089778 0.15286331 -0.3166213 0.26117405
0001c0 67 c5 94 be 66 04 e0 3e 76 a6 02 3f cd 70 d6 be
       -0.29056856 0.43753356 0.5103525 -0.41882935
0001d0 ce 84 ef bd 3a fe 4f 3d 1b 00 22 3e 8d 60 00 3e
       -0.11695252 0.05077956 0.15820353 0.12536831
0001e0 05 7f 6a 3d 60 63 8d 3d c8 a2 cf be 34 ef 6f 3e
       0.05725004 0.0690372 -0.4055388 0.23431093
0001f0 77 12 ef be ab f9 96 be af 77 d9 bd 82 43 47 be
       -0.46693775 -0.29487357 -0.10618531 -0.19459346
000200 53 19 ee bc d6 36 b7 be 69 3f 9a be 24 63 94 3d
       -0.02906481 -0.35784024 -0.30126503 0.07245472
000210 d7 8d c2 be 5a b0 de bc bb 16 36 3f dc e5 5e bd
       -0.3799884 -0.0271837 0.71128434 -0.05441843
000220 1a ae 71 3c 95 77 b5 bc 18 e9 de 3e 29 1a 99 3e
       0.014750982 -0.022151748 0.4353721 0.2990277
000230 2c 60 06 3f 44 b3 a3 3e cc 80 37 3f 4f cb 37 bd
       0.52490497 0.31972706 0.71680903 -0.044871625
000240 98 11 e3 be b9 44 5c be 23 ef 3b 3f a4 dc aa b9
       -0.4434936 -0.2151059 0.7341177 -0.00032589317
000250 ff 01 68 be 1e 9e c4 be 75 32 52 bf 02 0f d0 be
       -0.22657011 -0.38401884 -0.8210824 -0.4063645
000260 c7 a1 99 bd 43 26 6c 3e f4 13 17 3f 8b cc e9 be
       -0.0750156 0.2306147 0.5901482 -0.45663866
000270 2e b0 9f 3e 8a 52 c8 be f0 7b d8 bd 1c 9a 4f be
       0.31189102 -0.39125472 -0.10570514 -0.20273632
000280 ea 29 22 be fa ac e4 bd e8 01 09 be 50 31 c9 be
       -0.15836301 -0.11165805 -0.13379633 -0.39295435
000290 8b f1 10 bd b4 02 a0 ba d9 81 6f bd ef 10 46 3e
       -0.035386603 -0.0012207837 -0.05847344 0.19342397
0002a0 75 9f eb be 07 d6 8d bd 68 d1 5a 3f fa 34 41 be
       -0.46020094 -0.06925588 0.8547578 -0.18867865
0002b0 e7 a8 c7 3e 8b 18 34 3e ff 0a 31 bf 73 71 ac 3e
       0.3899605 0.17587487 -0.69157404 0.33680305
0002c0 cc 99 12 bc 29 e7 5f be 84 0d 1d 3f ad eb d6 be
       -0.008947801 -0.21865524 0.6134875 -0.4197668
0002d0 6e 02 54 3d fa 0b 8e bd 69 f1 33 3f 6a 55 e2 3d
       0.05176013 -0.06935878 0.7029024 0.11051448
0002e0 2d 89 83 3e fd ed 21 3e e7 cd ac 3d c3 f9 a2 bd
       0.25690594 0.15813442 0.0843771 -0.079577945
0002f0 cf ef a4 be 09 3f a1 3e c4 52 66 3f c0 92 aa 3e
       -0.3221421 0.31493405 0.8997004 0.33315086
000300 f5 ce 4a be 6b 56 0e bd 03 4d 51 bf be a6 8f be
       -0.1980551 -0.034750383 -0.81758136 -0.28056902
000310 91 24 44 be b1 85 38 3e 71 55 39 bf cf 81 45 bd
       -0.19154574 0.18019749 -0.72396 -0.0482195
000320 16 28 04 3d 7e 77 8a 3e 3c c5 2e bf e7 14 94 be
       0.03226479 0.2704429 -0.68269706 -0.28922197
000330 f8 17 d7 be 93 13 cc 3e 3f 64 6b 3d f0 c2 d2 3e
       -0.42010474 0.39858684 0.05746865 0.4116435
000340 ad 17 97 3e 61 7f 8e 3d ec ca e1 be 85 0f f7 bd
       0.2951025 0.06957889 -0.4410013 -0.12063507
000350 c9 21 35 3d 22 41 bf bd 3b 8e e2 3d 71 99 6b 3d
       0.044221673 -0.09338595 0.110622846 0.05751938
000360 c8 64 b6 be c2 b0 65 be 3c 2e 1a 3f fc 64 e5 be
       -0.35623765 -0.22430709 0.602268 -0.44803607
000370 9a 19 e8 bc a0 17 fc 3e 39 a7 ff 3e 5b 12 5b 3c
       -0.02833252 0.49236774 0.49932268 0.0133710755
000380 65 31 f2 be 7f 3f 66 3e 72 d7 22 bd 78 d0 af bd
       -0.4730331 0.2248516 -0.039756246 -0.08584684
000390 6c ba 13 be dd 05 ca bc b8 3f c4 3d c3 e9 c4 3e
       -0.14426583 -0.024660999 0.09582466 0.38459596
0003a0 ab 2c 13 bd a4 c2 c2 3e c9 3c 06 3f 63 4d 8e be
       -0.03593127 0.38039124 0.524365 -0.27793416
0003b0 5f 6e 67 3e cf 27 9b be 96 d7 98 be 68 48 03 3e
       0.22600697 -0.3030381 -0.2985198 0.1282059
0003c0 95 5b c4 3d 0b 94 a3 3e bd 75 e1 be 98 35 41 3d
       0.095877804 0.31948885 -0.4403514 0.04717025
0003d0 7a cb 83 3e 5a 93 f7 be 42 15 b9 3e 30 b1 d3 be
       0.25741178 -0.48354608 0.3614903 -0.4134612
0003e0 5e b2 30 bd ac 17 a9 bd 3b 56 f3 be 16 52 cd 3d
       -0.043138854 -0.08256468 -0.47526726 0.10025422
0003f0 af 8c cb 3e 72 6d 23 be e1 35 00 bf ca 3d 2f be
       0.3975577 -0.15959719 -0.5008221 -0.17113414

fc1.bias f4 [128]
000000 40 a4 44 be 47 f8 5a be fb 0e bd 3d 69 77 16 3e
       -0.19203281 -0.21383773 0.09231373 0.14693989
000010 90 4a 6d be e6 96 fa 3c 98 8b 85 3e 56 88 a8 bd
       -0.23172975 0.030589532 0.26083064 -0.08229129
000020 c5 b6 31 3e 20 50 04 be 15 5f 46 3e fb 18 b9 be
       0.17354877 -0.1292119 0.19372208 -0.3615187
000030 08 82 99 be 5c a0 8a be 82 54 ea 3e e8 5f 4d bd
       -0.29982018 -0.2707547 0.457676 -0.05014029
000040 90 1a a5 3c 95 dd 92 be 6d 8d f9 3e e7 c4 fc 3e
       0.020154268 -0.2868468 0.48740712 0.49368975
000050 1c 64 fe be 16 59 8f be 58 10 ca be c4 de c2 bc
       -0.49685752 -0.27997655 -0.39465594 -0.023787864
000060 59 84 1e be 08 e8 ab be 44 0b 4d be e2 40 43 3d
       -0.15480174 -0.33575463 -0.20023829 0.0476693
000070 f3 38 57 be 8d a5 03 3e 0e e4 b2 bd 6d 06 64 be
       -0.21017818 0.12856121 -0.08734904 -0.22268076
000080 ad b3 81 3d e0 6c cc 3e 42 35 af be 1b a3 10 3d
       0.063330986 0.39926815 -0.3422032 0.0353118
000090 78 e8 43 be 5f cd 00 3f 92 3e 09 bf d2 6a f5 be
       -0.19131649 0.5031337 -0.536111 -0.4793306
0000a0 6b ef fa 3e 08 bf b4 be 2c 43 3f 3e 5a 68 2b 3d
       0.49010786 -0.35301995 0.18677968 0.041847564
0000b0 fb 63 87 bd 53 7b 0e be e9 70 9b 3e 0a 4f 04 3c
       -0.06610867 -0.13914232 0.3035958 0.008075485
0000c0 ca 37 fe be f1 60 7f be 38 7b 64 be d5 fe 80 3e
       -0.4965194 -0.24939324 -0.22312629 0.2519442
0000d0 18 a4 8d be 0e 16 f3 3e 33 6e 7b bd 2c b7 cd bd
       -0.27664256 0.47477764 -0.06138439 -0.10044703
0000e0 72 b1 d1 3e b6 48 8e 3e a5 19 e7 3e b6 3b 9f 3e
       0.40955693 0.2778985 0.45136753 0.31100243
0000f0 1c af 32 be 54 d9 a9 be 12 e0 0e bc f9 a6 ca 3e
       -0.17449611 -0.3317362 -0.008720415 0.39580515
000100 50 fd 36 be 3e 02 be be 2e 0e 6e 3e ee 93 e1 3e
       -0.17870069 -0.37111086 0.23247597 0.44058174
000110 8c 22 4e be 35 d0 e7 be cb 8e f4 be 72 23 09 3e
       -0.20130366 -0.45276037 -0.47765192 0.13392428
000120 50 16 a9 bc 2e a1 80 be 83 82 6d 3d 51 e1 45 3e
       -0.020640522 -0.2512297 0.057985794 0.19324233
000130 9e 05 d3 3e 72 fc d0 3e c0 85 44 bd f1 b5 0b bf
       0.41215223 0.408176 -0.047979116 -0.54574496
000140 d8 53 e7 be 10 0c fa 3e 22 ec 7b 3e 25 7d 66 3e
       -0.45181155 0.48837328 0.24601796 0.22508676
000150 ad 1b e7 be c3 24 fe 3e 11 f7 fc 3e 9a 28 e4 3e
       -0.45138302 0.49637422 0.49407247 0.44562227
000160 30 f5 d7 be 16 2f 07 be 8c 02 fd be f6 c6 ed 3e
       -0.4217925 -0.13201556 -0.49416006 0.46440858
000170 d6 82 82 be 4c 29 5e be 11 39 97 3e c0 39 96 be
       -0.25490445 -0.21695441 0.29535726 -0.29340935
000180 48 2c 24 be 0d 54 2d bc a6 fd 73 bd 88 80 c9 be
       -0.16032517 -0.010579121 -0.05956807 -0.39355874
000190 9f af d8 3e 68 c8 9a be ba 03 1e 3e d5 f8 d8 3e
       0.42321488 -0.30231023 0.15431109 0.42377344
0001a0 1d dc 8e 3e 59 2d a2 3d dd 97 db 3e 8c bd cc 3d
       0.27902308 0.07918806 0.428893 0.09997091
0001b0 33 6d 64 be f7 36 f9 3e 41 0e f3 3d e0 b0 f4 be
       -0.22307281 0.48674747 0.11867953 -0.47791195
0001c0 34 c1 34 be 48 e5 a9 be cb e2 d8 3e d3 32 da bd
       -0.17651826 -0.3318274 0.4236053 -0.10654225
0001d0 b4 04 06 bf 4c 35 11 be b5 76 9a 3e 99 fb 06 3e
       -0.52350926 -0.14180487 0.3016869 0.13181914
0001e0 07 44 dc 3d d2 02 0f 3e 4b 6b 52 3e 60 99 09 be
       0.10755163 0.1396592 0.20548742 -0.13437414
0001f0 7d 65 8d be b6 62 bb be 5a 9e c2 be a4 65 80 3e
       -0.27616492 -0.36598748 -0.38011438 0.25077546

fc2.weight f4 [256, 128]
000000 11 88 10 bd 2b d6 56 bc 08 3d 1b 3d 68 71 ef bb
       -0.035286013 -0.013112585 0.0379 -0.0073072203
000010 6f ea 03 bd 1f 71 09 3e 41 55 7f bd 51 f2 28 3d
       -0.032205995 0.13422059 -0.062337164 0.041246716
000020 80 69 b2 bd 0a c1 71 be 77 74 39 3d ae 79 a8 bd
       -0.08711529 -0.23608795 0.045277085 -0.082263336
000030 46 81 a3 3c 8c 02 87 3c 2d 0c 8c bd 92 b6 72 3e
       0.019959103 0.016480707 -0.0683826 0.23702458
000040 fe b8 4e 3d 51 b5 f2 3d 70 61 1e bd 1e 8d da 3c
       0.05046939 0.118509896 -0.038667142 0.026678618
000050 0e 30 14 bd 85 d7 92 be 92 ea 8d 3c d0 4e 3b bd
       -0.03617864 -0.28680053 0.017323766 -0.04572946
000060 b6 cf 35 3d ac c6 cc 3d 58 cb 32 bd b7 cd c9 3d
       0.04438754 0.09998831 -0.043650955 0.0985369
000070 13 cd 35 bd 61 d2 ce 3c d9 3f bd bd 4d 1b 52 bd
       -0.044385027 0.0252468 -0.092406936 -0.051295567
000080 b0 70 d7 bc b9 cf 4e 39 a8 ae 8e bb 51 63 cb 3d
       -0.02629885 0.00019723074 -0.0043543167 0.099310525
000090 3e 7d 7f bd 0a 0f 54 38 45 94 a7 3d 77 ea c3 bc
       -0.0623753 5.0558745e-05 0.08182577 -0.023915512
0000a0 89 b8 94 3d 94 59 c9 bd a0 9c 8e bd 64 13 42 3d
       0.0726176 -0.09831539 -0.069634676 0.047381774
0000b0 3f 67 27 bc a1 34 bc 3c 0b 91 ab 3b 33 82 84 be
       -0.010217487 0.022974314 0.0052357963 -0.25880584
0000c0 89 35 f2 bc af af 30 be 3a 69 6d 3d d7 5a 9f bd
       -0.029566543 -0.17254518 0.05796168 -0.07780998
0000d0 e5 0a 09 3d 27 10 aa 3d 65 95 b8 bd 71 37 dc bd
       0.033457655 0.08303862 -0.0901287 -0.10752762
0000e0 47 e7 53 3d c1 59 6a bd 6b fe ac 3c af f0 f1 3c
       0.051734235 -0.057214502 0.02111741 0.029533712
0000f0 b8 04 ba bc da 1e fc 3c e0 c1 07 be 17 92 2e 3d
       -0.022707328 0.03077643 -0.13257551 0.04261979
000100 d9 8a 74 bd 6d 9b 26 be 32 d8 a6 3c 7d e5 cd 3d
       -0.059702728 -0.16270228 0.020366762 0.10053537
000110 3f c4 44 bd 06 02 f2 3c bc 11 3a bd 39 df ef bb
       -0.048038717 0.02954198 -0.04542707 -0.0073203114
000120 ca 47 b9 bd e7 bd 66 be 20 08 b0 3d 80 52 ea bc
       -0.09046896 -0.2253338 0.085953 -0.028603792
000130 31 cd 36 3c aa 67 25 3d ca c0 0e 3c 5e cf 85 3d
       0.01115732 0.040382065 0.008712957 0.06533693
000140 4e cf 92 3d fc 8a 56 bd f7 52 48 bb 93 27 c8 3b
       0.071684465 -0.05237864 -0.003056703 0.0061082332
000150 5a f0 52 bd fa dd c8 3b ef 89 94 3d 6a 46 9f bd
       -0.05149875 0.0061299773 0.07252871 -0.07777102
000160 80 1b 5b 3d 66 fd a2 bd af 47 39 bd 95 9c 9f 3d
       0.053493023 -0.07958488 -0.04523438 0.077935375
000170 17 e5 63 bd 27 5c 3e bf 63 45 19 bd 88 e5 3e 3d
       -0.0556384 -0.74359363 -0.037419688 0.046605617
000180 15 08 77 be 68 14 e2 bd d1 83 15 3c 5b 67 d6 bd
       -0.24124177 -0.110390484 0.009125666 -0.10468932
000190 8b 13 54 bd 05 45 09 bd 35 63 5d 3d 32 89 33 ba
       -0.05177645 -0.033513088 0.05404969 -0.0006848752
0001a0 09 8f 59 3d 93 1a aa 3d 03 e6 82 3d 75 6b 38 bd
       0.053114925 0.0830585 0.063915275 -0.045024354
0001b0 bf 6e b1 be ae 93 f3 bc 5e 46 9f bd 4e c8 cd 3d
       -0.34654805 -0.029733505 -0.07777093 0.10047971
0001c0 7f 63 d6 3c db db 94 3d 2a a1 b5 3c a5 5a 97 bd
       0.02617049 0.072684966 0.022171576 -0.07390336
0001d0 13 d2 36 3c 88 b3 d5 3c d9 e8 ef bc 99 5b d8 bd
       0.011158484 0.026086584 -0.029285835 -0.10564346
0001e0 6c a8 6e 3c 3f 58 cb bd 06 35 84 bd 92 bd a0 3c
       0.014566522 -0.09928941 -0.06455426 0.019621644
0001f0 36 be 9d bc a1 e9 fe bd 83 e0 88 bd 73 8f a8 3d
       -0.019255739 -0.12446905 -0.06683447 0.08230486
000200 93 23 bc bd 9d a1 d3 bc 92 86 d3 3b 61 52 a3 bd
       -0.09186473 -0.0258339 0.006455251 -0.07974697
000210 b2 e5 c0 3c 58 75 3c 3d f3 3a 01 3d 14 d1 66 bd
       0.023547027 0.046010345 0.03155036 -0.056351736
000220 cb 82 84 3d 43 9a 56 bd 25 fa 84 3d f7 b8 ad bd
       0.06470259 -0.05239321 0.06493024 -0.08482545
000230 65 48 a1 bd 3b 39 ec 3c a1 af 5c bc 0a 16 a7 3b
       -0.07875136 0.028835883 -0.013469608 0.005099063
000240 61 7b 48 bd c9 c4 7b bd f6 50 03 bd 97 c2 de bd
       -0.04894579 -0.061466966 -0.032059632 -0.10876959
000250 2b c0 a3 bc 7c 0d b4 3b fa ee 9c b8 88 7d 9e 3b
       -0.019989094 0.0054947715 -7.4831725e-05 0.004836742
000260 9e f1 74 3d 20 3a 65 bb d1 ee 68 bd ee fe 14 bd
       0.059800737 -0.0034977272 -0.056868378 -0.036375932
000270 b7 a0 a5 bd df 1c 86 bd 9f 39 69 bc 7a 10 80 bc
       -0.080872945 -0.065484755 -0.014234929 -0.015632857
000280 b3 0e 21 3d a8 63 76 bd 2d 4f 90 3d 19 bd af bd
       0.03932066 -0.060153633 0.070463516 -0.085809894
000290 ae b5 83 39 df 84 67 3d a6 2c 7e 3d 20 b7 51 bd
       0.0002512163 0.0565232 0.0620543 -0.051200032
0002a0 6e 38 f1 bb 58 0f 2b 3c 22 ab 84 bd 3d 2a fa bc
       -0.0073614633 0.01044067 -0.064779535 -0.030537719
0002b0 ec 53 de b9 c4 bf 7b bd ce d4 0a bc bf a9 1c 3d
       -0.00042405666 -0.06146218 -0.008473588 0.03824782
0002c0 68 ac 69 bd 0f 39 7d 3d e2 38 f5 bc c9 6a 0e 3d
       -0.057049185 0.061821993 -0.02993435 0.034769807
0002d0 b3 e7 a1 3d ff d5 44 bd 5c fa c2 3c 56 7d 4b bd
       0.07905521 -0.048055645 0.023801021 -0.049680077
0002e0 f7 9e 13 bd a1 6b 75 bc ca 29 c3 bc 36 20 15 bd
       -0.036040273 -0.014979274 -0.023823638 -0.036407672
0002f0 5b 27 95 bb a3 44 5a 3b 1c 7e 65 3d 1e 06 27 bd
       -0.0045518107 0.003330507 0.05602847 -0.04077732
000300 f2 2e 7d bc c5 ac 06 bd 51 41 9e bd 87 7f 50 3c
       -0.015453087 -0.03287961 -0.07727302 0.012725717
000310 12 60 4d bc 98 fd 10 bd 6b d0 f4 bc 0c 65 48 38
       -0.012535112 -0.035398096 -0.029884538 4.7777823e-05
000320 e8 ec 82 bc 55 b7 03 3d 54 49 82 ba b6 71 2d 3c
       -0.015982106 0.03215726 -0.0009940066 0.010586193
000330 6e 86 12 3d 9e fa 35 bd 34 a4 1c 3d 87 94 85 3d
       0.035772733 -0.04442846 0.038242534 0.0652247
000340 8e 48 85 3b 65 a4 ba bb 12 ee a3 bc 35 3c 1f 3d
       0.004067487 -0.005695867 -0.020010982 0.038875777
000350 dd d9 18 bd 92 cf 50 bd d0 1e 84 3c 81 1f a8 bd
       -0.037317146 -0.050979204 0.016127974 -0.08209134
000360 65 bd b9 3a 54 66 67 bd 2a f5 6e 3d 3d 4e d8 bd
       0.0014170824 -0.056494072 0.058339275 -0.10561798
000370 0d 84 5b 3d 58 86 85 3d 94 28 44 3c b0 f8 c0 bb
       0.05359273 0.06519765 0.011972565 -0.005889021
000380 b5 2f b2 3d 9a b8 7b bd 71 17 e8 bb dd 89 1e bd
       0.08700506 -0.061455347 -0.0070828726 -0.038705695
000390 9f 7a 86 bc c4 5e 9d 3c 8e 5b 3a bc 48 33 22 bd
       -0.016415892 0.019210227 -0.011374367 -0.039599687
0003a0 90 fd b4 bd 89 4d 94 3b bc 7e cf bc 5d 38 cd bb
       -0.08837426 0.0045258445 -0.025328986 -0.0062628225
0003b0 f0 72 2a 3d 54 05 81 3d 8b ca 56 bd 33 b1 ae bc
       0.04161352 0.062998444 -0.052439254 -0.02132473
0003c0 31 0f 11 bd ef d5 a6 bd 10 db b2 bd 30 d3 70 3d
       -0.03541488 -0.08146273 -0.08733189 0.058795154
0003d0 88 0d c3 3c 2f 78 42 3d 94 db d3 3c d0 a3 9a bd
       0.023810163 0.047477897 0.025861539 -0.07550776
0003e0 85 15 18 3c c7 df 9b 3d 9c c8 89 bd a5 08 a1 3d
       0.009282474 0.076110415 -0.06727716 0.07862977
0003f0 bd 50 be 3c c0 b5 7e 3d c8 17 1b bd fc 70 16 3d
       0.023231858 0.06218505 -0.037864476 0.036728844

fc2.bias f4 [256]
000000 b6 32 c2 bc 48 ab df bd ac b7 d4 3b 2a 8c 5a 3d
       -0.023705821 -0.10921341 0.006491622 0.053356327
000010 68 85 ea 3d 40 5e 9f 3c 50 21 3d 3d 80 b4 e0 3d
       0.114512265 0.019454122 0.046174347 0.10971928
000020 5c d4 c1 bc bb a3 01 bd ed 37 c0 3d 21 ff a6 bd
       -0.023660831 -0.031650286 0.09385667 -0.08154131
000030 1f 01 41 3c 7a 28 1b bd 90 aa 8d bd e4 ec ea bc
       0.011780052 -0.0378804 -0.06917298 -0.028677411
000040 7a 9b 7e 3d f4 48 ca 3d e6 2c df 3d 59 87 4a bc
       0.062159993 0.09877196 0.108972356 -0.012361371
000050 c3 19 fd 3c 78 80 c3 3d 9e 18 a4 bc 76 db 8b 3d
       0.030896073 0.09545988 -0.02003127 0.06828968
000060 78 a8 9b 3d 91 c3 b0 bd d9 ec a3 bc bc 0a e3 bc
       0.07600492 -0.08631051 -0.020010399 -0.02771508
000070 b5 a9 36 3d 9e 58 9b 3d fc e6 a3 bc 19 10 8d 3c
       0.04459544 0.07585262 -0.020007603 0.01721959
000080 53 f7 bb 3d e7 d1 7e 3d 53 9b 64 bd 2c f3 9d 3c
       0.09178033 0.062211897 -0.05581219 0.019280992
000090 fb c5 1e bd c8 dc 4c 3d 2a d2 cb 3b 01 23 64 3c
       -0.038763028 0.05001524 0.006220122 0.013924361
0000a0 f3 3c 87 3c 4c 86 a5 bd 7c 89 c1 3d b3 7e b9 3d
       0.016508555 -0.08082256 0.09450051 0.09057369
0000b0 1a 00 d3 bc ad 0a 3b 3d 23 cb 24 3a 55 4d 2c 3d
       -0.025756884 0.045664478 0.0006286373 0.042065937
0000c0 9e b5 7d bc 07 53 64 3d 14 74 e2 bc 68 64 a6 3d
       -0.015485195 0.055743244 -0.027643241 0.0812462
0000d0 ac 61 07 3e 10 26 31 3d 08 26 63 bd c0 b8 3b 3d
       0.13220853 0.04324919 -0.05545619 0.04583049
0000e0 d0 b8 05 3e ed 13 95 3d f0 6e 38 3d 0b 6e a9 bc
       0.13058782 0.07279191 0.045027673 -0.020682355
0000f0 21 cd 21 3d b5 7c ff 3d e6 05 ec 3d fb c4 19 3d
       0.039502267 0.12474958 0.115245625 0.03754137
000100 f0 08 f9 bc f1 b8 dd 3d cf 9d 11 bd e9 fe 52 bd
       -0.03039977 0.108262904 -0.03555089 -0.051512633
000110 24 7e 92 3d 28 4d 55 3d 77 c8 03 be 55 b1 2c bc
       0.07152966 0.052075535 -0.1286944 -0.010540326
000120 05 18 43 3c 5b 3b 9d 3d e3 6f c8 3d e3 32 80 bd
       0.011907582 0.07677337 0.09786966 -0.06259706
000130 06 54 b4 3d 82 13 09 bc 1a db f7 3d e7 26 dd bc
       0.08805089 -0.008366467 0.12102337 -0.02699609
000140 a5 13 d0 3b ad fc 74 bb 3e 6e 91 3d f2 63 bf 3d
       0.006349998 -0.0037382052 0.07101105 0.09345235
000150 9e be 61 bd 08 a3 28 3d 20 23 9b bc 00 0f e2 bc
       -0.055113427 0.041171104 -0.018937647 -0.027595043
000160 69 18 25 bd ef ea d8 3d 84 7d 3a 3d 44 48 0b bd
       -0.040306482 0.10591685 0.045529857 -0.034004465
000170 f1 fd c5 3d 1c c0 3a bd f5 05 43 3d af 47 88 3d
       0.09667576 -0.045593366 0.047613103 0.066542976
000180 22 78 c1 bd 2a a0 5e 3d 42 5d ad 3b de a8 31 bd
       -0.09446742 0.054351963 0.005290658 -0.043373935
000190 6c c2 a4 3c cb dd 0a 3c ce 1a 87 bd 66 2c 40 bd
       0.020112239 0.008475731 -0.065969095 -0.04691734
0001a0 f1 f4 8f 3d 3f ea 95 3d 7f cc b8 bd 03 a6 08 bd
       0.07029141 0.073200695 -0.090233795 -0.033361446
0001b0 78 88 89 bd 62 51 64 bc 9e fc b3 3b a6 ff a5 3c
       -0.067154825 -0.013935419 0.005492761 0.020263504
0001c0 64 79 d8 bc 06 dd 11 bd fb 5a fb 3d 68 53 f8 3d
       -0.026425071 -0.035611175 0.122732125 0.121252835
0001d0 d4 2d a7 bd a4 69 5a bd 1e 07 9d ba 6c db 5b bc
       -0.08163038 -0.053323403 -0.001198027 -0.0134190135
0001e0 08 52 33 3d cf 90 13 bd 8f a4 e8 bc 51 49 6f 3d
       0.043779403 -0.036026772 -0.02839878 0.05841953
0001f0 f1 d4 7a 3c 77 2f 8a bc 4b 97 0a 3d d9 fe a6 3c
       0.015309558 -0.016868336 0.03383569 0.020385193
000200 05 dd a0 3a 9d 9e 59 39 75 97 2e bd 61 47 6d 3c
       0.00122729 0.0002075382 -0.04262491 0.01448235
000210 3c 84 a0 bd c1 a1 a6 bc 4e 47 99 bc ca 36 3c 3c
       -0.07837722 -0.020340802 -0.018710759 0.011487672
000220 c3 78 86 3d 90 a6 a0 bd 9a 19 16 3c 7e 7e e2 3c
       0.06566002 -0.07844269 0.009161377 0.027648207
000230 0d dd 5c bd 00 86 0d 3c cc d0 aa bd 4a 85 34 bd
       -0.053921748 0.008637905 -0.08340606 -0.044072427
000240 1a f5 5a 3d a5 40 06 bd 5f e3 2d bd c4 91 0d bd
       0.053456403 -0.032776494 -0.042453166 -0.03456284
000250 16 ee 5d 3b 92 d2 e1 3c f8 ef 8e bd 6c 78 a0 3d
       0.0033863834 0.027566228 -0.06979364 0.07835469
000260 19 72 7d bd 9a fe 35 bd 84 88 c9 3d 3c 61 3a 3d
       -0.06187639 -0.04443226 0.098404914 0.045502886
000270 ca 11 d3 3d b6 32 a1 3d 7d 7d ba 3d 83 0c cf 3d
       0.10306127 0.078710005 0.09105966 0.10109808
000280 4d 5c 2b 3d ce 5e 63 bd 2b c1 75 3d 8e e6 3d 3d
       0.04183607 -0.055510335 0.059998672 0.046362452
000290 2c 77 f8 bc ce f8 41 3c 7f a8 0a 3d 34 d2 31 3d
       -0.030330263 0.011839105 0.033852097 0.043413356
0002a0 f8 93 63 bc b4 66 80 bd 84 a6 af 3d 87 a3 81 3d
       -0.013890259 -0.06269589 0.08576682 0.063300185
0002b0 98 23 90 3b 28 bd df 3d da c6 c7 bd 52 ec 42 bd
       0.0043987744 0.109247506 -0.09754725 -0.047588654
0002c0 3f da b2 3d 40 62 9b 3d eb b9 d3 3c 48 70 27 3d
       0.087330334 0.07587099 0.025845489 0.040878564
0002d0 c1 f2 9d bd 8d 28 c4 3d da cf 52 bd 39 44 88 3d
       -0.07712317 0.09578047 -0.051467754 0.066536374
0002e0 11 dc 96 3d db 38 f7 3c 43 e1 c3 3d 52 e2 29 bc
       0.07366193 0.030178478 0.0956445 -0.0103689
0002f0 55 e3 cc ba cf d7 8e bd 9c 22 a3 bc b3 b8 95 bc
       -0.0015631715 -0.06974756 -0.019913964 -0.018276548
000300 fc de 81 bd 7a 27 04 bc d1 d0 2d 3d f9 b0 b2 bd
       -0.06341359 -0.008066053 0.04243547 -0.08725161
000310 63 20 74 3d 0c 78 88 3d 01 89 56 bd b8 4f a4 bb
       0.0596012 0.06663522 -0.05237675 -0.005014386
000320 3e 09 c9 3d a9 3d 43 bd a3 89 dd 3d 24 10 b3 bb
       0.09816216 -0.047666226 0.10817268 -0.0054645706
000330 b3 56 f1 3b 90 2f 87 bd 65 84 ca 3c c8 7d 9c 3d
       0.0073650717 -0.06600869 0.024721334 0.07641178
000340 bc dd 91 3d b4 2a c0 3c 1d cd 62 3d c2 25 bd 3d
       0.071223706 0.023457862 0.055371393 0.09235717
000350 39 ef 1c bb ea 2e 2f 3d 53 a9 aa 3d 5e 8f 05 3d
       -0.0023946299 0.04276935 0.08333077 0.03260743
000360 e2 4c 63 3d d9 4c 59 bc 69 bc 15 3d 91 3f e7 3d
       0.055493243 -0.013262951 0.036556635 0.11291421
000370 1a f2 0f 3d fe e2 74 bd 8f 84 98 3c 30 46 d0 bd
       0.035142995 -0.05978679 0.018617896 -0.10169637
000380 dc 07 03 3d d9 87 72 3c ed 5c 08 3c f5 eb 1b bd
       0.031989917 0.014802896 0.0083229365 -0.038066823
000390 d7 03 72 3d 9e a0 36 bd b8 ed d3 bd 7e 26 16 3d
       0.059085693 -0.04458677 -0.10348076 0.036657803
0003a0 f3 67 d8 3c c1 c9 e2 bd 08 4f bb 3c 0a 9b b2 bd
       0.026416754 -0.11073638 0.022864833 -0.087209776
0003b0 00 be 25 bc 2e 4c 8d bd 82 ed 9a 3c d5 ea ac bc
       -0.0101161 -0.06899296 0.01891208 -0.02110807
0003c0 2b 5a 21 bd 46 b4 d8 3c 3c b8 57 bd e6 04 13 bd
       -0.03939263 0.026453149 -0.052665934 -0.035893343
0003d0 e5 32 2f 3d ee ad 54 3c 20 e1 84 bc 5a 7d e1 bc
       0.042773146 0.012980921 -0.01622063 -0.027525593
0003e0 cb 34 6d bd 4e a7 f9 3c 59 da bb 3d dd d0 c1 bd
       -0.057911675 0.030475285 0.09172506 -0.09463666
0003f0 d9 41 22 bd 73 35 22 bd 01 5e 78 3d 6b 00 25 3d
       -0.03961358 -0.039601754 0.060636524 0.0402836

fc3.weight f4 [128, 256]
000000 d8 b4 b1 3c b0 6c d5 bb e2 5c 66 bd f0 f2 20 3c
       0.021692678 -0.0065132007 -0.056240924 0.009823546
000010 10 a9 04 bc 20 a1 f7 3b 40 5b ba 3b 66 e2 6e bd
       -0.008096948 0.0075570494 0.0056871474 -0.05832138
000020 2a 63 5e bd 1c a8 30 3d c0 db 73 bc b8 28 92 bc
       -0.05429379 0.04312907 -0.014883935 -0.017841682
000030 80 c0 20 3b 66 55 58 bd 80 82 b3 ba b4 95 06 3d
       0.0024528801 -0.052815817 -0.0013695508 0.03285761
000040 e4 88 a7 3c 44 f7 47 bd 40 fe 9f 3c 1c 6e 21 3d
       0.020451017 -0.048819795 0.019530416 0.03941165
000050 f2 aa 28 3d 58 b1 c4 bc 7c 8c a6 bc b0 bc 25 bd
       0.04117865 -0.024010345 -0.02033066 -0.04046315
000060 58 b4 cf 3c c2 40 32 3d 8c 4d 25 bd f8 fb d4 3c
       0.02535455 0.04351879 -0.040357158 0.025999054
000070 b4 91 92 3c 70 72 84 3b 38 b8 48 3d 08 05 0b bc
       0.017891742 0.0040419623 0.04900381 -0.008485086
000080 98 88 74 bc 96 bf 2e bd f8 d3 50 3d 12 3b 05 3d
       -0.014925145 -0.04266318 0.0509834 0.032527037
000090 c6 8e 58 3d 38 e4 07 bd 50 3a 05 bc 00 7a 59 3c
       0.052870534 -0.03317663 -0.008131579 0.013273716
0000a0 ae 5e 76 bd d0 48 77 bd 74 86 dd bc b0 a9 1e bd
       -0.060148887 -0.060372174 -0.027041651 -0.038736045
0000b0 0c ca 71 3d 22 0d 4d 3d 7c 3c f2 bc 28 a1 64 bd
       0.059030578 0.050061353 -0.029569857 -0.055817753
0000c0 10 ed 6d bd 30 bc 88 bb 6a 24 4e bd 8a b3 0e bd
       -0.05808741 -0.0041728243 -0.050327696 -0.03483919
0000d0 9c e3 b1 3c 20 e7 c6 bc f0 84 f4 bc 38 a6 24 bc
       0.021714978 -0.02428013 -0.029848546 -0.010049395
0000e0 ea 20 69 3d ea aa 08 3d 48 45 1e 3c b8 7b 2a 3d
       0.056916155 0.03336612 0.009660073 0.041621894
0000f0 38 86 4d bc 80 f2 80 bc f0 0e f1 bb c0 fd fb ba
       -0.012544207 -0.015740633 -0.007356517 -0.0019225404
000100 3c 47 b2 bc 38 73 2b 3d 50 57 00 3d a6 9d 7c 3d
       -0.021762483 0.041857928 0.031333268 0.061673783
000110 26 13 75 bd 6e 7d 5d bd ea 1a 00 bd 80 46 a0 3a
       -0.059832714 -0.054074697 -0.031275667 0.0012228042
000120 60 4f 3f 3c 2c 01 13 3d 22 f0 63 bd 70 b6 1e bd
       0.011676639 0.03588979 -0.05564893 -0.038748205
000130 d0 00 1b 3d 58 7e 14 bc 7c c2 48 bd e2 8e 5b bd
       0.03784257 -0.009063326 -0.0490136 -0.05360306
000140 34 63 70 3d 40 6a 28 bb 3a 0c 20 3d ea e8 5e bd
       0.058688357 -0.0025698096 0.03907416 -0.054421343
000150 c0 48 64 bb ec 02 89 3c de fd 48 bd 88 57 67 3c
       -0.0034833401 0.016725026 -0.04907023 0.01411999
000160 a4 95 4c bd 40 40 78 bd c0 29 c9 3a 78 49 1f 3d
       -0.049947396 -0.06060815 0.0015347525 0.038888425
000170 00 87 80 39 ec f4 81 bc f4 e9 09 3d 22 04 25 3d
       0.00024514645 -0.015863858 0.03367038 0.040287144
000180 00 df 49 bb 78 96 f8 3c a8 80 09 bd 20 76 55 bd
       -0.0030803084 0.030345187 -0.03356996 -0.052114606
000190 d0 37 b5 3b ec a2 0b bd c4 4a 09 3d a0 28 49 bc
       0.005530335 -0.03409092 0.033518568 -0.012277752
0001a0 70 43 22 bc 22 c4 25 bd 18 3e 15 bc 28 64 3a 3c
       -0.009903774 -0.04047025 -0.009109043 0.011376418
0001b0 3a 80 12 3d 92 43 09 bd f8 2b 65 bc 32 07 1b bd
       0.035766818 -0.033511706 -0.013987534 -0.03784866
0001c0 c0 c5 ca bb 88 ad 88 bc 38 a1 d3 3c 00 61 4d 3b
       -0.0061881244 -0.016684309 0.025833711 0.0031338334
0001d0 a0 73 fc 3c ba 38 0e 3d fc f6 79 bd ec db 84 3c
       0.030816853 0.034722067 -0.06102656 0.016218148
0001e0 40 1b 5f bc 20 43 0e bb 80 4a 90 3a 84 0b 46 3d
       -0.013617337 -0.002170749 0.0011008531 0.048350826
0001f0 f0 59 41 bc 52 fa 76 bd 30 13 38 3c e0 42 80 bc
       -0.011801228 -0.060297318 0.011235043 -0.015656888
000200 c0 07 ae 3b 3c 53 3e bd dc 6a f4 bc e0 21 ce 3b
       0.0053109825 -0.046466097 -0.02983611 0.0062906593
000210 04 64 7e 3d a0 1c 79 bd 22 b7 1b 3d 70 16 ab 3c
       0.0621071 -0.060818315 0.038016446 0.020884722
000220 da bc 2e bd e2 d3 79 3d cc d7 fa bc 80 e4 46 bc
       -0.04266057 0.060993083 -0.030620478 -0.01213944
000230 20 22 5b 3c 58 61 0c 3d b0 6b 40 bc 86 7e 5f 3d
       0.013374835 0.03427252 -0.011744425 0.05456402
000240 cc 00 97 bc 70 ba 31 bd ee 97 27 bd a8 a7 09 3c
       -0.018432997 -0.04339069 -0.040916376 0.008401789
000250 ec ce 39 bd 84 4f 1d 3d 12 4d 45 bd 90 75 30 3c
       -0.04536335 0.03840591 -0.048169203 0.010770217
000260 60 6e 6f bc 8c a7 50 3d 68 b7 12 3d 00 a0 54 37
       -0.014613718 0.050941035 0.03581944 1.2673438e-05
000270 00 90 fd 3a 9c 27 99 bc 8c 71 af bc 10 05 3e 3d
       0.0019345284 -0.018695645 -0.021416448 0.046391547
000280 68 3c e3 bc 0c a6 75 3d 64 8d 65 bd e8 1b 89 3c
       -0.027738765 0.059972808 -0.056043044 0.01673694
000290 3c 7b de bc 9a 65 50 3d e0 8a 29 bb 20 3e e5 3b
       -0.027158372 0.050878145 -0.002587013 0.0069959313
0002a0 a0 f9 27 3d 90 a0 3e bc 46 75 60 bd 82 31 39 3d
       0.041009545 -0.011634961 -0.05479934 0.04521323
0002b0 c0 61 6c 3c 40 1f 6a bb 38 26 ed bc e0 8b 92 3c
       0.014427602 -0.0035724193 -0.028948888 0.017888963
0002c0 5a 6e 0f 3d b2 ba 1c bd e8 b9 97 bc 64 fb b5 3c
       0.03501735 -0.038263984 -0.018521264 0.022214599
0002d0 68 ba 1d bd 78 eb 54 3d fa 3c 68 3d f8 f9 7a bc
       -0.03850785 0.051982373 0.056698777 -0.015318386
0002e0 4a 5e 4e 3d 84 a9 27 bd 80 7b c6 3b 46 89 1f bd
       0.05038289 -0.040933147 0.006057203 -0.038949274
0002f0 68 07 d2 3c 76 91 2b 3d 44 27 25 bd 66 9e 29 bd
       0.025638297 0.04188677 -0.04032065 -0.041410826
000300 de b1 07 3d 1e 24 16 3d 9c 8b 38 bd 60 18 0a bb
       0.03312861 0.036655538 -0.045055017 -0.0021071658
000310 d0 76 2c bd 00 e9 63 3c 08 41 23 bd 5a 3d 0b 3d
       -0.042105496 0.013910532 -0.03985694 0.033994056
000320 38 3a b8 bc 8c 16 65 3d a8 4d c9 bc dc 6d 12 bd
       -0.022488698 0.055929706 -0.024573162 -0.0357493
000330 90 f0 47 bc a0 92 55 3d ec ec f2 3c 40 ac ab bb
       -0.012203351 0.052141786 0.029653989 -0.0052390397
000340 90 a4 1f bd b0 ff 68 bc a0 2e 71 3d 60 a1 62 3c
       -0.0389753 -0.014221117 0.058882356 0.01383242
000350 5e b7 47 3d 7e 75 20 3d 30 86 9e 3b 0c 39 3d bd
       0.048758857 0.03917455 0.0048377737 -0.046196982
000360 ac 59 63 3d 90 b4 d0 3b 48 9a 5b 3c 82 44 1f bd
       0.05550544 0.006369181 0.013403483 -0.038883694
000370 fc bb 82 3c 48 46 40 bc 30 4d 45 bd fc 8f 64 3d
       0.015958779 -0.011735506 -0.048169315 0.055801377
000380 68 86 7d bc d6 8f 15 bd 0e 99 40 bd dc c0 7c 3d
       -0.0154739395 -0.036514126 -0.047020964 0.061707363
000390 3c df 61 3d c4 ac 73 3d b0 e5 75 3d 76 34 14 bd
       0.055144534 0.059490934 0.0600335 -0.036182843
0003a0 b4 4b 75 bd ba 51 36 3d aa cd 4c bd 10 45 6b bc
       -0.05988665 0.044511534 -0.050000824 -0.0143597275
0003b0 c0 ad 9a ba e4 10 b8 bc ea 2e 02 bd 98 8f ae bc
       -0.0011801049 -0.022468992 -0.031783022 -0.021308705
0003c0 c8 a4 2a 3d d8 3a 7a 3d dc a1 a0 3c b4 4d 47 bd
       0.041661054 0.061091274 0.01960843 -0.048658088
0003d0 28 f4 fe bc 00 4b e0 bb 04 8c 9f 3c 1c f8 37 bd
       -0.031122282 -0.006844878 0.019475944 -0.04491435
0003e0 4a aa 74 3d f4 b6 c7 bc 9e 47 17 bd 2c e3 6f bd
       0.059732713 -0.024379231 -0.036933534 -0.058566257
0003f0 52 cd 46 bd 8c 6e 96 3c 96 f1 0d bd 2e 33 16 bd
       -0.048535652 0.01836326 -0.034654222 -0.036669903

fc3.bias f4 [128]
000000 ca cf 4b 3d 23 de 9c 3d 02 d7 ae 3b 5f 3b b5 3d
       0.04975871 0.07659557 0.0053356895 0.08849215
000010 3a d7 3b bd 00 71 8d bc 75 d8 97 bd fc a7 54 bd
       -0.045859553 -0.017265797 -0.07414333 -0.051918015
000020 d7 19 59 bd 28 b2 6b bc 14 8e 6a 3c 8f 66 a0 3d
       -0.05300316 -0.0143857375 0.014316101 0.078320615
000030 19 78 72 3d 74 6e 4a 3d df c3 60 3d ea e6 cd bc
       0.059196565 0.049421743 0.054874297 -0.025134522
000040 3f 71 2b 3c 34 c2 b7 3d 37 9a 43 bd 44 7e 0b bd
       0.010464012 0.08972588 -0.047754493 -0.034055963
000050 a4 e5 7a bd 1e 42 ba 3d df 9d c1 3c 78 6d f1 3c
       -0.06125416 0.09094642 0.02363485 0.029471144
000060 7a f1 fb 3c 98 31 77 bd 28 bb a5 3c f4 11 eb 3d
       0.030754793 -0.06035003 0.020230845 0.11478034
000070 2a d6 75 3b c0 80 9f bb 86 c3 dc 3c af d4 a1 3d
       0.0037511685 -0.004867643 0.026948702 0.07901894
000080 8c 95 ff 3a 74 15 02 3d ee 0f 49 3d 16 a5 48 3c
       0.0019499524 0.03175874 0.049087457 0.012246391
000090 f5 bb d6 3c 58 31 14 bd 86 30 6b 3d 0e 3e 29 3d
       0.026212672 -0.03617987 0.057419322 0.041318946
0000a0 cf 5a 5c 3d fe 5e 19 3d 7a 0f 86 bd 2e b0 57 bd
       0.05379754 0.037444107 -0.06545921 -0.052658252
0000b0 3c af 9c 3c 37 7c a6 3b f3 82 bd bc d4 22 25 bd
       0.019126527 0.0050807255 -0.02313373 -0.040316418
0000c0 5d c0 cd 3d d3 8e 2d bd 5c 74 c3 3d c6 b4 45 3d
       0.10046456 -0.042372536 0.09543678 0.048268102
0000d0 c6 63 b2 3d 30 a8 01 bd 51 06 23 3d 8b 39 e7 3d
       0.087104365 -0.031654537 0.039800946 0.11290272
0000e0 be ca 50 bd 88 1d ea 3c 4f 4a 97 bd 03 52 0e 3d
       -0.0509746 0.028578535 -0.0738722 0.03474618
0000f0 80 10 85 3b 80 ad d9 bc 04 b7 85 3d 3e 95 a5 3d
       0.004060805 -0.026571989 0.06529048 0.08085106
000100 87 ea 31 bd b4 9c e7 3d cc ea a6 3c 3d 51 a1 3c
       -0.043436553 0.113091856 0.020375632 0.019692058
000110 a6 2e 7c bd fd df 3b bd 58 be af 3c 4c 33 dd bc
       -0.061567925 -0.04586791 0.021453068 -0.027002
000120 30 41 d4 3c 0e 8d ef 3d f2 1d bd 3d cb 36 9f 3d
       0.02590999 0.11696826 0.09234227 0.07774123
000130 06 05 4a bd 57 9b c9 3d 95 73 27 bd c9 dc a7 3c
       -0.049321197 0.09844082 -0.040881712 0.02049102
000140 14 f6 b1 3d c5 60 c3 3d 28 41 da 3c 19 22 23 3b
       0.08689514 0.09539942 0.026642397 0.002489215
000150 4d 02 36 3d 79 c4 c5 3d a6 76 06 3c dc e6 47 3d
       0.044435788 0.09656615 0.008206999 0.04880415
000160 e8 ce 61 bd 92 e9 75 bd 10 2b ea 3d 61 2d ef 3c
       -0.05512896 -0.060037203 0.11433995 0.029196443
000170 ae f5 af 3d 4e ae 92 3d d2 af 2b bd 50 06 d0 bb
       0.085917816 0.07162152 -0.041915722 -0.0063484088
000180 19 1e dc 3c cd 8f ef 3c c7 fe dc 3d 85 86 d0 3c
       0.02686982 0.029243374 0.107907824 0.025454769
000190 51 59 56 3c 7d ad a0 3d 20 44 0f 3c 02 0d 61 bd
       0.013082818 0.0784559 0.00874427 -0.054944046
0001a0 dd 1e 8e 3d 36 e2 86 bd 15 63 21 bd a6 2f 84 3d
       0.069394805 -0.06586115 -0.039401133 0.06454401
0001b0 42 13 43 bc d8 8b 43 3c 63 8c 9f bd c0 42 be 3d
       -0.011906447 0.011935197 -0.077904485 0.09290075
0001c0 0c 18 32 3d 6b 92 12 3d 4b 77 c9 3c 78 8a d0 3d
       0.043479964 0.035784166 0.024593016 0.10182661
0001d0 b9 20 7c 3c b8 b1 c9 bc 9c ff a9 3c d9 92 9a bd
       0.015388661 -0.024620876 0.020751767 -0.0754754
0001e0 3d b9 1f bb bc 0c e6 bc d9 9a 3f bd 42 43 56 3d
       -0.0024371885 -0.028082244 -0.046778534 0.052310236
0001f0 d3 67 9a 3d 9f 10 30 3d 59 df e1 bc 2d 98 67 bd
       0.07539334 0.0429846 -0.02757232 -0.05654161

fc4.weight f4 [2, 128]
000000 b3 dd 26 3d f2 00 25 3d 55 04 04 3c 7e 23 e6 3d
       0.040738773 0.040284105 0.008057673 0.11237238
000010 bc ca 3e bc f9 04 59 3c cc d9 ca bc 21 a7 ab 3d
       -0.011645015 0.0132458145 -0.024762057 0.08381487
000020 3a 62 8f bd be 3f 06 3d 23 60 16 bd 17 d5 e7 3d
       -0.07001157 0.032775633 -0.036712777 0.113199405
000030 af 94 14 3e c2 7a c4 3d 20 73 b2 3d c7 43 1a 3d
       0.14509843 0.09593727 0.087133646 0.037662294
000040 d3 20 91 3d 49 c7 94 3e 6a c5 81 3d 8c 62 5c bc
       0.07086339 0.29058293 0.06336482 -0.01345123
000050 14 ef 8d bd 8e 83 d4 3c 42 f4 96 3d be 79 de 3d
       -0.06930366 0.025941636 0.07370807 0.10863064
000060 45 f9 62 bd 69 77 ec 3c 7d 93 26 bd 00 2e e8 3d
       -0.055413503 0.028865533 -0.040668 0.11336899
000070 ab 44 02 3e 40 78 48 bd e9 ce bc bc 53 f7 09 3c
       0.12721507 -0.048942804 -0.023047881 0.008420783
000080 d9 fe 90 3d 15 16 f5 3d 5f 98 89 bc 1a b1 31 bc
       0.07079858 0.119671024 -0.016796289 -0.010845447
000090 d6 5a 6c 3d be 13 1a 3d c5 b9 c4 3c d6 72 0b bf
       0.057703815 0.037616484 0.024014363 -0.544721
0000a0 e5 d8 fa 3d 9d bb 20 3d 53 4d 26 bd b7 c5 22 3c
       0.122484006 0.039241422 -0.040601086 0.009934834
0000b0 b9 d2 3f bd da d5 a7 3d 2a 6f 94 3d cf bb 1d 3d
       -0.04683182 0.08195086 0.07247765 0.038509186
0000c0 54 74 a4 3d 84 51 81 bd 8a 78 d9 3d 6a 64 40 bd
       0.0803 -0.06314376 0.10618694 -0.046970762
0000d0 6b 12 80 3d 47 f8 38 3d d5 a2 c1 3d 65 b7 04 3d
       0.06253513 0.04515865 0.09454886 0.03240146
0000e0 fd 5c 08 bd 5f 28 54 3d 66 98 01 bd 5c c3 cc 3d
       -0.033291806 0.051796313 -0.03163948 0.09998199
0000f0 01 c2 b2 3d 68 d9 c3 ba 3b 1b 99 3d 28 96 f4 3d
       0.087284096 -0.0014942111 0.07475897 0.119427025
000100 77 9e 1a bd 11 91 76 3d f9 b0 a8 bd 9e 62 b8 bc
       -0.03774878 0.06019694 -0.0823688 -0.022507962
000110 85 11 5c 3d 06 a2 2e 3d a1 47 6a 3d b9 67 90 3d
       0.053727645 0.042634986 0.057197217 0.070510335
000120 c1 f8 a0 3d 8d 96 bd 3d 18 47 d6 bb 6f be e7 3c
       0.07859946 0.09257231 -0.0065392368 0.028289048
000130 98 a9 76 3d e5 c2 9b 3c ed d7 7e 3d 76 17 03 3e
       0.06022033 0.019013831 0.06221764 0.12801918
000140 ba d7 2f 3e f7 e8 f2 3d f2 ed a3 3d 6d 8b ed 3d
       0.17172137 0.11860841 0.08004369 0.11598859
000150 e1 d2 cd 3d 46 38 af 3d 86 3f 22 bf b5 89 c6 3d
       0.100499876 0.08555655 -0.6337818 0.09694234
000160 0f 3d 8d bd b5 3a 75 bc 2c 87 2c 3d 91 58 e8 bc
       -0.06896412 -0.01496761 0.042121097 -0.028362544
000170 e2 21 a1 3d 47 eb e1 3d 7d 99 04 3d c1 a5 8d 3d
       0.07867791 0.11031204 0.03237294 0.06916381
000180 1a f3 49 3e 68 ce 37 bd d6 12 ea 3c 7d e7 80 bd
       0.19721642 -0.04487458 0.028573435 -0.06294153
000190 5b d1 fa ba 58 12 45 bd e9 2e 2b 3e 88 4e 92 bd
       -0.0019135879 -0.048113197 0.16717114 -0.07143885
0001a0 36 68 a7 3d 10 96 8a bd be 64 3a bd de 95 de 3d
       0.081741735 -0.067669034 -0.04550623 0.10868429
0001b0 39 c2 c5 3b 77 29 89 bd b9 7f 86 bc 79 f3 8a 3d
       0.006035116 -0.06697362 -0.016418325 0.0678472
0001c0 42 2f 7a bd 16 fd b8 3d 37 db 6e be 36 d5 01 3e
       -0.061080225 0.09032647 -0.23325811 0.1267899
0001d0 76 e7 6d bd 0b d7 95 3b f0 58 62 bc 2d 92 23 bd
       -0.058082066 0.0045727543 -0.01381515 -0.039934326
0001e0 5b f6 9c 3d d3 ee b1 bd 3f 36 97 3c 5b b6 ae 3d
       0.07664176 -0.0868813 0.018458484 0.08530875
0001f0 5f b4 9e 3b 51 09 1b 3d 6c 96 6a bc f6 34 84 bd
       0.0048432793 0.03785068 -0.01431809 -0.06455414
000200 2d 4d 78 bd c9 2c ce 3d c9 4f 91 bd f3 b0 8d 3d
       -0.060620476 0.10067136 -0.07095296 0.06918516
000210 35 76 88 3c 45 f7 82 bd 83 f0 8e bd cc 09 d1 bc
       0.016657928 -0.06394819 -0.06979468 -0.025517367
000220 4a 84 c3 bb 04 55 05 bd 90 45 8e 3c ca 46 b9 3d
       -0.005966698 -0.03255178 0.017367154 0.09046705
000230 24 8a 97 bc 49 84 ae 3d 26 ba 87 3d dd 65 9a bd
       -0.018498488 0.08521325 0.06627302 -0.0753896
000240 68 39 88 bd 11 42 0a be 7b ef 87 bd 81 80 07 bd
       -0.066515744 -0.13501765 -0.06637474 -0.033081535
000250 92 43 3c 3d 52 ed b4 3d ff 7d 30 3b 57 83 82 3d
       0.045962878 0.08834328 0.0026930568 0.06372707
000260 3f 2b da bc ad a1 ab 3d 21 ec 0b 3e 8f a9 04 3e
       -0.02663195 0.083804466 0.13664295 0.12955306
000270 45 e2 7b 3d 4c be be bc 5d 59 6d 3c f7 2e ce 3d
       0.061495084 -0.0232841 0.014486638 0.100675516
000280 c0 d9 49 3d a6 53 15 3d 9e d3 df 3c 1b 36 42 bd
       0.04927993 0.036456726 0.027322587 -0.04741488
000290 0e e6 b2 3d 4f b3 83 3d 74 4f d0 3b de bc e3 bd
       0.08735286 0.06430685 0.006357128 -0.11120008
0002a0 13 83 41 bd a2 98 a6 bc 18 a7 8d bd 22 52 2b bd
       -0.047244143 -0.020336453 -0.06916636 -0.041826375
0002b0 db cd 38 3c 23 c0 08 3e a4 b8 f9 3c c2 f2 0f 3d
       0.0112795485 0.13354544 0.030483551 0.03514362
0002c0 ce bd 9b 3d f7 5b 7c 3d 43 b9 99 3d ad 32 62 bd
       0.07604562 0.061611142 0.07506039 -0.05522411
0002d0 c8 2d 9e 3d 8c eb 97 3d 27 4b 06 3e 7b 5e e5 3d
       0.07723576 0.07417974 0.13114606 0.11199661
0002e0 37 cc 55 bd 97 7d 4c bd 20 45 be 3c 9e ce e4 3d
       -0.052196708 -0.04992446 0.02322632 0.111722216
0002f0 98 b8 4d bd 89 6f 8e 3d c7 3d 93 bc bb 50 ed 3d
       -0.05022487 0.069548674 -0.017973794 0.11587664
000300 a2 25 9f 3b 31 65 bd 3d fa f2 a5 bd 8f 1b 0d bd
       0.004856781 0.09247816 -0.08102985 -0.03445011
000310 2f 27 57 bd d0 c9 8d 3d 76 9e 97 bd 5b de 73 3d
       -0.052527603 0.06923258 -0.07403271 0.059538227
000320 08 7a 9d 3c 4c f3 b5 3d 07 83 e1 3d 20 6a d3 3d
       0.019223228 0.08884296 0.110113196 0.10322976
000330 66 60 5f bd 9e c0 cf 3d b5 f7 5a bd ac 23 44 bc
       -0.054535292 0.10144161 -0.053458888 -0.011971395
000340 6c 8d e2 bd 38 09 a6 3d 69 73 ab bd ee 1c ed 3d
       -0.1106213 0.08107227 -0.08371622 0.115777835
000350 aa ab 89 3c cc 21 be 37 9a de 8f be 7a cd cf 3d
       0.016805489 2.2665503e-05 -0.2809952 0.101466134
000360 94 aa 4f bc 2f 76 9a bc ff 54 90 3d 09 92 8b bd
       -0.012674946 -0.018855182 0.07047462 -0.06814963
000370 d7 c5 22 3e e8 87 d6 3c eb 4a 33 3c 92 5a 29 3c
       0.15895782 0.026187852 0.010943155 0.010336535
000380 94 77 36 3e fa b1 69 3c ee 2c a6 3d 9c bf a3 bd
       0.17819053 0.014263624 0.081140384 -0.07995531
000390 5e b5 ef 3b 86 b9 3a 3e e4 2e cf 3d a8 35 06 bc
       0.007315322 0.18234834 0.101163656 -0.008191504
0003a0 83 51 40 3d 6a 1c 63 3d 95 36 0f 3d 9a 82 4d bc
       0.046952736 0.05544702 0.034964163 -0.012543345
0003b0 b6 75 7c bd 89 67 b8 3c 50 42 82 3d 69 b1 13 3e
       -0.061635695 0.022510307 0.06360304 0.14423145
0003c0 a0 60 8c bd e9 78 37 3d 49 48 12 bf 2d 16 6d bc
       -0.06854367 0.044793043 -0.5714155 -0.014470619
0003d0 a9 38 8b bd e0 61 62 bc bc 8e 1a 3e 59 25 15 3d
       -0.067979164 -0.0138172805 0.15093511 0.03641257
0003e0 b6 0c 98 3d e8 ed 9a 3c 4d 8a 6a bd f8 7a 27 3d
       0.074242994 0.01891227 -0.0572608 0.040888757
0003f0 9f 2a fb 3d fe b6 9d 3d 90 a6 7a 3b 20 59 a4 3d
       0.12263989 0.077009186 0.0038246252 0.08024812

fc4.bias f4 [2]
000000 92 98 87 bc 87 3e 4b 3c
       -0.016552243 0.012405044
