models/cartpole_d3qn.pth (torch, 207564 bytes, 9 tensors)

ll_fc1.weight f4 [128, 4]
-0.033464674 0.22772469 -0.550432 -0.35834596 -0.14003626 0.17802061 0.34221736 0.35519272
-0.10310902 0.1138842 -0.267244 -0.1666073 -0.45623624 -0.27415252 -0.3541871 0.02880533
0.23319411 0.12628576 -0.6572804 -0.2755962 0.088285044 0.40363047 -0.38007364 0.35629225
-0.057001643 0.052114155 0.41984913 -0.48034343 -0.19786173 -0.03360111 0.07104619 0.35350493
-0.36351925 -0.22068588 -0.21646504 -0.41927096 -0.34816346 0.34237814 0.72800136 0.3376729
-0.034227975 -0.22745575 0.14387509 -0.48042256 -0.30759352 -0.23385979 0.6278956 0.29402676
-0.21671787 -0.00894392 0.6394347 0.45789507 0.25301716 -0.037563123 0.17841615 -0.19885553
0.25494894 -0.3327794 -0.6495125 -0.23820913 0.25143653 0.25404343 -0.3146543 0.20197284
0.15942883 -0.041334175 -0.37897924 0.009269146 0.39244843 0.40652522 -0.51831305 -0.17686155
0.1585639 0.42114195 0.9664163 0.42749307 0.14571215 -0.38195196 -0.08274242 -0.3512832
-0.5651844 0.48241246 0.61507815 -0.44848898 0.08718474 -0.09068629 -0.07586265 -0.22241993
0.19075993 -0.2959682 0.43042746 0.21759585 0.3295885 0.14658642 -0.7136177 -0.38234416
0.3798721 0.023740942 -0.6023863 -0.28935224 0.5562338 0.25280565 -0.45910028 -0.21791668
-0.31034353 -0.029304119 -0.54243153 -0.38198856 0.025688147 0.09563517 -0.12742805 0.1922606
-0.46243176 0.4236942 0.57496583 -0.33950657 -0.18716423 0.050034996 -0.0023414027 0.09741231
0.073161714 0.040080942 -0.4766687 0.22620633 -0.28483048 -0.11967563 -0.014402361 -0.16714585
-0.08243653 -0.3419044 0.24185058 0.039019566 -0.39281 -0.024372198 0.9107598 -0.064650774
0.16886623 0.02158321 0.40914777 0.26902148 0.33899236 0.27066073 0.48187193 0.006564628
-0.38484222 -0.21294072 0.67470443 -0.014923067 -0.26072967 -0.3885306 -0.7966711 -0.40652126
-0.354894 0.22848293 0.41064835 -0.4786356 0.31189102 -0.39125472 -0.10570514 -0.20273632
-0.029737307 0.022537345 -0.48201665 -0.478531 0.005660125 0.020612897 -0.13385925 0.16563974
-0.47673118 -0.08081634 0.95598197 -0.14146921 0.34646317 0.15845206 -0.72840655 0.34536135
0.092421636 -0.25357425 0.3415447 -0.37422502 0.1253616 -0.05335329 0.7473026 0.09547892
0.19327122 0.1698895 -0.13611549 -0.10023748 -0.35939252 0.3021274 0.77445984 0.31421798
-0.3277215 -0.0013635698 -0.56638616 -0.35126093 -0.24215432 0.21482572 -0.25354373 0.032922544
0.02558914 0.23378928 -0.6044988 -0.33159387 -0.3777078 0.4093497 0.18062982 0.35930407
0.19105718 0.038393002 -0.021514965 -0.013206574 0.013127735 -0.10304438 0.018426705 0.0656761
-0.35932764 -0.24902245 0.3970371 -0.37985542 -0.042550277 0.45183694 0.2527896 0.04555563
-0.55522114 0.1493575 -0.338029 -0.056079973 -0.20076172 -0.02545059 -0.13644774 0.36809713
-0.09831275 0.3113542 0.5445059 -0.18829384 0.23452905 -0.31356198 -0.5133385 0.099261254
0.023697132 0.31268373 -0.13916841 -0.0012171696 0.26431647 -0.48047933 0.31786227 -0.52261215
-0.121142715 -0.0847693 -0.52162284 0.07375273 0.31057143 -0.1676057 -0.48613688 -0.17862679
00000000: 4112 09bd a930 693e 1de9 0cbf 1f79 b7be
00000010: aa65 0fbe 094b 363e 1d37 af3e d2db b53e
00000020: d22a d3bd 1f3c e93d 35d4 88be 1b9b 2abe
00000030: cc97 e9be b85d 8cbe 0358 b5be 28f9 eb3c
00000040: 70ca 6e3e 0e51 013e 8743 28bf f21a 8dbe
00000050: cace b43d a7a8 ce3e 0399 c2be f06b b63e
00000060: 8e7a 69bd a775 553d 77f6 d63e 93ef f5be
00000070: 449c 4abe 51a1 09bd aa80 913d 99fe b43e
00000080: 321f babe 7bfb 61be 03a9 5dbe afaa d6be
00000090: 7b42 b2be 304c af3e 4c5e 3a3f 76e3 ac3e
000000a0: a232 0cbd 29ea 68be fe53 133e f2f9 f5be
000000b0: e67c 9dbe f178 6fbe c4bd 203f ad8a 963e
000000c0: 4aeb 5dbe 8589 12bc feb1 233f 3971 ea3e
000000d0: 778b 813e cadb 19bd b9b2 363e c9a0 4bbe
000000e0: ab88 823e 1062 aabe 7446 26bf 18ed 73be
000000f0: 4abc 803e fb11 823e 5e1a a1be f8d1 4e3e
00000100: 5041 233e 064e 29bd 9109 c2be 9edd 173c
00000110: 00ef c83e 1324 d03e 2ab0 04bf 321b 35be
00000120: 935e 223e eb9f d73e 0f67 773f 5fe0 da3e
00000130: 9135 153e 358f c3be dc74 a9bd 64db b3be
00000140: edaf 10bf c4fe f63e c375 1d3f 59a0 e5be
00000150: ea8d b23d bcb9 b9bd e15d 9bbd 0dc2 63be
00000160: 9256 433e 2589 97be fd60 dc3e 72d1 5e3e
00000170: d3bf a83e c01a 163e a6af 36bf 9dc2 c3be
00000180: 997e c23e 5d7c c23c fd35 1abf fa25 94be
00000190: 5765 0e3f be6f 813e 310f ebbe 8d25 5fbe
000001a0: 59e5 9ebe 310f f0bc cbdc 0abf 0194 c3be
000001b0: f36f d23c 5fdc c33d 807c 02be f6df 443e
000001c0: dbc3 ecbe 72ee d83e f630 133f ced3 adbe
000001d0: fba7 3fbe 7ff1 4c3d 3872 19bb 1b80 c73d
000001e0: cfd5 953d ea2b 243d eb0d f4be a2a2 673e
000001f0: 4dd5 91be 7f18 f5bd e1f7 6bbc 4828 2bbe
00000200: 7cd4 a8bd 180e afbe aea7 773e fbd2 1f3d
00000210: 641e c9be 34a8 c7bc 8e27 693f a067 84bd
00000220: 45eb 2c3e 46cf b03c d17b d13e 2fbd 893e
00000230: 6890 ad3e 0b94 8a3e ebb7 f63e 171c d73b
00000240: 0a0a c5be 220d 5abe 6eb9 2c3f e17f 74bc
00000250: 5c7e 85be 7ced c6be a3f2 4bbf 8e23 d0be
00000260: abb4 b5be 6ef7 693e 8040 d23e ba0f f5be
00000270: 2eb0 9f3e 8a52 c8be f07b d8bd 1c9a 4fbe
00000280: a79b f3bc 3da0 b83c e3ca f6be 0402 f5be
00000290: 9278 b93b 61dc a83c 6612 09be 779d 293e
000002a0: 1c16 f4be 0a83 a5bd 3cbb 743f 4edd 10be
000002b0: 9f63 b13e 4241 223e da78 3abf 34d3 b03e
000002c0: 8e47 bd3d 7cd4 81be f2de ae3e 6c9a bfbe
000002d0: cb5e 003e fb88 5abd 394f 3f3f 748a c33d
000002e0: e4e8 453e 83f7 2d3e dc61 0bbe 4f49 cdbd
000002f0: 4c02 b8be 71b0 9a3e 0043 463f 2ee1 a03e
00000300: 1dcb a7be cfb9 b2ba affe 10bf 79d8 b3be
00000310: 4df7 77be 46fb 5b3e 7cd0 81be cad9 063d
00000320: 51a0 d13c 7566 6f3e 6fc0 1abf acc6 a9be
00000330: eb62 c1be 4996 d13e 06f7 383e b4f6 b73e
00000340: 7ea4 433e fb41 1d3d 2740 b0bc 6360 58bc
00000350: b615 573c ef08 d3bd 9af3 963c 3181 863d
00000360: cbf9 b7be beff 7ebe 7248 cb3e 697c c2be
00000370: 3349 2ebd 2c57 e73e a36d 813e 8a98 3a3d
00000380: f922 0ebf 2cf1 183e 2312 adbe 1db4 65bd
00000390: 7b94 4dbe c17d d0bc f5b8 0bbe 3a77 bc3e
000003a0: 3258 c9bd d169 9f3e bd64 0b3f 1ad0 40be
000003b0: 6228 703e 328b a0be 276a 03bf 7c49 cb3d
000003c0: 7d20 c23c 1518 a03e 2a82 0ebe 6f89 9fba
000003d0: 7d54 873e 6301 f6be d8be a23e e9c9 05bf
000003e0: ac19 f8bd 879b adbd 1389 05bf ac0b 973d
000003f0: 3803 9f3e d4a0 2bbe efe6 f8be f1e9 36be

ll_fc1.bias f4 [128]
-0.15253678 -0.22404936 0.13322602 0.21276988 -0.3639182 0.0382522 0.28245628 -0.12888327
-0.06863135 -0.080099456 0.16688612 -0.35378197 -0.31160524 -0.39043266 0.51050407 -0.050877046
-0.031722438 -0.21287276 0.49218175 0.48025954 -0.48041335 -0.41178894 -0.43313366 0.017980892
-0.18839765 -0.37292823 -0.23867947 0.0637397 -0.29272053 0.10086636 -0.11685926 -0.47238922
-0.007279005 0.3632605 -0.3808342 0.00919366 -0.1881168 0.5036051 -0.49155033 -0.4793306
0.47801125 -0.38638574 0.18016833 0.05174408 -0.27240497 -0.14084505 0.31267655 0.003693823
-0.5391075 -0.3456199 -0.2257308 0.2908567 -0.42334098 0.496924 -0.19955778 -0.16429491
0.40245986 0.19785678 0.47369832 0.26850545 -0.21658215 -0.34320295 -0.038918238 0.45552632
-0.27602133 -0.3730783 0.22229998 0.5025738 -0.04473012 -0.44870442 -0.59945405 0.1435403
-0.004567772 -0.3040492 0.092445455 0.19259937 0.42250958 0.41856742 -0.12403567 -0.4582184
-0.45181155 0.47263452 0.26118785 0.24774466 -0.5319662 0.4605895 0.5016237 0.49753687
-0.4217925 -0.24549665 -0.36813536 0.41323552 -0.29445982 -0.2048648 0.2319493 -0.25780445
-0.30631906 -0.042392578 -0.043656304 -0.43181852 0.42905155 -0.19593218 0.19476362 0.47076145
0.1941913 0.0024357114 0.46823782 0.075706124 -0.2205268 0.474186 0.08616788 -0.4845013
-0.23618546 -0.3891448 0.44332388 -0.17530788 -0.62614065 -0.032916363 0.32348981 0.1272198
0.18389645 0.04226995 0.17112611 -0.14860703 -0.31029314 -0.47136143 -0.4433837 0.2339431
00000000: 9a32 1cbe 326d 65be 676c 083e 59e0 593e
00000010: 7c53 babe 57ae 1c3d 1c9e 903e faf9 03be
00000020: 988e 8cbd 2f0b a4bd 32e4 2a3e e922 b5be
00000030: b98a 9fbe cae6 c7be 65b0 023f 7364 50bd
00000040: 63ef 01bd 51fb 59be 3fff fb3e 94e4 f53e
00000050: bdf8 f5be 00d6 d2be b2c3 ddbe aa4c 933c
00000060: 50eb 40be 73f0 bebe 6468 74be f689 823d
00000070: 77df 95be 0693 ce3d e853 efbd 00dd f1be
00000080: b884 eebb 48fd b93e b3fc c2be 01a1 163c
00000090: b1a1 40be 44ec 003f 7cac fbbe d26a f5be
000000a0: e4bd f43e 5ad4 c5be 0c7e 383e 9af1 533d
000000b0: aa78 8bbe af39 10be 2417 a03e 1114 723b
000000c0: f302 0abf 17f5 b0be fa25 67be 2beb 943e
000000d0: 26c0 d8be d36c fe3e e058 4cbe ed3c 28be
000000e0: 380f ce3e f89a 4a3e 9688 f23e 8c79 893e
000000f0: b6c7 5dbe 4cb8 afbe bb68 1fbd bf3a e93e
00000100: ab52 8dbe 1e04 bfbe 9ba2 633e ada8 003f
00000110: ee36 37bd 96bc e5be d275 19bf 3afc 123e
00000120: 40ad 95bb 56ac 9bbe 0b54 bd3d c538 453e
00000130: 2d53 d83e 784e d63e 6a06 febd 9a9b eabe
00000140: d853 e7be 27fd f13e 6aba 853e c7b0 7d3e
00000150: f02e 08bf 63d2 eb3e 696a 003f 27bd fe3e
00000160: 30f5 d7be 7963 7bbe 3d7c bcbe 9b93 d33e
00000170: 70c3 96be 14c8 51be 1e84 6d3e f2fe 83be
00000180: dad5 9cbe d7a3 2dbd f4d0 32bd 5117 ddbe
00000190: a5ac db3e 72a2 48be 1d70 473e a507 f13e
000001a0: 16da 463e 75a0 1f3b debc ef3e d00b 9b3d
000001b0: c7d1 61be 82c8 f23e c978 b03d 8e10 f8be
000001c0: 9ada 71be fd3d c7be 59fb e23e e983 33be
000001d0: c14a 20bf 4fd3 06bd 75a0 a53e e845 023e
000001e0: 5a4f 3c3e 4123 2d3d af3b 2f3e 712c 18be
000001f0: bede 9ebe 4956 f1be 3003 e3be c88e 6f3e

ll_fc2.weight f4 [128, 128]
-0.058238488 -0.059971787 -0.004769042 0.025598552 -0.16202821 -0.06457305 -0.046003196 0.054120313
-0.079269074 -0.31523085 0.043209862 -0.054523204 -0.017989459 -0.03986598 -0.06554171 -0.34170756
-0.11881868 -0.0020445674 -0.0146415075 0.06047201 0.0061689005 -0.024765331 0.007880395 -0.14839658
-0.059773684 -0.05249856 -0.042122953 0.042341616 0.06631501 0.09255863 -0.24070732 -0.028227493
-0.00637892 0.09568379 -0.06568023 -0.0059587513 -0.034849692 0.015738428 0.14232618 -0.023915512
0.060134407 -0.073984906 0.15533617 -0.15064801 -0.021421567 0.041126613 -0.014129111 -0.06101172
-0.1582807 0.063033506 0.019808514 -0.018017102 0.056979466 0.10912056 0.023464056 -0.11818823
0.08689441 -0.05452781 0.06257147 0.00975009 0.0047641476 -0.12135287 -0.13757212 0.017910307
-0.10650522 -0.3822347 0.013777558 0.062676124 -0.06875436 0.03950376 -0.04559649 -0.008112476
-0.14165512 -0.21426456 0.08147169 -0.0125474455 0.027182713 0.020080594 -0.01128144 -0.002802385
0.071684465 -0.031134266 -0.061361454 -0.099617586 -0.14316386 0.062291928 0.13974269 -0.0514098
0.053493023 -0.12240016 -0.054335743 0.054288767 -0.06343134 -0.20231622 -0.05051976 -0.006956423
-0.18012185 -0.06119248 -0.0018287153 -0.1325537 -0.082491495 -0.052184157 0.05132063 -0.03977491
0.051462594 0.023027584 0.07511534 -0.11079462 -0.25859362 0.022146361 -0.070486955 -0.03193122
0.034128636 -0.17236666 0.0012068495 0.03330724 -0.029894317 0.07600703 -0.04444893 -0.02230303
0.016082661 0.05316286 -0.03985689 0.090918705 0.020704893 -0.06823232 -0.07254949 0.082950726
-0.040401794 -0.060457733 0.088632494 -0.038162883 0.029981744 0.07242547 0.10209487 -0.047790382
0.10236138 -0.5496815 0.12499242 -0.13002658 -0.12313012 0.0032796448 0.09058344 0.10921479
-0.0142225195 -0.048103012 -0.022851698 -0.056017313 -0.049934253 0.009864509 -0.06329821 0.02202495
0.07320974 0.0018813517 -0.033859465 -0.014605181 -0.06257385 -0.040723752 0.01997872 -0.012943546
0.042910405 -0.045447484 -0.03559072 -0.06312089 -0.1089363 0.1549928 0.029007459 -0.051200032
0.08142066 -0.042637374 -0.109573886 0.0569987 -0.022030523 -0.21699265 0.049571097 -0.048548702
-0.25044492 0.07437862 0.0059193256 0.060661525 -0.20315985 0.012856127 0.09057255 -0.043905474
0.017981121 0.014696117 0.02099541 0.026792686 0.01620737 -0.14743342 0.15106693 0.051986437
-0.05489956 -0.39134932 -0.030532205 0.07483673 -0.0007760019 -0.0017591021 -0.026995279 0.02439997
0.041698467 -0.06581277 0.07281075 0.0820367 0.071478456 0.06535352 0.0367573 0.019964207
0.004067487 0.013909625 0.0497827 0.11524091 -0.15142488 -0.03432655 0.04436968 -0.03137812
0.0014170824 -0.08863376 0.077549174 -0.0712501 0.07757728 -0.09823059 0.017435255 -0.043148067
-0.0020461932 -0.02457348 0.013979225 -0.005254878 0.02646253 -0.0066620833 0.056203052 0.052679904
-0.05754457 0.039756197 0.07081169 0.12222569 -0.020317316 0.106873915 -0.033590395 -0.029375758
-0.05482273 -0.23369351 -0.021542009 0.12224309 -0.048143733 0.032052744 0.09053965 -0.05143578
0.0528461 0.01877939 -0.03275447 -0.07309028 0.016252594 0.037533768 -0.1313755 0.0886197
00000000: 7b8b 6ebd faa4 75bd a045 9cbb 0eb4 d13c
00000010: b9ea 25be e03e 84bd d96d 3cbd 43ad 5d3d
00000020: d357 a2bd f065 a1be d3fc 303d b953 5fbd
00000030: a15e 93bc 834a 23bd bb3a 86bd 4bf4 aebe
00000040: 3557 f3bd 26fe 05bb efe2 6fbc 80b1 773d
00000050: 7d24 ca3b aae0 cabc c61c 013c 46f5 17be
00000060: 40d5 74bd bb08 57bd 1e89 2cbd 676e 2d3d
00000070: 2ad0 873d 618f bd3d fb7b 76be 583d e7bc
00000080: 4206 d1bb ddf5 c33d 5b83 86bd a141 c3bb
00000090: 8dbe 0ebd e0ed 803c f4bd 113e 77ea c3bc
000000a0: 7f4f 763d 6685 97bd 7210 1f3e 7943 1abe
000000b0: 487c afbc 6174 283d c97d 67bc 6de7 79bd
000000c0: 5614 22be b617 813d 7745 a23c 9a98 93bc
000000d0: 4d63 693d 9a7a df3d b137 c03c ac0c f2bd
000000e0: b2f5 b13d 8e58 5fbd 7925 803d d7be 1f3c
000000f0: 911c 9c3b da87 f8bd b5df 0cbe a3b8 923c
00000100: 691f dabd 44b4 c3be 44bb 613c 575c 803d
00000110: 16cf 8cbd b2ce 213d 63c3 3abd 31ea 04bc
00000120: 0a0e 11be 2b68 5bbe a1da a63d cd93 4dbc
00000130: 48ae de3c 0f80 a43c cad5 38bc 38a8 37bb
00000140: 4ecf 923d 4a0d ffbc 2656 7bbd 4e04 ccbd
00000150: 8c99 12be d225 7f3d b518 0f3e 1593 52bd
00000160: 801b 5b3d efac fabd 288f 5ebd e65d 5e3d
00000170: 4ae8 81bd fc2b 4fbe cfed 4ebd b5f2 e3bb
00000180: dd71 38be f7a4 7abd 81b1 efba 28bc 07be
00000190: 4df1 a8bd 0ebf 55bd 9535 523d 04eb 22bd
000001a0: 71ca 523d 58a4 bc3c 12d6 993d 4ae8 e2bd
000001b0: 6266 84be 496c b53c 775b 90bd 50ca 02bd
000001c0: 78ca 0b3d e380 30be 262f 9e3a 2c6d 083d
000001d0: ede4 f4bc 93a9 9b3d 1510 36bd d8b4 b6bc
000001e0: c9bf 833c 4dc1 593d fa40 23bd 9633 ba3d
000001f0: 4f9d a93c 63bd 8bbd d494 94bd 12e2 a93d
00000200: 5a7c 25bd 87a2 77bd f484 b53d af50 1cbd
00000210: 469c f53c ce53 943d 1d17 d13d d9bf 43bd
00000220: d8a2 d13d edb7 0cbf 07fc ff3d b025 05be
00000230: a52b fcbd 4fef 563b d083 b93d 01ac df3d
00000240: 9205 69bc aa07 45bd 7c33 bbbc 6972 65bd
00000250: dc87 4cbd c09e 213c 7ea2 81bd ab6d b43c
00000260: fdee 953d b097 f63a 39b0 0abd 924a 6fbc
00000270: b826 80bd f3cd 26bd 6aaa a33c 2b11 54bc
00000280: d2c2 2f3d 2427 3abd 93c7 11bd 8645 81bd
00000290: ff19 dfbd 6fb6 1e3e 0da1 ed3c 20b7 51bd
000002a0: e0bf a63d 87a4 2ebd 4668 e0bd 7877 693d
000002b0: 5b79 b4bc 5233 5ebe 100b 4b3d 01db 46bd
000002c0: 513a 80be d153 983d e7f6 c13b 3878 783d
000002d0: 2309 50be 81a2 523c 1a7e b93d 3ad6 33bd
000002e0: 254d 933c fbc7 703c 91fe ab3c 567c db3c
000002f0: 52c5 843c c9f8 16be 4ab1 1a3e bbef 543d
00000300: 5cde 60bd f05e c8be ad1e fabc 0044 993d
00000310: 9b6c 4bba ac91 e6ba 3425 ddbc 72e2 c73c
00000320: 03cc 2a3d d8c8 86bd cd1d 953d db02 a83d
00000330: 4c63 923d 11d8 853d d38e 163d fa8b a33c
00000340: 8e48 853b 32e5 633c f2e8 4b3d 6d03 ec3d
00000350: 200f 1bbe ff99 0cbd fbbc 353d 5886 00bd
00000360: 65bd b93a 9e85 b5bd 1ad2 9e3d 93eb 91bd
00000370: d6e0 9e3d 1f2d c9bd 61d4 8e3c 07bc 30bd
00000380: 6d19 06bb 534e c9bc 1f09 653c 1d31 acbb
00000390: f3c7 d83c 9b4d dabb 2c35 663d e2c6 573d
000003a0: dbb3 6bbd 65d7 223d b805 913d 7651 fa3d
000003b0: 8070 a6bc b6e0 da3d 1596 09bd 6ea5 f0bc
000003c0: cd8d 60bd 5a4d 6fbe de78 b0bc 965a fa3d
000003d0: 5d32 45bd bd49 033d da6c b93d 53ae 52bd
000003e0: 2775 583d 3cd7 993c 8d29 06bd 5bb0 95bd
000003f0: 2924 853c 02bd 193d 4d87 06be 3f7e b53d

ll_fc2.bias f4 [128]
0.019522574 0.12932657 -0.06149456 0.008892638 0.016176965 -0.034969278 0.04647836 0.108785406
0.108112864 0.11040054 0.04273234 -0.06504155 0.117276385 -0.04904677 0.017823467 -0.042854495
0.045509957 -0.014175889 -0.015517231 -0.07762029 -0.009116385 -0.005578477 -0.05527444 -0.08189962
0.11659966 0.11747633 0.03961916 0.034279525 0.012693336 -0.016266221 -0.024742868 0.08581883
-0.007769142 -0.004542503 -0.024482235 0.10617373 -0.08409998 0.03279485 -0.05826917 0.023067763
0.051224753 -0.07478541 -0.016947638 -0.016422104 0.046539836 0.012586432 -0.027398057 -0.01531493
-0.10785939 0.043580078 0.09463467 -0.014295881 -0.0027901463 0.11212964 0.06361467 -0.058211215
-0.026614418 0.13567501 -0.05368205 0.016321538 -0.11916447 0.09022063 0.04760172 -0.03383398
-0.05942042 0.04716134 -0.014086599 0.01463752 -0.09238974 0.12252852 0.03558089 -0.014023974
0.002822343 0.017930385 -0.03656793 0.1151239 0.018742971 0.03204084 0.03256894 -0.05274251
0.040722728 0.13663808 -0.050439768 -0.02489392 0.025571262 0.0904302 -0.008578027 0.016391553
0.063541606 0.010549489 -0.08796073 -0.035505198 0.011253672 0.084820226 -0.11523852 0.08007141
0.024350718 0.06805516 -0.041250248 0.10520561 0.042482372 0.021177733 -0.0884268 -0.025975069
-0.06399138 0.07312038 -0.027895214 0.028310286 -0.09373733 0.10189586 0.005564393 -0.098050304
0.0005386238 -0.078546464 0.028304951 0.13036668 -0.021847423 -0.019509915 0.08973947 0.05117008
-0.0056011556 0.03423773 -0.09389935 -0.04245094 0.070997596 0.037058838 -0.033017702 -0.07002519
00000000: ceed 9f3c 2f6e 043e b8e1 7bbd 6db2 113c
00000010: 8e85 843c f23b 0fbd 1860 3e3d e2ca de3d
00000020: 476a dd3d ae19 e23d 1b08 2f3d 8134 85bd
00000030: 9a2e f03d 44e5 48bd 8502 923c 3288 2fbd
00000040: a668 3a3d fd41 68bc fc3b 7ebc 63f7 9ebd
00000050: e45c 15bc a8cb b6bb 7467 62bd fdba a7bd
00000060: cdcb ee3d 6e97 f03d b347 223d b068 0c3d
00000070: b6f7 4f3c bd40 85bc 8eb1 cabc c8c1 af3d
00000080: 4994 febb 47d9 94bb f88e c8bc 9d71 d93d
00000090: 9c3c acbd e553 063d a7ab 6ebd 9bf8 bc3c
000000a0: 0cd1 513d 1829 99bd c6d5 8abc a687 86bc
000000b0: 8ea0 3e3d 5237 4e3c e471 e0bc 79eb 7abc
000000c0: 62e5 dcbd 0681 323d d2cf c13d 4539 6abc
000000d0: e3da 36bb 3aa4 e53d 6848 823d e26e 6ebd
000000e0: 7b06 dabc 64ee 0a3e b6e1 5bbd bfb4 853c
000000f0: 800c f4bd 98c5 b83d 05fa 423d 8095 0abd
00000100: d462 73bd 402c 413d 7bcb 66bc 35d2 6f3c
00000110: d536 bdbd 3cf0 fa3d 44bd 113d cfc4 65bc
00000120: 0ff7 383b bee2 923c 41c8 15bd 14c6 eb3d
00000130: dc8a 993c 413d 033d 0267 053d 8808 58bd
00000140: e0cc 263d daea 0b3e ee99 4ebd 56ee cbbc
00000150: d37a d13c 7833 b93d da8a 0cbc 9447 863c
00000160: 1a22 823d c4d7 2c3c c124 b4bd e66d 11bd
00000170: 5261 383c 3ab6 ad3d 2c02 ecbd 7bfc a33d
00000180: 287b c73c 8160 8b3d 05f6 28bd 0a76 d73d
00000190: ff01 2e3d ed7c ad3c 1c19 b5bd abc9 d4bc
000001a0: ea0d 83bd 23c0 953d 8184 e4bc f9ea e73c
000001b0: 5bf9 bfbd c7ae d03d 8355 b63b 99ce c8bd
000001c0: 6e32 0d3a f8dc a0bd c9df e73c d87e 053e
000001d0: 5ef9 b2bc 42d3 9fbc 54c9 b73d b897 513d
000001e0: e689 b7bb dd3c 0c3d 4d4e c0bd 09e1 2dbd
000001f0: 3067 913d 02cb 173d 923d 07bd 5e69 8fbd

sl_fc3.weight f4 [256, 128]
0.081451 0.0053338343 0.0027919752 0.047196563 -0.0012142401 -0.06004793 -0.073088735 0.06293982
0.06870715 0.09077995 0.05049508 0.094027616 0.09695028 0.064077936 0.07742125 0.0076110647
0.07797875 -0.010233411 0.033027865 0.053565267 -0.081940964 0.09802151 0.015837615 -0.025127424
0.006486752 -0.01240282 0.030393563 -0.03041665 0.018858925 0.022911973 0.005549568 0.11397333
-0.08044762 -0.0099695 0.042472363 0.08203076 -0.0075099976 0.08689585 -0.11206862 -0.0615833
-0.01819848 0.047582857 0.0711597 0.05439845 0.13564381 -0.026056869 0.08291231 0.04179564
-0.009117332 0.016355533 0.011017929 -0.05335398 0.040006746 0.093431205 -0.061378993 -0.041954026
0.019774497 -0.047947966 0.101925634 0.011962004 0.021262897 0.06804533 0.087337725 -0.072779536
-0.01381843 -0.0036326114 -0.21279222 0.0807259 -0.07563019 0.053657405 -0.026822263 -0.06917408
0.008939791 -0.1002993 0.11065764 0.033857737 -0.0030614769 0.050722033 0.06542189 0.014557627
0.036635567 0.04742155 -0.03298509 0.12902926 0.1058691 0.008309735 0.101469204 0.06840468
-0.0174792 -0.0018661319 0.0024974192 -0.048662107 -0.013966635 0.05944448 -0.06817686 -0.02925581
-0.19689886 0.04434177 0.05971752 0.11216641 0.08617069 -0.04192011 0.0064033326 -0.025650337
0.020574527 -0.23705052 0.11484352 0.093707174 -0.71637166 0.0080785565 0.11757988 0.06384951
0.08118595 -0.45760632 -0.4840925 -0.029773526 -0.01684247 0.02387242 0.110757664 0.007200939
-0.073763214 0.0051357253 0.044156104 0.024331333 0.0149090905 -0.033587024 -0.033421967 0.09270808
-0.02067935 0.0073982663 0.059601557 -0.049682435 -0.07464493 -0.067639284 0.004094197 0.07928921
0.06813913 -0.008255466 0.007980002 0.008411776 0.084292725 -0.032347526 0.065387174 0.019192943
0.062767364 -0.081747934 -0.030479506 -0.04760371 -0.048739318 -0.031203512 0.0202824 0.08634401
0.09767617 -0.03458511 0.006765455 -0.021689588 -0.030709196 -0.030699406 0.02730311 -0.021813905
-0.047202334 0.011816406 0.09643128 0.023558578 0.19477363 -0.043677755 0.074366674 0.0085548675
0.08949711 -0.014422634 0.032053307 -0.079429306 0.006225702 -0.017165083 -0.015163723 0.05036991
-0.054527726 -0.01424942 -0.05904996 0.016033538 0.084347546 0.04929009 -0.050238438 0.033549502
0.04167683 0.07215262 0.074683726 0.087521166 0.09750902 -0.028326279 0.09310125 -0.042350326
-0.07168463 0.08416875 -0.30069134 0.032893457 0.08962646 -0.012997929 0.07500781 0.021050496
0.0025884104 0.002265556 -0.0041489443 0.012650911 -0.056703165 0.08692318 -0.0037612077 0.06925047
0.041788 0.022212096 0.075399876 0.062699065 0.07536736 0.029609255 0.08359787 -0.08076493
0.015553019 0.020285705 -0.06723915 -0.01619501 0.069525465 0.08938624 0.010498909 -0.019481283
-0.22591138 -0.08702487 -0.02842242 -2.9813804e-05 -0.047829166 0.012559405 -0.060828727 0.0019402677
0.054608453 -0.037606567 0.069714695 -0.037624404 -0.39205977 0.11147496 -0.002883204 0.0906268
0.07491948 -0.1168755 -0.1346664 0.050106347 0.012506776 0.028765164 0.037608854 0.12971008
0.019348253 0.049281858 -0.011848892 -0.029016228 0.11286968 0.0072506694 0.06822348 -0.040201105
00000000: c8cf a63d 72c7 ae3b 92f9 363b 2f51 413d
00000010: 2327 9fba d1f4 75bd 8caf 95bd 98e6 803d
00000020: 56b6 8c3d d7ea b93d eed3 4e3d 8d91 c03d
00000030: de8d c63d 4b3b 833d 088f 9e3d 3d66 f93b
00000040: 53b3 9f3d 09aa 27bc 3a48 073d 4167 5b3d
00000050: aad0 a7bd 80bf c83d e3bd 813c 07d8 cdbc
00000060: d28e d43b 3335 4bbc ecfb f83c 572c f9bc
00000070: 087e 9a3c e4b1 bb3c 27d9 b53b d96a e93d
00000080: b9c1 a4bd 1d57 23bc 80f7 2d3d beff a73d
00000090: 6d16 f6bb 74f6 b13d 3c84 e5bd c53e 7cbd
000000a0: fb14 95bc 3ee6 423d 2dbc 913d e9d0 5e3d
000000b0: 36e6 0a3e 3775 d5bc eecd a93d e831 2b3d
000000c0: dd60 15bc 0afc 853c 8b84 343c b489 5abd
000000d0: 1dde 233d dc58 bf3d 8a68 7bbd fcd7 2bbd
000000e0: 20fe a13c 1665 44bd 63be d03d 48fc 433c
000000f0: 872f ae3c 5a5b 8b3d 1fde b23d 700d 95bd
00000100: b266 62bc 1b11 6ebb 34e6 59be 9f53 a53d
00000110: 00e4 9abd dec7 5b3d 5dba dbbc 24ab 8dbd
00000120: 3378 123c b869 cdbd 79a0 e23d 69ae 0a3d
00000130: 0fa3 48bb e8c1 4f3d e9fb 853d 1d83 6e3c
00000140: 2d0f 163d 193d 423d 601b 07bd 3f20 043e
00000150: e6d1 d83d 8e25 083c 16cf cf3d c117 8c3d
00000160: 8a30 8fbc ff98 f4ba beab 233b eb51 47bd
00000170: 50d4 64bc 0e7c 733d 4fa0 8bbd e1a9 efbc
00000180: db9f 49be b79f 353d 5c9a 743d 81b7 e53d
00000190: 427a b03d 6cb4 2bbd 0cd3 d13b a820 d2bc
000001a0: e98b a83c 5fbd 72be 1433 eb3d 8ce9 bf3d
000001b0: 2264 37bf ec5b 043c b8cd f03d 88c3 823d
000001c0: d244 a63d 604b eabe f9da f7be 9ce7 f3bc
000001d0: 38f9 89bc 1890 c33c ead4 e23d dbf5 eb3b
000001e0: 2b11 97bd 9649 a83b 08dd 343d 8152 c73c
000001f0: 4245 743c 8c92 09bd 79e5 08bd bcdd bd3d
00000200: bd67 a9bc 286d f23b c320 743d cf7f 4bbd
00000210: 71df 98bd 7786 8abd 9d28 863b 6262 a23d
00000220: 878c 8b3d ef41 07bc 8ebe 023c 8cd1 093c
00000230: aaa1 ac3d d77e 04bd b6e9 853d 853a 9d3c
00000240: 2d8c 803d 766b a7bd 28b0 f9bc 1cfc 42bd
00000250: e1a2 47bd 829e ffbc 4727 a63c 21d5 b03d
00000260: 720a c83d 1ea9 0dbd c0b0 dd3b 5dae b1bc
00000270: da91 fbbc 527d fbbc c6aa df3c 13b3 b2bc
00000280: 3c57 41bd 9999 413c c37d c53d ebfd c03c
00000290: bd72 473e 72e7 32bd 8e4d 983d b729 0c3c
000002a0: 434a b73d e94c 6cbc 544a 033d d5ab a2bd
000002b0: f900 cc3b ca9d 8cbc 4471 78bc ae50 4e3d
000002c0: 7758 5fbd 6676 69bc 5fde 71bd c458 833c
000002d0: 68be ac3d 68e4 493d d2c6 4dbd 346b 093d
000002e0: 53b5 2a3d c1c4 933d c8f3 983d 4c3e b33d
000002f0: cfb2 c73d 830c e8bc deab be3d 8977 2dbd
00000300: 64cf 92bd aa60 ac3d 37f4 99be 4abb 063d
00000310: 148e b73d 44f5 54bc b29d 993d 1772 ac3c
00000320: 52a2 293b b979 143b def3 87bb c445 4f3c
00000330: 9441 68bd c804 b23d 987e 76bb 31d3 8d3d
00000340: e529 2b3d 24f6 b53c 406b 9a3d 5e68 803d
00000350: 345a 9a3d 1c8f f23c 5c35 ab3d 1568 a5bd
00000360: 17d2 7e3c 352e a63c aeb4 89bd 66ab 84bc
00000370: 5e63 8e3d 2210 b73d 9e03 2c3c 3697 9fbc
00000380: 5055 67be 183a b2bd 23d6 e8bc a818 fab7
00000390: 84e8 43bd f6c5 4d3c 8b27 79bd 9550 fe3a
000003a0: 1dad 5f3d 5809 1abd 94c6 8e3d 0c1c 1abd
000003b0: 0fbc c8be fc4c e43d 23f4 3cbb 8b9a b93d
000003c0: 626f 993d 6c5c efbd fde5 09be 503c 4d3d
000003d0: 38e9 4c3c eca4 eb3c be0b 1a3d b8d2 043e
000003e0: 3a80 9e3c c6db 493d db21 42bc 71b3 edbc
000003f0: 3828 e73d 0697 ed3b c0b8 8b3d eaa9 24bd

sl_fc3.bias f4 [256]
0.09575885 0.022667486 0.03824679 -0.04461722 0.12094503 0.11924336 -0.02230424 0.027306624
-0.05144695 0.02584021 -0.10522536 0.11908462 0.044154488 0.106822535 0.12523891 0.060014453
0.1378267 -0.0047597345 0.0958222 0.0018869565 0.026869688 0.005233142 -0.07772882 -0.112588115
-0.052945863 0.011320181 -0.06537088 -0.00038843902 0.0065645855 0.12789802 -0.0020815677 -0.045585785
-0.08112894 0.04795574 0.01667985 0.13473204 -0.02941882 -0.018747168 -0.02279865 0.07079954
-0.09970955 -0.0145036 0.12659708 0.07823817 0.045272283 0.0402365 0.046349697 0.0455466
0.020760054 0.088619515 -0.08585049 0.0954188 -0.04379962 -0.07737272 0.029321752 -0.03789494
-0.074546844 -0.046644397 0.08649859 -0.098252036 0.124162465 -0.08240754 0.052152753 0.08298261
0.043311443 -0.02329383 0.031353272 0.092241205 0.0682848 0.06521589 -0.09832385 0.07300382
0.046141062 0.008930257 -0.007264417 -0.02629231 -0.052307416 -0.065413244 0.037566435 0.031255696
0.07068303 0.1299667 0.14467117 0.063668 -0.056719996 -0.06929513 -0.0941409 -0.022259437
-0.07957792 0.05038056 0.07617652 0.07688108 0.04417752 0.025619863 -0.02059435 0.03808224
0.012688293 0.024532145 -0.06332704 -0.009363304 0.015064155 0.14274195 -0.013531532 0.00789976
0.008592857 -0.00054217014 0.13657108 -0.091285385 -0.06930941 0.015942732 0.10303623 -0.02257012
0.000888141 0.015455501 -0.040978715 0.026000252 0.03307991 0.06133104 -0.07711196 -0.08534238
0.054902177 0.08257124 0.007852295 0.10438511 0.037438367 0.03446483 0.042443134 -0.02641238
-0.06797646 -0.026921405 -0.08203103 0.11993391 0.02826288 0.060308564 0.104048714 0.03777912
-0.08664592 0.103605784 0.0039809598 -0.031508636 0.05422981 0.05042809 0.10860878 -0.010555091
-0.005773855 0.01924679 0.11916555 -0.053776115 -0.02340009 -0.04143699 0.0010601353 0.082022846
0.0094315 -0.021946039 0.0059343767 0.064279005 0.016061943 -0.08659121 -0.018906005 0.067242384
0.08850492 0.017198067 -0.05201398 0.058237333 -0.025124649 0.056028564 0.051324178 -0.021469355
0.07400686 0.01735181 -0.07472321 0.040034212 0.04322989 0.14063314 -0.055304565 -0.013100341
0.05335262 0.13720968 0.0653858 -0.012174111 0.116616644 -0.058256015 0.12025203 0.02054173
-0.031369902 -0.091164015 0.06616858 0.09704185 -0.048704185 -0.060870104 -0.09111871 -0.027507765
-0.018391263 0.016114863 -0.015648872 0.035786986 -0.026597816 -0.02453185 -0.025426507 -0.016279534
0.10877256 0.082047805 0.012602313 0.052514426 0.014878851 -0.064477414 -0.043706454 0.011597237
-0.09524429 0.08903462 -0.015753206 -0.04988998 -0.08776439 0.10985006 0.045538396 0.0050991955
0.07220041 0.012330732 0.13823244 0.13102289 0.027598545 0.01320172 0.011956371 0.019899981
-0.03505877 -0.010074443 0.012160434 0.0011281619 0.048882023 -0.016251456 0.121160135 0.04720709
0.11566499 0.03762771 0.12888381 -0.02922827 -0.0031689752 -0.036670655 -0.05755234 -0.06760694
0.031347636 0.026077759 -0.08205429 -0.009208146 -0.009628313 0.107192494 -0.047246657 -0.025811737
-0.053779207 0.049205463 0.053565875 0.039682746 0.1139193 -0.00546787 0.058485672 -0.06803089
00000000: 371d c43d 2ab1 b93c aba8 1c3d 8cc0 36bd
00000010: 07b2 f73d dd35 f43d 62b7 b6bc 24b2 df3c
00000020: 09ba 52bd d9ae d33c 6580 d7bd a3e2 f33d
00000030: 56db 343d c6c5 da3d a13e 003e b7d1 753d
00000040: 7122 0d3e 8cf7 9bbb 6e3e c43d c153 f73a
00000050: d21d dc3c c77a ab3b 4a30 9fbd 9994 e6bd
00000060: c3dd 58bd 4878 393c 2be1 85bd 67a7 cbb9
00000070: bc1b d73b b3f7 023e e96a 08bb 29b8 3abd
00000080: ee26 a6bd 3d6d 443d 2ea4 883c 32f7 093e
00000090: bdff f0bc a993 99bc 3cc4 babc 59ff 903d
000000a0: 8534 ccbd 82a0 6dbc aaa2 013e 553b a03d
000000b0: 6e6f 393d 07cf 243d 2ed9 3d3d 128f 3a3d
000000c0: fd10 aa3c 267e b53d 62d2 afbd ef6a c33d
000000d0: 3b67 33bd 9775 9ebd 2c34 f03c b937 1bbd
000000e0: 04ac 98bd 320e 3fbd 2c26 b13d 5d38 c9bd
000000f0: e448 fe3d 49c5 a8bd 209e 553d c9f2 a93d
00000100: 5767 313d b4d2 bebc 4a6c 003d f5e8 bc3d
00000110: e7d8 8b3d e98f 853d 045e c9bd 0783 953d
00000120: 69fe 3c3d 3650 123c 590a eebb f862 d7bc
00000130: 4d40 56bd 61f7 85bd 43df 193d f905 003d
00000140: 44c2 903d fe15 053e ae24 143e 5e64 823d
00000150: 3a53 68bd 9bea 8dbd f2cc c0bd 6c59 b6bc
00000160: c0f9 a2bd d95b 4e3d 6f02 9c3d d473 9d3d
00000170: 7df3 343d bfe0 d13c 7bb5 a8bc 1ffc 1b3d
00000180: 8fe2 4f3c a3f7 c83c 9bb1 81bd 8b68 19bc
00000190: a5cf 763c f22a 123e 5cb3 5dbc ff6d 013c
000001a0: 0ec9 0c3c 6c20 0eba 4ad9 0b3e d5f3 babd
000001b0: 18f2 8dbd 559a 823c a904 d33d f9e4 b8bc
000001c0: 22d2 683a 1239 7d3c 4cd9 27bd 7bfe d43c
000001d0: cd7e 073d 4236 7b3d e0ec 9dbd fcc7 aebd
000001e0: 1be1 603d 1c1b a93d eaa6 003c dcc7 d53d
000001f0: f958 193d fe2a 0d3d dad8 2d3d c75e d8bc
00000200: 3e37 8bbd 478a dcbc e2ff a7bd e99f f53d
00000210: 8e87 e73c 1d06 773d 7e17 d53d 47be 1a3d
00000220: 6b73 b1bd 452f d43d b672 823b 330f 01bd
00000230: 1420 5e3d af8d 4e3d 486e de3d 43ef 2cbc
00000240: 9b32 bdbb 72ab 9d3c 110d f43d 5844 5cbd
00000250: 8cb1 bfbc d5b9 29bd 3df4 8a3a 98fb a73d
00000260: 9486 1a3c 2ec8 b3bc 2975 c23b b6a4 833d
00000270: 5694 833c bb56 b1bd c4e0 9abc 60b6 893d
00000280: 1142 b53d f6e2 8c3c 9c0c 55bd 458a 6e3d
00000290: 35d2 cdbc 357e 653d 4d39 523d 80e0 afbc
000002a0: e990 973d 6225 8e3c 7b08 99bd eafa 233d
000002b0: d311 313d 2202 103e 0a87 62bd d0a2 56bc
000002c0: 4788 5a3d b280 0c3e fee8 853d ec75 47bc
000002d0: b5d4 ee3d dc9d 6ebd b246 f63d 2147 a83c
000002e0: ba7d 00bd 33b4 babd 6483 873d e1bd c63d
000002f0: 0a7e 47bd ee52 79bd 729c babd f757 e1bc
00000300: 46a9 96bc 5103 843c 1032 80bc 6095 123d
00000310: aae3 d9bc 05f7 c8bc 404b d0bc a85c 85bc
00000320: 26c4 de3d ae08 a83d ef79 4e3c 5e19 573d
00000330: 6dc6 733c bc0c 84bd 8a05 33bd 5602 3e3c
00000340: 700f c3bd c857 b63d de0c 81bc 7059 4cbd
00000350: d1bd b3bd 11f9 e03d 7886 3a3d 2717 a73b
00000360: cfdd 933d d706 4a3c ce8c 0d3e dd2a 063e
00000370: 5816 e23c 074c 583c a8e4 433c 4905 a33c
00000380: c999 0fbd 470f 25bc 8f3c 473c d5de 933a
00000390: 8438 483d c621 85bc ce22 f83d 395c 413d
000003a0: c4e1 ec3d 831f 1a3d 1efa 033e 2070 efbc
000003b0: 95ae 4fbb f833 16bd 01bc 6bbd 8275 8abd
000003c0: 6166 003d 06a1 d53c 140c a8bd c3dd 16bc
000003d0: 12c0 1dbc bd87 db3d b685 41bd 2373 d3bc
000003e0: 9647 5cbd ab8b 493d e467 5b3d 608a 223d
000003f0: 864e e93d d12b b3bb ac8e 6f3d c753 8bbd

sl_fc_v.weight f4 [1, 256]
0.15011916 0.07380759 -0.030207794 0.016030282 0.050862487 0.080579326 0.0016292766 -0.04419972
0.035396647 -0.008233861 0.018230816 0.13305533 0.08888522 0.10994707 0.032281708 0.0057793073
0.061845675 -0.02609884 -0.15927567 -0.019879721 -0.1964186 -0.033750203 -0.040968437 -0.08304256
-0.049224548 -0.0141931195 0.46569973 0.09025013 -0.012831203 -0.113361076 -0.045331743 -0.029572906
-0.007605791 0.1417233 0.05390318 0.06579277 -0.017839657 -0.039926127 -0.3158971 0.056554396
-0.029966792 0.00519648 0.13638759 0.04866145 0.07145257 0.13306466 -0.04002301 0.10544498
-0.019580312 -0.036710665 -0.043483067 0.093967 0.006357134 -0.04413311 0.048466712 -0.41751957
-0.05724398 -0.016029617 0.09232517 -0.022896407 0.07044347 -0.0157963 0.019082315 0.07096128
-0.023241054 -0.0068701375 -0.0013656804 0.09277178 0.050237827 -0.024929909 -0.0049105496 0.040383346
-0.005856463 0.068611 -0.00039413173 0.06976324 -0.038474545 -0.026647951 0.056601264 0.08035202
0.06533898 0.027460812 0.08252177 -0.04531487 -0.046383485 -0.17470914 0.02416386 -0.021047529
0.0006029887 0.11100022 -0.011726186 0.07223486 0.100502305 0.0030471685 -0.0055768345 -0.013697082
0.03730826 -0.030067695 -0.01621541 0.08131249 0.020893972 0.07865997 -0.013178305 0.050048552
0.0019392788 0.06727694 0.051219124 -0.023038171 0.013332074 -0.04462123 0.06268147 -0.052546673
0.034558237 -0.027090715 0.0020305738 -0.05443296 0.08481374 -0.00992132 -0.019495357 -0.0061750496
0.03762125 0.0025789903 -0.06410845 0.09873482 0.06466661 -0.016642684 0.07402692 -0.01317453
0.047424227 -0.025037251 -0.025200635 0.07311387 0.085031874 0.06937465 0.12120936 0.06484982
-0.036867384 0.04939215 -0.04460933 -0.038750228 -0.0047141784 -0.028925559 0.07211277 0.0039571454
0.017300256 -0.039211284 0.023052605 -0.032898508 -0.027878601 -0.032071546 0.85561115 0.11649388
-0.07637676 0.0345473 -0.31321576 -0.023984171 -0.011029057 0.026873093 -0.04172774 0.090192676
0.062160846 -0.019865107 -0.0073116473 0.08477167 0.039451662 -0.040899668 -0.0050513414 0.045382436
-0.10926647 -0.0544499 -0.042552635 0.080503225 0.045005433 0.059955165 -0.0043334747 -0.023062842
0.06799656 0.099707976 0.063109554 0.002305602 0.083987705 0.0055123046 0.07406673 -0.023981342
-0.043381978 -0.0070127267 -0.00059041166 0.07959601 -0.20566148 -0.03627869 -0.04033942 0.008672645
-0.02106415 -0.014442981 -0.058256052 -0.005408428 0.07463995 -0.37622026 -0.004770414 -0.039457273
0.08856402 0.07386332 -0.041928362 0.003060769 -0.0352699 0.019695558 0.0014309213 0.14842223
-0.030932864 0.062897906 -0.03649681 -0.3401677 0.05248681 0.087428935 0.07157085 -0.04096458
-0.31322187 -0.023140244 0.10194807 0.088630825 0.09118659 -0.042218402 0.07691073 -0.03305947
-0.039636753 0.005161322 -0.021354597 0.082287855 0.060118735 0.039640754 0.072063066 -0.04395996
0.07216763 0.14364547 0.038302623 -0.075735494 0.03787785 -0.11427866 0.027592117 -0.0024854152
0.06871755 -0.006419764 0.0072112083 -0.038323298 -0.02432147 0.04815281 -0.008522335 -0.017157959
0.039468456 -0.0036104643 0.016831376 -0.0862501 0.15040784 0.34492373 0.025036128 0.028517973
00000000: d6b8 193e 6f28 973d 5676 f7bc f051 833c
00000010: 2f55 503d c606 a53d 738d d53a c40a 35bd
00000020: 13fc 103d 51e7 06bc cb58 953c a83f 083e
00000030: 7409 b63d ee2b e13d d339 043d 5860 bd3b
00000040: e451 7d3d 3ccd d5bc 2919 23be ccda a2bc
00000050: f521 49be a73d 0abd 85ce 27bd 3812 aabd
00000060: ae9f 49bd 428a 68bc 3270 ee3e 0fd5 b83d
00000070: f739 52bc da29 e8bd c7ad 39bd e142 f2bc
00000080: 003a f9bb ea1f 113e 95c9 5c3d 5cbe 863d
00000090: 7924 92bc 9489 23bd 44bd a1be 95a5 673d
000000a0: eb7c f5bc 3c47 aa3b 30a9 0b3e 3b51 473d
000000b0: ba55 923d 1a42 083e 2bef 23bd 8af3 d73d
000000c0: e466 a0bc ec5d 16bd 4d1b 32bd c571 c03d
000000d0: 814f d03b ecc4 34bd 0885 463d 20c5 d5be
000000e0: aa78 6abd 8b50 83bc fb14 bd3d 3f91 bbbc
000000f0: aa44 903d 3e67 81bc 8452 9c3c 2654 913d
00000100: 0664 bebc e41e e1bb a100 b3ba 22ff bd3d
00000110: 2ec6 4d3d cf39 ccbc ade8 a0bb 0269 253d
00000120: 93e7 bfbb ed83 8c3d 77a3 ceb9 08e0 8e3d
00000130: 7c97 1dbd ce4c dabc bad6 673d 9a8f a43d
00000140: 71d0 853d 7ff5 e03c 2c01 a93d 169c 39bd
00000150: 9cfc 3dbd f4e6 32be 4af3 c53c de6b acbc
00000160: e311 1e3a 1554 e33d 301f 40bc dfef 933d
00000170: 27d4 cd3d 01b3 473b e1bd b6bb ba69 60bc
00000180: 8cd0 183d 8750 f6bc 2ed6 84bc 2a87 a63d
00000190: d629 ab3c 7a18 a13d d1e9 57bc b6ff 4c3d
000001a0: 662f fe3a 7ec8 893d 25cb 513d 8cba bcbc
000001b0: c56e 5a3c c0c4 36bd 245f 803d 2e3b 57bd
000001c0: f08c 0d3d 59ed ddbc 6013 053b 18f5 5ebd
000001d0: d3b2 ad3d 088d 22bc bab4 9fbc 1258 cabb
000001e0: bd18 1a3d 4704 293b 4b4b 83bd 7b35 ca3d
000001f0: ed6f 843d 3d56 88bc 6d9b 973d fcd9 57bc
00000200: e83f 423d ec1a cdbc 9071 cebc babc 953d
00000210: 3125 ae3d 4c14 8e3d 9d3c f83d fccf 843d
00000220: 4102 17bd 6c4f 4a3d 46b8 36bd 8fb8 1ebd
00000230: 6579 9abb 4bf5 ecbc dcaf 933d f1aa 813b
00000240: 44b9 8d3c 039c 20bd d1d8 bc3c 96c0 06bd
00000250: aa61 e4bc 745d 03bd 5509 5b3f 5894 ee3d
00000260: 6b6b 9cbd 7881 0d3d d15d a0be 747a c4bc
00000270: 38b3 34bc f624 dc3c b5ea 2abd f0b6 b83d
00000280: 5f9c 7e3d 26bc a2bc 8b96 efbb c59c ad3d
00000290: 1198 213d 6986 27bd b985 a5bb efe2 393d
000002a0: 19c7 dfbd dc06 5fbd ac4b 2ebd e0de a43d
000002b0: 9e57 383d 8c93 753d d2ff 8dbb 49ee bcbc
000002c0: c841 8b3d b233 cc3d 953f 813d 9519 173b
000002d0: bf01 ac3d 90a0 b43b 4cb0 973d 8574 c4bc
000002e0: 4db1 31bd 04cb e5bb dbc5 1aba 3c03 a33d
000002f0: ec98 52be f798 14bd f33a 25bd b617 0e3c
00000300: b98e acbc 41a2 6cbc e69d 6ebd 2f39 b1bb
00000310: d5dc 983d f19f c0be 2251 9cbb f39d 21bd
00000320: 0e61 b53d a745 973d 13bd 2bbd 2f97 483b
00000330: 2c77 10bd 9458 a13c c08d bb3a fffb 173e
00000340: eb66 fdbc 9ed0 803d ae7d 15bd 762a aebe
00000350: 69fc 563d f10d b33d bd93 923d 7aca 27bd
00000360: 9e5e a0be 9c90 bdbc 26ca d03d 1484 b53d
00000370: 09c0 ba3d 34ed 2cbd 5f83 9d3d 5e69 07bd
00000380: 265a 22bd 4f20 a93b d6ef aebc 8986 a83d
00000390: 103f 763d 585e 223d cd95 933d 5c0f 34bd
000003a0: 9fcc 933d cc17 133e 36e3 1c3d 361b 9bbd
000003b0: ce25 1b3d ee0a eabd dd08 e23c 59e2 22bb
000003c0: c9bb 8c3d e25c d2bb 004c ec3b e4f8 1cbd
000003d0: d23d c7bc e23b 453d 44a1 0bbc d98e 8cbc
000003e0: ada9 213d 8a9d 6cbb f4e1 893c e4a3 b0bd
000003f0: 8304 1a3e d899 b03e 9118 cd3c 869e e93c

sl_fc_a.weight f4 [2, 256]
-0.0054157614 0.0032924672 -0.04013583 -0.008071293 -0.11679447 -0.017733138 0.034922563 -0.023951113
0.02485971 -0.04898069 -0.021554274 0.055636726 -0.0024116822 -0.08082652 0.11667612 0.19074799
-0.053322848 0.035569966 -0.1952147 0.048116714 -0.20086156 -0.04042955 -0.0036081825 0.12695323
0.04610964 0.040892787 -0.27243334 0.027862975 -0.004517027 0.2903904 -0.4466702 -0.032008085
0.061531343 0.017201107 -0.076535754 0.075871155 -0.025333935 0.02866842 -0.18846594 0.053095873
-0.015446498 0.038507 0.05183713 -0.015880916 -0.045185126 -0.029228758 -0.043672707 0.009539752
0.015490029 -0.19643295 0.020886978 0.0358325 -0.03187412 0.050616346 -0.058765966 0.30091652
0.013895108 0.09385885 0.052014243 0.025484972 -0.02387551 -0.022272168 -0.05298473 -0.081698254
-0.04250417 0.05740708 -0.04526246 0.03742018 -0.06593593 0.03571876 0.0063435105 0.010541461
-0.005475304 -0.024967944 0.051650457 -0.019630272 0.009119837 0.07032612 0.009765718 -0.048717033
0.010093429 -0.007915484 -0.02458318 0.36030272 0.02719139 -0.19840303 -0.033622447 -0.06413717
-0.06155106 0.05297515 0.05205791 -0.06763908 0.009093799 -0.091935486 0.016497122 0.05801494
0.03148891 0.0042121876 0.018619826 -0.02251986 -0.057038497 -0.014346013 -0.04027559 0.01062331
-0.057250816 0.0015423539 0.05394832 0.05194505 -0.038798742 0.03398968 0.028941687 -0.08346301
-0.07029231 -0.002897231 0.0043497756 0.031335734 0.0014143225 0.028007377 -0.028690498 -0.030799242
0.031987 0.016654067 0.047959555 -0.07713527 -0.060728714 -0.028669955 -0.08279567 -0.052834317
0.021150574 0.002880238 -0.01840728 -0.086793296 0.009512959 0.009586725 -0.0028160198 -0.06519037
-0.01580226 0.008436261 0.024869235 -0.025113901 0.14541556 0.055515286 0.001604255 0.018047782
-0.021323562 -0.0285617 -0.06993304 0.24830706 0.01722575 -0.06600109 -0.31652397 0.015465647
-0.09902152 0.017403722 0.25280508 -0.037558805 -0.034742482 0.0074511208 0.03647972 -0.054107293
0.055394724 0.02337304 0.038784444 -0.059936535 0.007972879 0.044872947 0.040894058 0.056406677
-0.2071522 -0.052215274 -0.0078538405 -0.094611526 0.122326516 -0.0393677 0.028612385 0.03725616
-0.011696797 0.005880316 -0.08099718 0.013209383 0.0039591063 0.009473629 0.018574806 0.020211002
0.06262432 0.0074469447 0.03656683 -0.06509437 0.1682197 -0.1786892 0.04094516 0.026959196
0.04322206 0.05099132 0.03775142 -0.024584956 -0.0667138 0.24996953 -0.05444745 0.026788421
-0.02306041 -0.034406252 -0.051052395 0.017230663 -0.0032996598 -0.018602498 0.0340114 -0.024219364
0.0083603235 -0.06960597 0.05172125 0.20268911 -0.027631791 0.012652945 -0.03008868 0.052922834
-0.2181572 -0.005229981 0.042155333 0.034430142 -0.0012967114 0.055799123 -0.047270544 -0.058546998
-0.014504768 -0.048273712 0.0033447414 -0.008647934 0.04056626 0.008817688 0.007747137 0.017392034
0.047312718 -0.011962666 -0.008335402 0.0011038507 0.01641937 -0.26320997 0.007197551 -0.038973246
0.02374814 -0.0387834 0.017933939 0.044649027 0.019863943 -0.013855064 0.0081270365 0.050231982
0.07014208 -0.016884778 -0.040555812 -0.13486826 0.014777969 -0.4299614 -0.00805827 0.029968832
00000000: b376 b1bb 6fc6 573b 7865 24bd 753d 04bc
00000010: f031 efbd 1645 91bc f60a 0f3d 2035 c4bc
00000020: 97a6 cb3c fa9f 48bd 9792 b0bc 56e3 633d
00000030: 500d 1ebb 6088 a5bd e4f3 ee3d 7153 433e
00000040: 0f69 5abd d0b1 113d 5de6 47be 0816 453d
00000050: a7ae 4dbe 7599 25bd 4277 6cbb 0700 023e
00000060: 76dd 3c3d 327f 273d 627c 8bbe e540 e43c
00000070: 9203 94bb 0dae 943e f5b1 e4be e91a 03bd
00000080: 4a08 7c3d 56e9 8c3c c7be 9cbd 5662 9b3d
00000090: 1d89 cfbc 09da ea3c 37fd 40be 0f7b 593d
000000a0: 4f13 7dbc 84b9 1d3d 2c53 543d b218 82bc
000000b0: 0a14 39bd 2671 efbc 27e2 32bd 9f4c 1c3c
000000c0: e4c9 7d3c b825 49be 2b1b ab3c 19c5 123d
000000d0: 708e 02bd 1653 4f3d 95b4 70bd bb11 9a3e
000000e0: 4fa8 633c 1239 c03d e30c 553d dcc5 d03c
000000f0: 9396 c3bc 1f74 b6bc 8406 59bd 6a51 a7bd
00000100: da18 2ebd b023 6b3d 2165 39bd e745 193d
00000110: 6b09 87bd d64d 123d 39dd cf3b 18b6 2c3c
00000120: 2e6a b3bb 9389 ccbc 6e8f 533d aacf a0bc
00000130: 5e6b 153c 2407 903d 6400 203c 838b 47bd
00000140: e95e 253c f2af 01bc aa62 c9bc 9979 b83e
00000150: 7ac0 de3c 2a2a 4bbe b1b7 09bd 595a 83bd
00000160: f71c 7cbd 79fc 583d ad3a 553d 5c86 8abd
00000170: 28fe 143c ac48 bcbd f924 873c 13a1 6d3d
00000180: 84fa 003d 6406 8a3b 9b88 983c 927b b8bc
00000190: 33a1 69bd 8a0b 6bbc 04f8 24bd 640d 2e3c
000001a0: d57f 6abd cf28 ca3a eaf8 5c3d 55c4 543d
000001b0: 6eeb 1ebd c338 0b3d 1e17 ed3c a8ee aabd
000001c0: 6af5 8fbd 78df 3dbb 9088 8e3b e659 003d
000001d0: ca60 b93a ba6f e53c 5608 ebbc b14e fcbc
000001e0: cd04 033d 1c6e 883c 3d71 443d 19f9 9dbd
000001f0: acbe 78bd 41dd eabc c790 a9bd cc68 58bd
00000200: f843 ad3c 60c2 3c3b ddca 96bc afc0 b1bd
00000210: 3edc 1b3c a411 1d3c f98c 38bb 8782 85bd
00000220: be73 81bc 3e38 0a3c 91ba cb3c abbb cdbc
00000230: d1e7 143e ff63 633d de45 d23a f1d8 933c
00000240: c0ae aebc 3afa e9bc 0e39 8fbd 3544 7e3e
00000250: 041d 8d3c 942b 87bd 6e0f a2be a063 7d3c
00000260: cbcb cabd 4092 8e3c ab6f 813e 43d7 19bd
00000270: 224e 0ebd 8828 f43b c26b 153d 9c9f 5dbd
00000280: 94e5 623d d178 bf3c 70dc 1e3d 0380 75bd
00000290: aea0 023c b2cc 373d 8780 273d b00a 673d
000002a0: b51f 54be afdf 55bd 65ad 00bc b0c3 c1bd
000002b0: 5386 fa3d 0740 21bd 8564 ea3c ea99 183d
000002c0: eca3 3fbc aaaf c03b d9e1 a5bd 2b6c 583c
000002d0: 64bb 813b 4837 1b3c 312a 983c 8b91 a53c
000002e0: 2e41 803d 8005 f43b 1ac7 153d 3250 85bd
000002f0: c941 2c3e 4dfa 36be 1db6 273d 88d9 dc3c
00000300: 9d09 313d 46dc 503d 3ca1 1a3d 6466 c9bc
00000310: 3fa1 88bd 03f8 7f3e 4a04 5fbd 6473 db3c
00000320: 2fe9 bcbc 92ed 0cbd 511c 51bd 5227 8d3c
00000330: 1b3f 58bb 4464 98bc 8a4f 0b3d b067 c6bc
00000340: bdf9 083c 938d 8ebd a9d9 533d bc8d 4f3e
00000350: 115c e2bc 4c4e 4f3c 897c f6bc 9dc5 583d
00000360: 9a64 5fbe 4360 abbb 12ab 2c3d 9f06 0d3d
00000370: 6af6 a9ba 9f8d 643d c29e 41bd face 6fbd
00000380: 68a5 6dbc a8ba 45bd 7333 5b3b 10b0 0dbc
00000390: cf28 263d 1078 103c b2db fd3b bd79 8e3c
000003a0: fbca 413d 0fff 43bc 3691 08bc 15af 903a
000003b0: ea81 863c 75c3 86be 6fd9 eb3b 69a2 1fbd
000003c0: 768b c23c 58db 1ebd 32ea 923c e6e1 363d
000003d0: b5b9 a23c 5a00 63bc 4327 053c 0dc0 4d3d
000003e0: a7a6 8f3d f251 8abc da1d 26bd e81a 0abe
000003f0: 4b1f 723c e723 dcbe d606 04bc 3281 f53c

sl_fc_a.bias f4 [2]
0.020001581 -0.06822701
00000000: 5bda a33c 9aba 8bbd
