models/cartpole_ddqn.pth (torch, 207564 bytes, 9 tensors)

ll_fc1.weight f4 [128, 4]
-0.037202388 0.15056959 -0.7323811 -0.27663904 -0.10787787 0.2546253 0.47725242 0.37146726
-0.08806007 0.11008145 -0.1658279 -0.15587977 -0.477849 -0.30162388 0.10678819 -0.045718655
0.17777476 0.17356086 -0.6009196 -0.16476773 0.12905763 0.41113463 -0.26090908 0.34190643
-0.059938435 -0.07320487 0.87724215 -0.38334 -0.2160473 0.002344867 -0.54642415 0.36833048
-0.45064938 -0.03778174 -0.22675316 -0.47658566 -0.39371273 0.38721514 0.74644125 0.27442768
-0.017445276 -0.1412587 0.16474186 -0.55363196 -0.4470656 -0.23221692 0.65756124 0.2767331
-0.16150002 0.05295903 0.6271586 0.43370444 0.24338779 -0.043075707 0.11223782 -0.16365743
0.12975535 -0.31678393 -0.6467918 -0.2511205 0.26794267 0.19062898 -0.6603881 0.11676694
0.19777314 -0.042227898 -0.389057 0.098267235 0.36637154 0.4309714 -0.27118388 -0.06477976
0.08360643 0.401699 0.56550235 0.4538703 -0.036730327 -0.43370548 -0.23131934 -0.3239077
-0.41498813 0.3602172 0.15288213 -0.44777235 0.21111529 -0.033713616 -0.25978127 -0.26382473
0.14872678 -0.29129574 0.4813088 0.23831269 0.36313745 0.1188642 -0.77549404 -0.30944404
0.26501182 -0.015982509 -0.7254708 -0.21215647 0.58304405 0.3102836 -0.2586963 -0.06123138
-0.3191559 0.04560167 -0.66844654 -0.44536567 -0.026765749 0.11520853 -0.6029849 0.25374997
-0.40341654 0.37774774 0.5984697 -0.33318034 -0.16898434 0.06152273 -0.08333867 0.08135732
0.11625569 0.07440082 -0.4896931 0.24107648 -0.47962445 -0.29635334 -0.12516493 -0.24355668
-0.13411386 -0.31822518 -0.43546748 0.048015643 -0.21061763 0.023963245 0.7503725 -0.107373916
0.14214815 0.023385452 0.48624137 0.2866326 0.3272836 0.25304455 0.4876904 -0.0106607415
-0.47605065 -0.20281745 0.73268896 -0.0010353728 -0.26933587 -0.3308991 -0.81781876 -0.39556178
-0.12654887 0.15939581 0.16706392 -0.40091097 0.31189102 -0.39125472 -0.10570514 -0.20273632
-0.26444143 -0.12960744 -0.3721474 -0.39670345 -0.17893527 0.04530948 0.043645877 0.1789641
-0.54419154 -0.13731354 0.90656894 -0.16937359 0.22487418 0.16755727 -0.6916845 0.35514432
-0.104887545 -0.33186322 0.37374595 -0.35063174 0.077708654 -0.061899874 0.8138378 0.12444944
0.15952834 0.13464569 -0.22625703 -0.082816504 -0.3906653 0.30065852 0.87204254 0.2878201
-0.32092533 0.049497407 -0.69884956 -0.3739001 -0.18409196 0.24904831 -0.6150784 -0.10633185
-0.04696677 0.18046582 -0.7015048 -0.24312894 -0.3385885 0.4035402 0.12068313 0.35639784
0.21143629 0.018264232 -0.08917162 0.022619935 0.019679243 -0.09901429 -0.13735518 0.057064466
-0.51624393 -0.28158647 0.4815713 -0.41659582 -0.23982397 0.43936595 0.27799767 0.041936405
-0.5193569 0.20900953 0.10394132 -0.16252653 -0.2780132 0.032027796 -0.06581851 0.31356445
-0.053727165 0.35054767 0.3614885 -0.2563575 0.21074228 -0.2764132 -0.51818687 0.13947777
0.060261443 0.19697061 -0.21536216 0.17527106 0.25741178 -0.48354608 0.3614903 -0.4134612
-0.084716946 -0.08216625 -0.4920706 0.09092737 0.3249023 -0.15090524 -0.5559713 -0.17998253
00000000: 8861 18bd ea2e 1a3e 547d 3bbf a2a3 8dbe
00000010: 13ef dcbd 3f5e 823e 6e5a f43e f530 be3e
00000020: d758 b4bd 6272 e13d cace 29be f29e 1fbe
00000030: a0a8 f4be 726e 9abe c4b3 da3d 7c43 3bbd
00000040: 960a 363e f0b9 313e ded5 19bf dfb8 28be
00000050: af27 043e 3d80 d23e e095 85be 5c0e af3e
00000060: 0182 75bd 6fec 95bd f192 603f 2445 c4be
00000070: 813b 5dbe 57ac 193b 74e2 0bbf d095 bc3e
00000080: 84bb e6be 07c1 1abd fb31 68be 0903 f4be
00000090: b794 c9be 1041 c63e c616 3f3f c981 8c3e
000000a0: 65e9 8ebc 1fa6 10be 17b2 283e d3ba 0dbf
000000b0: c8e5 e4be 46ca 6dbe ef55 283f f6af 8d3e
000000c0: 4360 25be 91eb 583d 778d 203f 820e de3e
000000d0: a63a 793e 2770 30bd f1dc e53d d095 27be
000000e0: 96de 043e 8131 a2be 2694 25bf de92 80be
000000f0: c82f 893e 3e34 433e 320f 29bf 8123 ef3d
00000100: 0b85 4a3e 29f7 2cbd 7b32 c7be 5540 c93d
00000110: 0d95 bb3e 49a8 dc3e 9dd8 8abe 40ab 84bd
00000120: d939 ab3d 7eab cd3e c3c4 103f b061 e83e
00000130: 8a72 16bd a50e debe fade 6cbe 3bd7 a5be
00000140: 5379 d4be 646e b83e 228d 1c3e 6b42 e5be
00000150: 9b2e 583e 4a17 0abd 0d02 85be 0914 87be
00000160: d54b 183e b724 95be 1b6e f63e 3e08 743e
00000170: 27ed b93e 136f f33d c786 46bf 736f 9ebe
00000180: a1af 873e c0ed 82bc 74b8 39bf 8c3f 59be
00000190: 6042 153f 7edd 9e3e d773 84be c1cd 7abd
000001a0: 6768 a3be d1c8 3a3d 501f 2bbf f806 e4be
000001b0: d843 dbbc 73f2 eb3d 385d 1abf 84eb 813e
000001c0: 9d8c cebe 2768 c13e 4f35 193f 9d96 aabe
000001d0: 3b0a 2dbe 42ff 7b3d 77ad aabd ab9e a63d
000001e0: 7717 ee3d 755f 983d 0eb9 fabe c1dc 763e
000001f0: 5691 f5be a0bb 97be 3c2b 00be ec66 79be
00000200: 2555 09be 69ee a2be 98f5 debe 0dac 443d
00000210: 26ac 57be 914e c43c 6a18 403f dbe6 dbbd
00000220: 498f 113e d992 bf3c a1f4 f83e 82c1 923e
00000230: b791 a73e 0e8f 813e 8eb2 f93e 64aa 2ebc
00000240: e9bc f3be 61af 4fbe 8191 3b3f 59b5 87ba
00000250: 64e6 89be 9b6b a9be 925c 51bf 1387 cabe
00000260: 0796 01be a838 233e ce12 2b3e 3444 cdbe
00000270: 2eb0 9f3e 8a52 c8be f07b d8bd 1c9a 4fbe
00000280: de64 87be d0b7 04be 1b8a bebe b71c cbbe
00000290: cf3a 37be 6f96 393d 05c6 323d 5d42 373e
000002a0: 2350 0bbf ec9b 0cbe e714 683f 4570 2dbe
000002b0: 6b45 663e 2294 2b3e 3c12 31bf 7ad5 b53e
000002c0: 48cf d6bd fae9 a9be a15b bf3e 0186 b3be
000002d0: b725 9f3d b98a 7dbd ad57 503f 59df fe3d
000002e0: 665b 233e 8fe0 093e ecaf 67be b39b a9bd
000002f0: 4805 c8be eaef 993e 2e3e 5f3f 285d 933e
00000300: 5350 a4be cbbd 4a3d cee7 32bf d56f bfbe
00000310: 9a82 3cbe 8506 7f3e c775 1dbf 83c4 d9bd
00000320: 3a60 40bd 08cc 383e d295 33bf cbf6 78be
00000330: 795b adbe d29c ce3e b828 f73d c779 b63e
00000340: c182 583e df9e 953c 9c9f b6bd 714d b93c
00000350: 5d36 a13c 01c8 cabd d6a6 0cbe 6ebc 693d
00000360: 9028 04bf 1a2c 90be 8390 f63e 0c4c d5be
00000370: 6a94 75be 93f4 e03e b655 8e3e 82c5 2b3d
00000380: 93f4 04bf 9806 563e 30df d43d 5b6d 26be
00000390: bf57 8ebe 942f 033d dbcb 86bd 858b a03e
000003a0: 0411 5cbd fc7a b33e 0515 b93e 4a41 83be
000003b0: d3cc 573e 0886 8dbe e5a7 04bf 43d3 0e3e
000003c0: b4d4 763d aab2 493e e687 5cbe 427a 333e
000003d0: 7acb 833e 5a93 f7be 4215 b93e 30b1 d3be
000003e0: 1480 adbd c746 a8bd adf0 fbbe 2138 ba3d
000003f0: 9859 a63e e786 1abe 2354 0ebf 574d 38be

ll_fc1.bias f4 [128]
-0.26730174 -0.14411524 0.080058955 0.14716025 -0.3763517 0.019105839 0.2594852 -0.07621439
0.18076842 -0.063754216 0.13087325 -0.3589891 -0.3471682 -0.4237522 0.5070671 -0.10564049
-0.0719938 -0.24104732 0.5029448 0.47144815 -0.44465756 -0.37199396 -0.39487413 0.01898057
-0.29088405 -0.3025479 -0.037477713 0.07928448 -0.3890163 0.07734319 -0.07891601 -0.24228168
0.048836287 0.41963285 -0.3666064 0.016386455 -0.16401286 0.5433506 -0.5753025 -0.4793306
0.42856374 -0.38811088 0.11894494 0.054160457 -0.16857277 -0.08853651 0.32462984 0.017519066
-0.4441845 -0.28284347 -0.31728202 0.2563904 -0.44839722 0.4933343 -0.03796703 -0.13633816
0.3705686 0.17641872 0.41870221 0.32245523 -0.3786906 -0.3317362 0.040960573 0.42871326
-0.27244446 -0.39472052 0.20691751 0.5198572 0.1033299 -0.45551828 -0.5657724 0.13159746
0.06869569 -0.33816072 0.11592914 0.19077492 0.38130128 0.40749648 -0.21181433 -0.44088358
-0.45181155 0.45749152 0.22077402 0.24511164 -0.4816144 0.46093875 0.48773232 0.48735967
-0.4217925 -0.26215097 -0.32131228 0.3959446 -0.16604517 -0.17645924 0.25647426 -0.30320463
-0.15963309 -0.0042263917 -0.006852871 -0.4611152 0.4039899 -0.21434744 0.19853851 0.44943523
0.23000976 0.018859586 0.4417333 0.06446187 -0.27958426 0.47050163 0.010675274 -0.50593686
-0.11201115 -0.34682748 0.4404779 0.017342703 -0.5768755 -0.045751832 0.30587012 0.103050485
0.15880421 0.057419997 0.18081966 -0.15343927 -0.20475812 -0.46735424 -0.491685 0.22839485
00000000: c6db 88be f292 13be f3f5 a33d 2db1 163e
00000010: 2cb1 c0be d983 9c3c 3edb 843e 4a16 9cbd
00000020: 5b1b 393e 9291 82bd a303 063e 6bcd b7be
00000030: 08c0 b1be 0cf6 d8be 26cf 013f 0b5a d8bd
00000040: 7c71 93bd 1cd5 76be fec0 003f a761 f13e
00000050: 28aa e3be fe75 bebe f12c cabe 247d 9b3c
00000060: c1ee 94be 8fe7 9abe 3b82 19bd e75f a23d
00000070: 252d c7be 1b66 9e3d b89e a1bd b018 78be
00000080: 8f08 483d 1eda d63e d6b3 bbbe e33c 863c
00000090: fdf2 27be 0619 0b3f 0647 13bf d26a f5be
000000a0: b56c db3e 78b6 c6be 6899 f33d 5bd7 5d3d
000000b0: 579e 2cbe a152 b5bd e235 a63e 2584 8f3c
000000c0: 276c e3be dcd0 90be ca72 a2be 9a45 833e
000000d0: 5294 e5be 5096 fc3e 5183 1bbd 3b9c 0bbe
000000e0: 2bbb bd3e 1ca7 343e 2360 d63e da18 a53e
000000f0: bce3 c1be 54d9 a9be 46c6 273d 4e80 db3e
00000100: d77d 8bbe cf18 cabe 2fe2 533e 5d15 053f
00000110: a09e d33d b139 e9be 76d6 10bf 7cc1 063e
00000120: 53b0 8c3d 6723 adbe 426c ed3d 805a 433e
00000130: ec39 c33e 61a3 d03e dbe5 58be 7ebb e1be
00000140: d853 e7be 543c ea3e 9612 623e 8cfe 7a3e
00000150: 2a96 f6be 2a00 ec3e 0db8 f93e 3587 f93e
00000160: 30f5 d7be a738 86be 0b83 a4be 40b9 ca3e
00000170: bf07 2abe bbb1 34be 9850 833e a33d 9bbe
00000180: db76 23be 8b7d 8abb 0c8e e0bb 4b17 ecbe
00000190: c4d7 ce3e e57d 5bbe ae4d 4b3e 601c e63e
000001a0: ae87 6b3e 6b7f 9a3c de2a e23e 9604 843d
000001b0: ab25 8fbe 97e5 f03e 58e7 2e3c 1485 01bf
000001c0: 1a66 e5bd 5f93 b1be 5286 e13e 4912 8e3c
000001d0: 1dae 13bf 4666 3bbd 029b 9c3e 220c d33d
000001e0: 929d 223e 3b31 6b3d ca28 393e 2f1f 1dbe
000001f0: 1dac 51be 0e49 efbe 23be fbbe 57e0 693e

ll_fc2.weight f4 [128, 128]
-0.15107259 -0.008796543 0.025378428 0.039645456 -0.06060126 0.05489835 0.028859286 0.011034892
-0.07364636 -0.2460537 0.02688744 -0.098668344 0.01711283 -0.09719676 -0.053620636 -0.071961656
0.018297981 0.11085303 0.005010051 0.086870566 -0.19668439 -0.12107197 0.0073702065 -0.114745185
-0.02775594 0.10337415 -0.06722718 0.018835686 -0.22285986 0.06706077 -0.167672 -0.012738853
-0.03731426 0.08723466 -0.033093236 0.13082851 -0.05785902 0.03783832 -0.13131133 -0.023915512
0.061583124 -0.3526007 0.17112926 -0.0660294 0.11459189 0.1624482 0.022242961 -0.061241023
-0.1980348 -0.4134959 -0.06884812 -0.04795806 -0.0086303875 0.11739702 0.19697429 -0.052962173
0.059740704 -0.06814078 0.072934836 0.013261057 -0.09392584 0.03077643 -0.17255397 0.06087655
-0.12842925 -0.39055556 0.008058723 0.11119331 -0.14319555 -7.03022e-05 -0.09282781 0.009590615
-0.18928413 -0.16769665 0.1918301 -0.05610757 0.02193022 0.036033288 0.039118204 0.075437166
0.071684465 0.0144075295 -0.052537706 -0.046977628 0.13827288 0.047952034 0.10831787 -0.067845374
0.053493023 -0.31586128 -0.084387794 0.11943443 -0.1292897 -0.15960597 0.010620537 0.09931633
0.06282685 -0.20278524 -0.028251091 -0.13672623 -0.05057574 0.012781459 0.04762516 -0.0055097463
0.060039714 0.05327806 0.11920373 -0.28598818 -0.008869799 0.062845215 -0.089045696 3.6520243e-05
0.08480401 0.21156335 0.014791946 0.20920916 -0.05974009 0.057232678 -0.013933247 -0.17779088
0.007406437 0.11844841 -0.072076246 0.26629007 0.025746135 -0.061926004 -0.02300265 0.0636556
-0.1481826 -0.08754036 0.053681433 -0.07421311 0.011539888 0.081981845 0.002989272 -0.025529142
0.17336228 -0.41327813 0.11947778 -0.15790741 -0.14906602 -0.14413863 0.09326597 -0.04993963
0.015639553 -0.045788884 -0.02071981 -0.052327283 -0.11521642 -0.15876973 -0.041061718 0.09244157
0.02097344 0.021725195 0.004096358 0.055785757 -0.18011808 -0.04696221 0.05908162 -0.015632857
0.089825846 -0.0556994 -0.061608866 -0.09871635 -0.178039 0.17604288 -0.15121114 -0.051200032
0.054950874 0.075427346 -0.14813042 0.08134005 -0.014452399 -0.24144313 0.055650596 -0.05117267
-0.39146155 -0.3305219 -0.107306845 0.056219254 -0.12646686 0.002688015 0.066491865 -0.07249545
-0.0086097885 -0.002281819 0.0034454046 0.018118894 -0.2399427 0.003330507 0.1694676 0.06283163
-0.07426092 -0.44071198 -0.027654724 0.09536231 -0.00997161 -0.079319365 -0.040025953 0.014301476
0.114011936 -0.12517439 0.093185365 0.12230212 0.05185346 0.07469072 0.013940366 0.0652247
0.004067487 0.0061489437 0.024800373 0.13754313 -0.121376336 -0.05339904 0.05277725 -0.053367324
0.0014170824 -0.31975687 0.080128826 -0.08195553 0.077475205 0.053526115 -0.00079216645 -0.04611603
0.093925364 -0.029729422 0.027178437 -0.100735694 0.028885469 -0.017313229 0.04656456 0.08384162
-0.09913463 0.03673432 0.06801262 0.26964647 0.059280325 0.08914684 -0.0365813 -0.0075651733
-0.07821652 -0.14180095 -0.0053944555 0.1678357 -0.07402792 0.028355818 0.08617306 0.013723095
0.050279293 0.018720396 0.0067822784 -0.006886762 -0.027987398 0.06218505 -0.14389133 0.08255591
00000000: c6b2 1abe 601f 10bc 6ce6 cf3c 4663 223d
00000010: 0739 78bd 18dd 603d 4f6a ec3c b1cb 343c
00000020: e7d3 96bd 80f5 7bbe 0c43 dc3c a112 cabd
00000030: 3530 8c3c 180f c7bd 50a1 5bbd a260 93bd
00000040: a6e5 953c ea06 e33d 5b2b a43b 32e9 b13d
00000050: a267 49be 95f4 f7bd c681 f13b 86ff eabd
00000060: 6d60 e3bc d4b5 d33d 67ae 89bd 4c4d 9a3c
00000070: 6035 64be 2857 893d 35b2 2bbe 9fb6 50bc
00000080: d6d6 18bd 16a8 b23d c68c 07bd e9f7 053e
00000090: 94fd 6cbd 5bfc 1a3d 7a76 06be 77ea c3bc
000000a0: 963e 7c3d 1488 b4be 823c 2f3e 6c3a 87bd
000000b0: 27af ea3d d258 263e df36 b63c ded7 7abd
000000c0: a2c9 4abe bcb5 d3be 3e00 8dbd ac6f 44bd
000000d0: 7866 0dbc d96d f03d a1b3 493e ddee 58bd
000000e0: abb2 743d 658d 8bbd dc5e 953d e844 593c
000000f0: 315c c0bd da1e fc3c fdb1 30be b059 793d
00000100: f582 03be e6f6 c7be bc08 043c 51b9 e33d
00000110: dba1 12be 356f 93b8 821c bebd f421 1d3c
00000120: b3d3 41be acb8 2bbe 1c6f 443e 0dd1 65bd
00000130: 01a7 b33c a497 133d 693a 203d cd7e 9a3d
00000140: 4ecf 923d 8f0d 6c3c c731 57bd 9d6b 40bd
00000150: 6897 0d3e 5a69 443d c2d5 dd3d 84f2 8abd
00000160: 801b 5b3d 92b8 a1be 82d3 acbd 0a9a f43d
00000170: 8564 04be bf6f 23be c301 2e3c 5c66 cb3d
00000180: 5dab 803d efa6 4fbe d56e e7bc f601 0cbe
00000190: 8228 4fbd 5369 513c 9a12 433d 1a8b b4bb
000001a0: 34ec 753d 183a 5a3d 1621 f43d 0b6d 92be
000001b0: a252 11bc feb4 803d 975d b6bd 502d 1938
000001c0: baad ad3d 10a4 583e eb59 723c ed3a 563e
000001d0: 06b2 74bd d06c 6a3d 4648 64bc d00e 36be
000001e0: b2b1 f23b 1495 f23d b69c 93bd 2c57 883e
000001f0: 8fe9 d23c 1fa6 7dbd 0e70 bcbc de5d 823d
00000200: 2ebd 17be 5c48 b3bd 10e1 5b3d 0bfd 97bd
00000210: cc11 3d3c 19e6 a73d a9e7 433b 7e22 d1bc
00000220: e285 313e 3199 d3be c4b0 f43d 7bb2 21be
00000230: c3a4 18be 1499 13be 3b02 bf3d 7f8d 4cbd
00000240: 851e 803c 208d 3bbd 97bc a9bc 2255 56bd
00000250: 96f6 ebbd 8894 22be 5530 28bd 0152 bd3d
00000260: 7ed0 ab3c 09f9 b13c be3a 863b 9b7f 643d
00000270: e070 38be 725b 40bd 92ff 713d 7a10 80bc
00000280: 9df6 b73d 0e25 64bd 9459 7cbd cc2b cabd
00000290: db4f 36be 9644 343e 18d7 1abe 20b7 51bd
000002a0: 2b14 613d a779 9a3d 80af 17be 9d95 a63d
000002b0: c1c9 6cbc de3c 77be e1f1 633d 6f9a 51bd
000002c0: a66d c8be 2b3a a9be b1c3 dbbd 2946 663d
000002d0: 8780 01be 6929 303b e32c 883d 7f78 94bd
000002e0: 1210 0dbc 928a 15bb 4ccc 613b 136e 943c
000002f0: 8ab3 75be a344 5a3b ea88 2d3e dfad 803d
00000300: 1c16 98bd 00a5 e1be 298c e2bc 514d c33d
00000310: f75f 23bc 3172 a2bd 41f2 23bd bd50 6a3c
00000320: 177f e93d b72d 00be f8d7 be3d 8979 fa3d
00000330: 4b64 543d 73f7 983d 2266 643c 8794 853d
00000340: 8e48 853b 147d c93b 272a cb3c 1bd8 0c3e
00000350: 2894 f8bd f4b8 5abd f52c 583d b297 5abd
00000360: 65bd b93a 2cb7 a3be 951a a43d 4dd8 a7bd
00000370: 52ab 9e3d 333e 5b3d 64a9 4fba 2ae4 3cbd
00000380: f15b c03d 1e8b f3bc 50a5 de3c 844e cebd
00000390: 38a1 ec3c 79d4 8dbc 7bba 3e3d 28b5 ab3d
000003a0: 1907 cbbd ba76 163d 334a 8b3d 1a0f 8a3e
000003b0: edcf 723d 9e92 b63d 46d6 15bd 46e5 f7bb
000003c0: fc2f a0bd 4534 11be f9c3 b0bb 1fdd 2b3e
000003d0: f39b 97bd 764a e83c 807b b03d d5d6 603c
000003e0: a9f1 4d3d 845b 993c e03d de3b 59aa e1bb
000003f0: d445 e5bc c0b5 7e3d 4058 13be 1313 a93d

ll_fc2.bias f4 [128]
0.03383232 0.11416743 -0.054314543 0.006550749 0.018092703 -0.030798126 0.046161436 0.11659898
0.10868919 0.08153924 0.0439332 -0.038766574 0.1143582 -0.03323378 0.024414647 -0.04154282
0.0338327 -0.037754707 -0.015555697 -0.072270244 0.019190274 -0.006390164 -0.05527444 -0.09614456
0.112078086 0.032083668 0.030683886 0.10402904 0.013603559 -0.015349427 -0.018472992 0.084696084
-0.007950167 -0.004542503 -0.028271385 0.101860814 -0.07468336 0.059194878 -0.068729736 0.078289755
0.048488956 -0.06452744 -0.010689409 -0.0081315385 0.050116446 0.036584444 -0.025600683 -0.02162016
-0.1013329 0.04607002 0.12040398 -0.026055263 0.008682339 0.07701331 0.055517554 -0.058211215
-0.036529437 0.13076465 -0.010043416 0.011475267 -0.16795078 0.092024826 0.035506103 -0.030657956
-0.05976539 0.04190517 -0.03882749 0.022082835 -0.07998619 0.108711615 0.024749868 -0.014023974
0.0060054986 0.043965288 -0.026111223 0.06648998 0.0032944311 0.03815608 0.030293295 -0.05274251
0.035238463 0.13689841 0.0042208834 -0.040934365 0.026281087 0.0769919 -0.018751042 -0.00019698696
0.046866514 0.0071538067 -0.08647214 0.038874052 -0.009970651 0.077492684 -0.075978644 0.08264833
-0.014882959 0.10900921 -0.01602608 0.09672582 0.03176201 0.024070669 -0.08994639 -0.011955438
-0.06563616 0.10266548 -0.029449673 0.06588616 -0.08915193 0.0999112 0.027191203 -0.09152062
0.0010009152 -0.08356543 0.018380243 0.13050301 -0.03545285 -0.0043632127 0.09039446 0.0520967
-0.0022120597 0.033631098 -0.08678796 -0.04245094 0.053890593 0.033092078 -0.071407646 -0.071082756
00000000: c293 0a3d 9dd0 e93d ed78 5ebd aaa7 d63b
00000010: 2637 943c 5a4c fcbc c613 3d3d 72cb ee3d
00000020: 7098 de3d 0cfe a63d 4df3 333d b3c9 1ebd
00000030: a234 ea3d 2520 08bd 3a01 c83c ce28 2abd
00000040: 2894 0a3d aea4 1abd 52dd 7ebc 6c02 94bd
00000050: ec34 9d3c 9564 d1bb 7467 62bd 70e7 c4bd
00000060: 3289 e53d 2a6a 033d c65c fb3c 2d0d d53d
00000070: 76e1 5e3c 2a7c 7bbc ac54 97bc 2475 ad3d
00000080: 6b41 02bc 47d9 94bb 6499 e7bc 679c d03d
00000090: 97f3 98bd 5476 723d 2dc2 8cbd 6156 a03d
000000a0: 5b9c 463d f626 84bd a222 2fbc 253a 05bc
000000b0: e746 4d3d 92d9 153d 86b8 d1bc c31c b1bc
000000c0: a087 cfbd ebb3 3c3d 5d96 f63d d971 d5bc
000000d0: 5f40 0e3c 27b9 9d3d 6066 633d e26e 6ebd
000000e0: e49f 15bd 2be7 053e 248d 24bc c202 3c3c
000000f0: 4afb 2bbe 8377 bc3d d96e 113d 6526 fbbc
00000100: 8ecc 74bd c1a4 2b3d 9309 1fbd 10e7 b43c
00000110: cdcf a3bd 32a4 de3d 3cc0 ca3c cfc4 65bc
00000120: c6c9 c43b f214 343d 34e7 d5bc e62b 883d
00000130: 62e7 573b 8d49 1c3d a529 f83c 8808 58bd
00000140: 3556 103d 192f 0c3e 564f 8a3b cbaa 27bd
00000150: 6f4b d73c eead 9d3d c99b 99bc 498e 4eb9
00000160: 1af7 3f3d 7b6a ea3b 4e18 b1bd 663a 1f3d
00000170: f15b 23bc 7cb4 9e3d b19a 9bbd 8743 a93d
00000180: a8d7 73bc 3840 df3d 2049 83bc 3018 c63d
00000190: e218 023d da2f c53c d035 b8bd bee0 43bc
000001a0: 406c 86bd 4742 d23d 7140 f1bc 53ef 863d
000001b0: 4995 b6bd 3e9e cc3d 16c0 de3c 2a6f bbbd
000001c0: 2431 833a 5a24 abbd 2a92 963c 95a2 053e
000001d0: 0237 11bd 48f9 8ebb bb20 b93d 5963 553d
000001e0: 34f8 10bb c3c0 093d e3bd b1bd 09e1 2dbd
000001f0: 62bc 5c3d 8f8b 073d 2c3e 92bd d693 91bd

sl_fc3.weight f4 [256, 128]
0.08592621 0.00037307316 0.0035010108 0.041841112 -0.0012142401 -0.026891205 -0.07299996 0.06128934
0.050900113 0.084869765 0.050472066 0.056020956 0.07450902 0.042814612 0.076938726 0.040403303
0.08593758 -0.011623405 0.026346443 0.053200394 -0.07041413 0.091747865 0.015837615 -0.02245393
0.0040452196 -0.023638368 0.017625527 0.039306466 0.021319678 -0.003593191 0.0058185603 0.104933545
-0.081867665 -0.0099695 0.039211422 0.071878634 0.035757218 0.09257294 -0.072544426 -0.024152886
-0.02961241 0.06493713 0.07561696 0.059883736 0.11725944 -0.0228821 0.08291231 0.009303757
0.01064488 0.0064241616 0.0028428927 -0.011266742 0.08160569 0.075139076 -0.052954406 -0.041954026
0.005209114 -0.039843827 0.014696244 0.007764837 0.0040484685 0.0559959 0.073827505 -0.059480384
-0.0145864235 0.0066168364 0.04120191 0.06802364 -0.1003647 0.035480205 -0.04923802 -0.06917408
0.023460072 -0.041172035 0.105723575 -0.03353996 -0.00880832 0.049344573 0.05666245 0.014557627
0.049014986 0.030648245 0.023407694 0.110203795 0.09525112 0.026716592 0.10022968 0.034388192
-0.013933167 -0.012898817 0.009049761 -0.062525444 -0.008846356 0.043141346 -0.28194907 -0.019764293
-0.10828288 0.002748842 0.073249824 0.11488766 0.08337946 -0.03647318 0.011851153 -0.029359337
0.029760962 0.00031064605 0.108797476 0.058007255 -0.026931847 -0.0045890315 0.08236872 0.054860465
0.08128937 -0.055053268 -0.07047967 -0.039994925 -0.039426602 0.027178006 0.10573206 0.009091602
-0.070215695 0.014192925 0.031181237 0.024331333 -0.04184008 -0.045761306 -0.0853548 0.09349898
-0.004175492 0.001665529 0.055838536 -0.05486619 -0.07667103 -0.052940905 0.004587459 0.0740163
0.06275399 -0.023089223 0.011280312 -0.048846718 0.07862246 -0.053179923 0.06512757 0.051816996
0.07500054 -0.07109093 -0.02989892 -0.044493422 -0.035041798 -0.036200695 0.0202824 0.088807076
0.09807734 -0.039212108 -0.0005411182 0.021822931 -0.030912992 -0.022320542 0.02351163 -0.011850964
-0.054978427 0.011816406 0.096727744 0.021383405 0.15248221 -0.03278465 0.08360818 0.046728984
0.10433099 0.0062249904 0.03954653 -0.07427094 0.006333406 0.00460232 -0.020289065 0.052638873
-0.04151256 -0.018068926 -0.041557353 0.06816772 0.12283706 0.034219783 -0.0504506 0.033549502
0.026547194 0.09298067 0.013721845 0.08154237 0.061707363 -0.017430982 0.07932779 -0.0322297
-0.071648926 0.09504027 -0.04755336 0.046373036 0.061022025 -0.010797398 0.06717277 0.021050496
0.015458099 0.044220377 -0.01083928 -0.025388531 -0.07196519 0.08306518 -0.014701162 0.06925047
0.057814214 0.031244528 0.1405143 0.060833894 0.067138955 0.04624135 0.07198752 -0.088944934
0.035594914 0.022008903 -0.06305947 -0.037870757 0.069878936 0.093223624 -0.21657287 0.0042109773
-0.19451381 -0.047753066 -0.0047230734 0.0025373353 -0.05239856 0.012677736 -0.060486726 -0.002009372
0.06862729 0.027739229 0.08376508 -0.07153642 -0.082873516 0.11000451 -0.037112027 0.08092308
0.07479603 0.034366533 -0.040241662 0.056196038 -0.0072155036 0.038185157 0.028375257 0.12931636
0.02125632 0.0531535 -0.023490783 -0.029016228 0.04988011 0.0105966255 0.03002302 -0.03481183
00000000: 15fa af3d 0899 c339 3771 653b 9661 2b3d
00000010: 2327 9fba f24a dcbc 0181 95bd 880a 7b3d
00000020: a37c 503d 33d0 ad3d ccbb 4e3d 3b76 653d
00000030: 2f98 983d 605e 2f3d 0d92 9d3d ef7d 253d
00000040: 0b00 b03d 1870 3ebc 7fd4 d73c a8e8 593d
00000050: 4935 90bd 4ee6 bb3d e3bd 813c 4ef1 b7bc
00000060: c38d 843b 40a5 c1bc 6963 903c d1ff 203d
00000070: 9ba6 ae3c be7b 6bbb 9fa9 be3b 66e7 d63d
00000080: 3caa a7bd 1d57 23bc 289c 203d 1b35 933d
00000090: 2976 123d e296 bd3d 2c92 94bd 46dc c5bc
000000a0: ba95 f2bc c2fd 843d 11dd 9a3d a648 753d
000000b0: b825 f03d 3e73 bbbc eecd a93d c96e 183c
000000c0: dd67 2e3c c681 d23b d34f 3a3b 2498 38bc
000000d0: e220 a73d 84e2 993d b8e6 58bd fcd7 2bbd
000000e0: 37b1 aa3b 4833 23bd 84c8 703c 2c70 fe3b
000000f0: 04a9 843b f55b 653d e032 973d b4a1 73bd
00000100: e5fb 6ebc 0cd2 d83b 55c3 283d fa4f 8b3d
00000110: 028c cdbd b153 113d cead 49bd 24ab 8dbd
00000120: 562f c03c 02a4 28bd 9a85 d83d 3261 09bd
00000130: c650 10bc 891d 4a3d e316 683d 1d83 6e3c
00000140: f0c3 483d 0712 fb3c 7ec1 bf3c 87b2 e13d
00000150: 0513 c33d c1dc da3c 3845 cd3d a2da 0c3d
00000160: f047 64bc 8f55 53bc 7345 143c 570d 80bd
00000170: 4ef0 10bc fbb4 303d a15b 90be bae8 a1bc
00000180: 6ac3 ddbd ea25 343b 0104 963d 394a eb3d
00000190: dac2 aa3d e764 15bd 572b 423c fe82 f0bc
000001a0: 43cd f33c 35de a239 36d1 de3d 0499 6d3d
000001b0: 2da0 dcbc 965f 96bb eeb0 a83d 5eb5 603d
000001c0: 0b7b a63d 897f 61bd a557 90bd b8d1 23bd
000001d0: ca7d 21bd 69a4 de3c 0d8a d83d f1f4 143c
000001e0: 3fcd 8fbd 7189 683c cb6f ff3c 8152 c73c
000001f0: 8160 2bbd 3570 3bbd 7fce aebd 657c bf3d
00000200: 91d2 88bb e14d da3a f3b6 643d 5fbb 60bd
00000210: b305 9dbd 90d8 58bd 6552 963b dc95 973d
00000220: 2a85 803d 9c25 bdbc 0fd1 383c 7f13 48bd
00000230: d004 a13d 31d3 59bd 9a61 853d 0f3e 543d
00000240: e299 993d 1f98 91bd 94ee f4bc bc3e 36bd
00000250: fd87 0fbd 2e47 14bd 4727 a63c 7ce0 b53d
00000260: c6dc c83d e09c 20bd d4d9 0dba 01c6 b23c
00000270: 3e3d fdbc 92d9 b6bc 769b c03c 8c2a 42bc
00000280: 0f31 61bd 9999 413c 3219 c63d 402c af3c
00000290: 4c24 1c3e 3249 06bd c43a ab3d e466 3f3d
000002a0: 7cab d53d 01fb cb3b 8bfb 213d 5d1b 98bd
000002b0: 7688 cf3b 0fcf 963b 4135 a6bc dc9b 573d
000002c0: 1309 2abd 4905 94bc 0b38 2abd 859b 8b3d
000002d0: ff91 fb3d 0b2a 0c3d 4aa5 4ebd 346b 093d
000002e0: 8079 d93c a66c be3d 97d1 603c b0ff a63d
000002f0: dcc0 7c3d 6bcb 8ebc 9c76 a23d 4a03 04bd
00000300: acbc 92bd 79a4 c23d 50c7 42bd a7f1 3d3d
00000310: 3bf2 793d 92e7 30bc e191 893d 1772 ac3c
00000320: f743 7d3c 6d20 353d 3c97 31bc 9cfb cfbc
00000330: 7c62 93bd 141e aa3d 25dd 70bc 31d3 8d3d
00000340: 99ce 6c3d 86f4 ff3c fbe2 0f3e f62c 793d
00000350: 2680 893d 9267 3d3d 316e 933d c328 b6bd
00000360: f9cb 113d 044c b43c 5325 81bd 5e1e 1bbd
00000370: b01c 8f3d 07ec be3d 47c5 5dbe 3dfc 893b
00000380: a12e 47be b898 43bd 03c4 9abb 6c49 263b
00000390: df9f 56bd 47b6 4f3c eec0 77bd abaf 03bb
000003a0: 778c 8c3d 613d e33c 078d ab3d b081 92bd
000003b0: 97b9 a9bd 0b4a e13d c802 18bd 00bb a53d
000003c0: a92e 993d ecc3 0c3d 71d4 24bd d12d 663d
000003d0: 0870 ecbb 0a68 1c3d 3a73 e83c 826b 043e
000003e0: bc21 ae3c 7cb7 593d be6f c0bc 71b3 edbc
000003f0: 164f 4c3d 789d 2d3c d6f2 f53c d996 0ebd

sl_fc3.bias f4 [256]
0.090736166 0.03115434 0.053820945 -0.045970317 0.13712472 0.084555134 -0.039795373 0.028355457
0.04061463 0.010174596 -0.10260899 0.1331222 0.054154944 0.12480403 0.09844249 0.02062991
0.15119386 0.07934735 0.09801159 0.0018869565 0.013417394 -0.0015454259 -0.07573853 -0.086436875
-0.01997612 0.007357394 -0.087899 0.0016215007 -0.008973262 0.067578025 -0.008241227 -0.026997885
-0.0880255 0.042489287 0.031408627 0.13006791 -0.038403038 -0.032070383 -0.019343663 0.0651666
-0.06761737 0.0075105536 0.112833016 0.086300425 0.054786935 0.048072197 0.04788396 -0.04978996
-0.0041958615 0.099756956 -0.0900183 0.10470275 -0.03545879 -0.07737272 -0.043936238 -0.090228625
-0.081900306 -0.053067226 0.088102706 -0.088288106 0.1380849 -0.098040596 0.04590966 0.09030229
0.04216254 0.0063072992 0.04114501 0.094045006 0.074516736 0.07469541 -0.1231907 0.0618354
0.045143567 0.02405977 0.054015145 -0.024312278 -0.055476345 -0.07051281 0.039870366 0.039195847
0.07469126 0.10966627 0.15270619 0.045206003 -0.06052703 -0.05192812 -0.09585272 0.0043292833
-0.096352264 0.015082366 0.07678891 0.09141922 0.042454854 0.052174874 0.001750792 0.04609918
0.023358034 0.014278002 -0.06410722 0.00021950075 0.022169864 0.14865895 -0.015459836 0.02045174
0.008760661 0.011890088 0.13823657 -0.097858526 -0.039133098 0.014950574 0.09580686 -0.022594072
0.015024253 0.050735217 -0.040978715 0.025943825 -0.004243568 0.062004786 -0.06966452 -0.07757261
0.04311639 0.121388964 0.011918894 0.11524064 0.048174437 0.029536149 0.06577122 -0.069071546
-0.06797646 -0.01487505 -0.07857373 0.14068668 0.04053471 0.064009085 0.08629931 0.047541168
-0.1032387 0.1145558 -0.0073040305 -0.015651306 0.010944236 0.057550862 0.11747263 -0.015732832
0.009722406 0.019137502 0.114598356 -0.029142136 0.022843946 -0.061732005 0.041088063 0.076268226
-0.015915027 -0.012188415 -0.0067800456 0.0624771 0.00038412868 -0.09285835 -0.019479368 0.08286548
0.076840244 0.00501603 -0.06741744 -0.004715712 -0.0163668 0.056783337 0.108554326 -0.010453835
0.071356066 0.029308254 -0.0662462 -0.02528749 0.014719827 0.14926742 -0.058132596 -0.02999523
0.0582033 0.14018242 0.08281119 -0.017094221 0.1105128 -0.058256015 0.12576622 -0.009040721
-0.0155265825 -0.09442331 0.07247151 0.11449212 -0.06384608 -0.08764073 -0.092390165 -0.0144631425
-0.016191514 0.0028235887 -0.0048859855 0.035354115 -0.011576052 -0.027298983 -0.049778186 -0.016042799
0.11790726 0.09788565 0.0007501311 0.02552044 0.007244403 -0.064477414 -0.033332057 -0.005105783
-0.10490042 0.10198804 -0.04693137 -0.02813113 -0.071960844 0.118436575 0.05344042 0.009346388
0.024228955 0.016988121 0.14513172 0.13627937 0.038581546 0.005370273 0.017790157 0.0042561423
-0.05928865 -0.003889236 0.017384551 0.027673127 0.05153561 -0.010290403 0.12874693 0.037601717
0.11537768 0.048875198 0.15643105 -0.03575547 -0.0037362117 -0.057206538 -0.07981754 -0.093653284
0.032561734 0.025403386 -0.08318256 -0.032432072 -0.0046432973 0.11799654 -0.031374175 -0.04427046
-0.06254495 0.037819404 0.108117834 0.082295746 0.11370985 -0.044664703 0.057268567 -0.06735733
00000000: e2d3 b93d 6337 ff3c 5a73 5c3d 5f4b 3cbd
00000010: 6c6a 0c3e 3e2b ad3d 7900 23bd b449 e83c
00000020: 875b 263d 59b3 263c aa24 d2bd 3051 083e
00000030: 93d1 5d3d 4199 ff3d 379c c93d 0f00 a93c
00000040: 90d2 1a3e dd80 a23d 4dba c83d c153 f73a
00000050: a1d4 5b3c e38f caba cd1c 9bbd d105 b1bd
00000060: f6a4 a3bc 4b16 f13b 6404 b4bd 8988 d43a
00000070: 9704 13bc 5966 8a3d 3606 07bc ab2a ddbc
00000080: b746 b4bd 3f09 2e3d 55a6 003d 8630 053e
00000090: 814c 1dbd 3c5c 03bd 9a76 9ebc 1176 853d
000000a0: fa7a 8abd 171b f63b ff14 e73d 47be b03d
000000b0: 4468 603d 5ae7 443d f921 443d 8ff0 4bbd
000000c0: 707d 89bb 604d cc3d 845b b8bd 656e d63d
000000d0: 3c3d 11bd 9775 9ebd 7cf6 33bd c9c9 b8bd
000000e0: 59bb a7bd 055d 59bd 316f b43d 65d0 b4bd
000000f0: 2166 0d3e 82c9 c8bd c50b 3c3d 68f0 b83d
00000100: a1b2 2c3d 76ad ce3b ac87 283d ab9a c03d
00000110: 3b9c 983d e8f9 983d 684b fcbd 1e47 7d3d
00000120: 76e8 383d ff18 c53c fc3e 5d3d 8b2a c7bc
00000130: 2a3b 63bd 0569 90bd 1c4f 233d d38b 203d
00000140: bbf7 983d b698 e03d 035f 1c3e ee29 393d
00000150: 31eb 77bd 95b2 54bd 6e4e c4bd a9dc 8d3b
00000160: 5654 c5bd 071c 773c 8143 9d3d 003a bb3d
00000170: 24e5 2d3d 52b5 553d d57a e53a 7ed2 3c3d
00000180: 5959 bf3c 48ee 693c a54a 83bd c929 6639
00000190: 939d b53c 0d3a 183e 414b 7dbc 688a a73c
000001a0: e088 0f3c a5ce 423c e38d 0d3e 0d6a c8bd
000001b0: 074a 20bd 41f3 743c 6336 c43d 3417 b9bc
000001c0: 4928 763c bbcf 4f3d 4cd9 27bd 2588 d43c
000001d0: a10d 8bbb bbf8 7d3d 46ac 8ebd 63de 9ebd
000001e0: d09a 303d c79a f83d 7747 433c 4903 ec3d
000001f0: 8f52 453d cbf5 f13c 10b3 863d 6275 8dbd
00000200: 3e37 8bbd 7bb6 73bc 44eb a0bd 2b10 103e
00000210: b907 263d 3217 833d b1bd b03d 87ba 423d
00000220: d06e d3bd 3b9c ea3d a656 efbb 2b37 80bc
00000230: 744f 333c 74ba 6b3d 7e95 f03d 24e2 80bc
00000240: ba4a 1f3c 40c6 9c3c 8bb2 ea3d 7dbb eebc
00000250: 3a23 bb3c b3da 7cbd f54b 283d 8432 9c3d
00000260: 3b60 82bc ebb1 47bc 252b debb fde7 7f3d
00000270: e164 c939 852c bebd 3293 9fbc 60b5 a93d
00000280: 6b5e 9d3d 825d a43b 2812 8abd 4286 9abb
00000290: ab13 86bc a595 683d bb51 de3d 9046 2bbc
000002a0: 2123 923d dd17 f03c 16ac 87bd b627 cfbc
000002b0: 6e2b 713c 8fd9 183e 721c 6ebd 8eb8 f5bc
000002c0: 9566 6e3d fb8b 0f3e ea98 a93d 2e09 8cbc
000002d0: 8954 e23d dc9d 6ebd dcc8 003e 881f 14bc
000002e0: 3563 7ebc 0261 c1bd f16b 943d d87a ea3d
000002f0: bcc1 82bd fc7c b3bd 0e37 bdbd d1f6 6cbc
00000300: 11a4 84bc f50b 393b 9e1a a0bb 7acf 103d
00000310: 7ba9 3dbc 1ea2 dfbc 36e4 4bbd 306c 83bc
00000320: 5d79 f13d 4678 c83d 72a4 443a 3e10 d13c
00000330: 7562 ed3b bc0c 84bd 3287 08bd 6a4e a7bb
00000340: 08d6 d6bd 1bdf d03d 1c3b 40bd 4173 e6bc
00000350: 3560 93bd e08e f23d 58e4 5a3d 9821 193c
00000360: cd7b c63c ac2a 8b3c 699d 143e d28c 0b3e
00000370: af07 1e3d 1df9 af3b aabc 913c 1c77 8b3b
00000380: a8d8 72bd 8de2 7ebb 0c6a 8e3c c1b2 e23c
00000390: 0117 533d 1499 28bc 3cd6 033e 4204 1a3d
000003a0: 224b ec3d 5c31 483d 762f 203e 5474 12bd
000003b0: 3bdb 74bb 6751 6abd 6177 a3bd 4bcd bfbd
000003c0: 745f 053d c31a d03c 9e5b aabd 7ed7 04bd
000003d0: cd26 98bb 2ca8 f13d 3582 00bd f154 35bd
000003e0: 9117 80bd 85e8 1a3d e26c dd3d ac8a a83d
000003f0: b6e0 e83d 56f2 36bd 7292 6a3d a4f2 89bd

sl_fc_v.weight f4 [1, 256]
0.093525246 0.06368433 -0.61269146 0.041948736 0.06095948 0.017670777 0.0011348857 -0.045916058
0.1221346 -0.008610759 0.018368425 0.14223722 0.092488356 0.065844335 0.03311744 0.007203308
0.065444306 -0.038216364 -0.12552199 -0.019879721 -0.053413473 -0.014129336 -0.024590531 0.011733552
-0.27733228 -0.0012652192 0.03851905 0.09311702 0.1865661 -0.046727885 0.007109504 -0.054143324
-0.0114077525 0.07275682 0.065613195 0.076492876 -0.0061015026 -0.0410293 -0.038942702 0.05275372
-0.000376708 -0.0038421324 0.12927756 0.052613143 0.07344371 0.14851747 -0.040500663 -0.03321794
-0.008694013 -0.02379323 -0.033317473 0.0958447 0.01487069 -0.04413311 0.01643337 -0.04663025
-0.061300747 -0.013530872 0.100285694 -0.020936754 0.0696954 -0.0034703265 0.004999876 0.06922577
-0.022514926 0.0123345 -0.018271236 0.057164874 0.05393595 -0.018044394 -0.042480517 0.036570784
-0.005613918 0.07003564 0.028620804 0.06491032 -0.037811063 -0.037596222 0.031519737 0.08429146
0.073778905 0.01867406 0.0906201 0.078782044 -0.042437 -0.14987266 0.042155575 0.016691502
0.01599638 0.011307873 -0.011959817 0.07618987 0.05412496 -0.1315804 -0.046598118 -0.015387247
0.042105537 -0.009328153 0.0013381836 0.08811268 -0.0042931363 0.086957686 0.00068787416 0.04411034
0.009798409 0.064042084 0.050939858 -0.034701988 0.010452463 -0.042633794 0.06606131 -0.029657071
0.045911554 -0.31651375 0.0020305738 -0.054308537 0.039554425 -0.010190606 0.004621076 -0.021358775
0.030998267 0.039876353 -0.047918048 0.10864948 0.07209497 -0.01638127 0.08662197 0.017177934
0.047424227 -0.046030585 -0.022601888 0.080672525 0.088746324 0.078821495 0.090189196 0.07267404
-0.035833027 0.05483696 -0.041263487 -0.05351922 -0.015629148 -0.025654586 0.07919236 0.004109564
0.016754016 -0.035382647 0.026161257 -0.23536484 -0.35970852 -0.07600806 -0.3857678 0.056464028
-0.009276498 0.04837598 -0.0067492956 -0.015779156 0.004089294 0.02730454 -0.044886205 0.097357355
0.064099886 -0.032160003 -0.006818877 0.010911639 0.04928318 -0.040846348 0.10674278 0.057670858
-0.06462652 -0.05725026 -0.0121519305 0.029400581 0.054946084 0.060712732 -0.0043600695 -0.022165067
0.06235779 0.10033274 0.06851753 0.0022432026 0.07346028 0.0055123046 0.07948876 -0.04468329
-0.05919809 0.02291394 -0.0032937538 0.087988615 -0.38796344 -0.0006135587 -0.040325854 0.0027330401
-0.020978669 -0.033570692 -0.040703326 -0.0051190252 0.084836036 -0.31246027 -0.10307864 -0.039836984
0.09536388 0.07398172 -0.029747408 0.008162219 -0.03517966 0.019695558 0.0038405806 0.07453756
-0.0025538274 0.06624663 -0.10120612 -0.20404458 0.036646105 0.08687405 0.07428573 0.002120652
-0.0036725474 -0.034102403 0.10389558 0.08911515 0.09598469 -0.0046964325 0.08855182 -0.017963985
0.047443286 0.018467775 -0.023796879 0.097468905 0.061696336 0.07606304 0.07586512 -0.0309971
0.07790986 0.16170521 0.10034892 -0.039418057 0.035910845 -0.023797993 -0.011584347 -0.0053905984
0.07408073 0.009685586 -0.06648152 -0.04502424 -0.045425925 0.021225363 -0.024382956 -0.03450727
0.03067655 -0.01804164 -0.24391884 -0.05952131 0.09304746 0.020756302 0.027207395 -0.0006189588
00000000: 2a8a bf3d ee6c 823d 59d9 1cbf 70d2 2b3d
00000010: a6b0 793d 4ec2 903c 72c0 943a 7a12 3cbd
00000020: b521 fa3d 2414 0dbc 6179 963c a2a6 113e
00000030: 896a bd3d 65d9 863d 27a6 073d ba09 ec3b
00000040: aa07 863d c388 1cbd d688 00be ccda a2bc
00000050: 16c8 5abd bb7e 67bc 1572 c9bc 163e 403c
00000060: 7ffe 8dbe b6d5 a5ba 27c6 1d3d 23b4 be3d
00000070: 2f0b 3f3e bd65 3fbd d8f6 e83b 64c5 5dbd
00000080: 95e7 3abc 8701 953d 3660 863d 4ca8 9c3d
00000090: 1def c7bb 570e 28bd 6282 1fbd 4914 583d
000000a0: e480 c5b9 49cc 7bbb 5661 043e e180 573d
000000b0: a869 963d f714 183e 06e4 25bd 890f 08bd
000000c0: 5571 0ebc 05ea c2bc e777 08bd 3a4a c43d
000000d0: 32a4 733c ecc4 34bd 469f 863c 5cff 3ebd
000000e0: 7e16 7bbd 97b0 5dbc 9662 cd3d 8e83 abbc
000000f0: 76bc 8e3d 6b6e 63bb 00d6 a33b 3ec6 8d3d
00000100: 3971 b8bc a516 4a3c 8fad 95bc b725 6a3d
00000110: f1eb 5c3d d6d1 93bc 0d00 2ebd 3fcb 153d
00000120: f5f4 b7bb d86e 8f3d 2d76 ea3c b4ef 843d
00000130: c6df 1abd 7ffe 19bd d71a 013d 00a1 ac3d
00000140: 6519 973d 58fa 983c 0897 b93d 7b58 a13d
00000150: 6bd2 2dbd 3878 19be 53ab 2c3d 9ebc 883c
00000160: d70a 833c a844 393c 1cf3 43bc 6f09 9c3d
00000170: 22b2 5d3d 03bd 06be abdd 3ebd cb1a 7cbc
00000180: db76 2c3d 1cd5 18bc fe65 af3a 6c74 b43d
00000190: 70ad 8cbb df16 b23d 7452 343a 0bad 343d
000001a0: 8289 203c 7f28 833d 50a6 503d ac23 0ebd
000001b0: cf40 2b3c c6a0 2ebd 274b 873d 63f3 f2bc
000001c0: c10d 3c3d 170e a2be 6013 053b a172 5ebd
000001d0: d203 223d 80f6 26bc 656c 973b 99f8 aebc
000001e0: 14f0 fd3c 6355 233d b745 44bd 9e83 de3d
000001f0: 87a6 933d 0332 86bc dc66 b13d bdb8 8c3c
00000200: e83f 423d 918a 3cbd 9827 b9bc a337 a53d
00000210: a2c0 b53d 2a6d a13d 1db5 b83d 21d6 943d
00000220: a7c5 12bd b89c 603d e703 29bd f836 5bbd
00000230: b308 80bc 9129 d2bc 9b2f a23d 85a9 863b
00000240: b83f 893c 65ed 10bd 2250 d63c 7b03 71be
00000250: b72b b8be 1daa 9bbd 5b83 c5be d346 673d
00000260: 74fc 17bc e425 463d 3229 ddbb 4a43 81bc
00000270: 7cff 853b c5ad df3c 99da 37bd 4b63 c73d
00000280: cd46 833d 35ba 03bd e370 dfbb bbc6 323c
00000290: 29dd 493d 804e 27bd f59b da3d 4738 6c3d
000002a0: e95a 84bd 407f 6abd e418 47bc 7dd9 f03c
000002b0: 250f 613d eaad 783d eade 8ebb 8493 b5bc
000002c0: e26a 7f3d 407b cd3d eb52 8c3d b202 133b
000002d0: 5872 963d 90a0 b43b 01cb a23d d305 37bd
000002e0: b279 72bd 04b6 bb3c 05dc 57bb 6033 b43d
000002f0: 25a3 c6be 3ad7 20ba b92c 25bd ce1c 333b
00000300: 75db abbc 6c81 09bd 88b8 26bd 7fbd a7bb
00000310: 84be ad3d cbfa 9fbe e51a d3bd 1b2c 23bd
00000320: 234e c33d ba83 973d d6b0 f3bc d4ba 053c
00000330: 8c18 10bd 9458 a13c 40b2 7b3b 26a7 983d
00000340: 1d5e 27bb 50ac 873d 2745 cfbd 10f1 50be
00000350: 3a1a 163d 06eb b13d 1e23 983d a3fa 0a3b
00000360: 1faf 70bb f6ae 0bbd 35c7 d43d 0182 b63d
00000370: 9f93 c43d 88e4 99bb a85a b53d 3529 93bc
00000380: e453 423d bb49 973c acf1 c2bc c79d c73d
00000390: 4cb5 7c3d f0c6 9b3d 2c5f 9b3d a1ed fdbc
000003a0: 348f 9f3d 0d96 253e bc83 cd3d d474 21bd
000003b0: 4017 133d 02f4 c2bc 46cc 3dbc 9ea3 b0bb
000003c0: a3b7 973d 4bb0 1e3c 7727 88bd 566b 38bd
000003d0: 8910 3abd d0e0 ad3c c4be c7bc 7f57 0dbd
000003e0: 634d fb3c 10cc 93bc dcc5 79be 9ecc 73bd
000003f0: ab8f be3d 1f09 aa3c 0be2 de3c 9f41 22ba

sl_fc_a.weight f4 [2, 256]
-0.01799115 -0.025983483 0.1657392 -0.024457773 -0.13324013 0.08840289 0.0014102476 -0.018760143
0.06513096 -0.047310404 -0.015728503 0.11088063 -0.009668176 -0.1117596 0.13799857 -0.02308062
-0.076045536 0.43676916 -0.15209936 0.048116714 -0.17234853 0.0015998834 -0.033991784 0.034622718
-0.23012292 0.0017464147 0.0404981 0.07797032 -0.46593714 -0.005072381 0.019226056 -0.09971394
0.04942248 0.013505667 -0.109125406 0.17028041 0.005395828 0.04988572 -0.015606174 0.038418736
0.014221812 0.010386358 0.15649247 -0.03885377 -0.03946373 0.010716046 -0.05261459 -0.1371167
0.010002769 -0.120602995 0.03446515 0.008397288 -0.042408343 0.050616346 0.010626776 0.0062092273
0.00458827 0.060918253 0.042048518 0.045167815 -0.05243623 0.0006787828 -0.05945988 -0.120996974
-0.0480713 0.090131015 -0.052801795 0.033319723 -0.10172264 0.060762577 0.0061626695 0.009741178
-0.00027830238 -0.0625538 0.26327598 -0.036355134 0.007222087 0.02785898 -0.038963933 -0.0636123
-0.012454299 -0.0038996993 -0.036176585 -0.03181349 0.019791793 -0.21283747 -0.05810045 -0.15779835
-0.0062060705 0.17505237 0.051336605 -0.10075351 0.015482931 0.24838497 -0.12596828 0.044502795
0.022401238 0.020403247 -0.0037168527 -0.036438417 -0.05980601 -0.01961901 -0.035736255 -0.0068751317
0.0363167 -0.025020765 0.023416482 0.056027755 -0.24173668 0.01011336 0.018376676 -0.03823601
-0.07189675 -0.24319033 0.0043497756 0.031547457 0.12259005 0.026858663 0.003080027 -0.04413663
0.010101278 0.031552967 0.05472614 -0.09243557 -0.09209126 -0.03181128 -0.09768001 -0.048570987
0.021150574 -0.11145662 -0.009351516 -0.11484515 -0.024339579 -0.007816777 0.06305358 -0.08193997
-0.017617865 -0.006052387 -0.0099865375 -0.011300936 0.034963727 0.082928896 -0.022302652 0.016642386
-0.07982443 -0.03406199 -0.06296842 0.03434065 0.099396646 -0.007923324 0.062258422 0.023638448
0.04043328 0.019948132 0.019114966 -0.027158303 -0.019697478 -0.008105489 0.012428772 -0.08473019
0.05064122 0.03219052 0.03110606 -0.022669492 0.0035378519 0.032955367 -0.025810633 0.07230938
-0.15044847 -0.0435123 -0.022370419 -0.07845075 0.1681634 -0.074143596 0.024023226 0.025578924
-0.02025925 -0.0067222696 -0.094331 0.008146996 -0.016313775 0.009473629 0.008884258 0.02768281
0.046869516 -0.020898102 0.058353703 -0.09124295 0.34606203 0.012330923 0.047763404 0.041752517
0.047840137 0.05935838 0.020865122 -0.02420355 -0.09128089 0.16441555 -0.11216866 0.026473599
-0.037600134 -0.05623781 0.021968197 0.004556955 -0.0042721457 -0.018602498 0.03001908 -0.024778998
0.029275423 -0.09834815 0.04165965 0.17136508 -0.043437935 -0.011756279 -0.06690786 -0.011581276
-0.057229303 -0.017524984 0.02545147 0.02213012 -0.023112312 0.08707776 -0.04359652 -0.04994321
-0.009472597 -0.06147177 0.009244314 -0.035378736 0.023364406 0.04428201 -0.009513302 -0.002684238
0.045169417 0.051987067 0.01723307 0.005465703 -0.02141473 -0.04654913 -0.012808797 -0.0016810999
0.02371563 -0.028892897 0.009771057 -0.022546884 0.0332021 -0.039288614 0.023968995 0.050033513
0.036651656 -0.02926499 -0.15172745 -0.32209304 0.018528502 -0.028025476 -0.03116312 0.029883677
00000000: 2d62 93bc 50db d4bc 89b7 293e ab5b c8bc
00000010: 1a70 08be 930c b53d 0fd8 b83a dfae 99bc
00000020: 6163 853d 8ec8 41bd 10d9 80bc 6215 e33d
00000030: 4567 1ebc 38e2 e4bd 7f4f 0d3e 9213 bdbc
00000040: c3bd 9bbd 35a0 df3e efbf 1bbe 0816 453d
00000050: 227c 30be 2eb3 d13a f83a 0bbd 8dd0 0d3d
00000060: 58a5 6bbe f4e7 e43a 56e1 253d e7ae 9f3d
00000070: 508f eebe 3736 a6bb f67f 9d3c d236 ccbd
00000080: 3a6f 4a3d e046 5d3c 247d dfbd fd5d 2e3e
00000090: 7ccf b03b f854 4c3d 0ab1 7fbc f75c 1d3d
000000a0: 9a02 693c 8b2b 2a3c 903f 203e 2125 1fbd
000000b0: b8a4 21bd 5b92 2f3c 6582 57bd 5268 0cbe
000000c0: a7e2 233c b4fe f6bd 542b 0d3d c794 093c
000000d0: 5fb4 2dbd 1653 4f3d ee1b 2e3c c676 cb3b
000000e0: 3359 963b 6b85 793d 113b 2c3d e301 393d
000000f0: 5fc7 56bd 58f0 313a 348c 73bd 43cd f7bd
00000100: 69e6 44bd 9c96 b83d b246 58bd 437a 083d
00000110: f653 d0bd 2ee2 783d 38f0 c93b 7699 1f3c
00000120: 1de9 91b9 351c 80bd 1ccc 863e 1fe9 14bd
00000130: 42a7 ec3b 8438 e43c a598 1fbd 2a47 82bd
00000140: 1e0d 4cbc 1992 7fbb e62d 14bd dd4e 02bd
00000150: 6622 a23c 11f2 59be bdfa 6dbd e495 21be
00000160: 4b5c cbbb ee40 333e 5546 523d db57 cebd
00000170: 1fac 7d3c a158 7e3e d4fd 00be 9048 363d
00000180: cd82 b73c b624 a73c 7196 73bb 7340 15bd
00000190: 26f7 74bd 0cb8 a0bc 2e60 12bd c948 e1bb
000001a0: d2c0 143d 59f8 ccbc ecd3 bf3c 5c7d 653d
000001b0: d289 77be 82b2 253c af8a 963c 5d9d 1cbd
000001c0: 9a3e 93bd e306 79be 9088 8e3b e837 013d
000001d0: 7e10 fb3d b306 dc3c 47da 493b 9cc8 34bd
000001e0: d57f 253c af3d 013d 8428 603d dc4e bdbd
000001f0: 589a bcbd 8b4c 02bd 750c c8bd 5ff2 46bd
00000200: f843 ad3c 5e43 e4bd 1a37 19bc ef33 ebbd
00000210: cc63 c7bc f011 00bc 3c22 813d 25d0 a7bd
00000220: 5753 90bc 1a53 c6bb 939e 23bc 9027 39bc
00000230: 2036 0f3d a0d6 a93d 0db4 b6bc 9d55 883c
00000240: fe7a a3bd 9684 0bbd 96f5 80bd c8a8 0c3d
00000250: 7890 cb3d d4d0 01bc b002 7f3d 6ba5 c13c
00000260: 5e9d 253d 446a a33c fd96 9c3c 177b debc
00000270: 9b5c a1bc e3cc 04bc 0ca2 4b3c 0687 adbd
00000280: 2b6d 4f3d 35da 033d 23d2 fe3c 5fb5 b9bc
00000290: 4edb 673b 35fc 063d d270 d3bc f116 943d
000002a0: 2a0f 1abe f439 32bd 2b42 b7bc c9aa a0bd
000002b0: 0733 2c3e 99d8 97bd 5bcc c43c e48a d13c
000002c0: baf6 a5bc 7c46 dcbb 9c30 c1bd fa7a 053c
000002d0: 77a4 85bc 4837 1b3c 478f 113c 0fc7 e23c
000002e0: 40fa 3f3d 7f32 abbc 4b04 6f3d 95dd babd
000002f0: 0b2f b13e a407 4a3c 8fa3 433d b004 2b3d
00000300: 05f4 433d c621 733d 55ed aa3c 8646 c6bc
00000310: 7af1 babd 8d5c 283e afb8 e5bd 29df d83c
00000320: 9902 1abd 9e59 66bd a6f6 b33c 8252 953b
00000330: 5bfd 8bbb 4464 98bc 93ea f53c 53fd cabc
00000340: 03d3 ef3c c16a c9bd 4fa3 2a3d 547a 2f3e
00000350: faeb 31bd 689d 40bc fd06 89bd 64bf 3dbc
00000360: 4669 6abd 8e90 8fbc 9a7f d03c 3a4a b53c
00000370: 0856 bdbc d355 b23d 4492 32bd 4091 4cbd
00000380: f432 1bbc d3c9 7bbd 7775 173c 4be9 10bd
00000390: b666 bf3c 0e61 353d aedd 1bbc 0aea 2fbb
000003a0: 9103 393d 64f0 543d 5e2c 8d3c a419 b33b
000003b0: f26d afbc 4daa 3ebd fddb 51bc 5a58 dcba
000003c0: 4847 c23c ccb0 ecbc c916 203c 3eb4 b8bc
000003d0: edfe 073d 19ed 20bd a05a c43c f1ef 4c3d
000003e0: 0c20 163d 22bd efbc 715e 1bbe 61e9 a4be
000003f0: 16c9 973c af95 e5bc cd49 ffbc 9dce f43c

sl_fc_a.bias f4 [2]
-0.004606357 -0.043619134
00000000: ecf0 96bb faa9 32bd
