models/cartpole_dqn.pth (torch, 270460 bytes, 8 tensors)

fc1.weight f4 [128, 4]
00000000: 535f 843d e72d 473e 81b2 21bf 1d45 95be
00000010: 54e8 53be 3671 623e b667 db3e c015 b43e
00000020: 0e27 afbd 8774 833d d8e5 513e 61d9 39bb
00000030: cd9a ebbe 48d7 8dbe 7a95 a3be ff45 e03b
00000040: 2eb8 2c3e 7b28 863e a397 1ebf 6127 41be
00000050: eb08 02bb 06cc f43e c83b bc3d 0819 ae3e
00000060: 9667 febd a87e 373d bbef 2c3f 0157 e4be
00000070: 6bd3 99be 99de 0abd 5c50 bbbe f8ea c53e
00000080: 59ca a4be b35e 89be ab4b 07bf f45c d1be
00000090: daf6 dcbe dd0d b03e a11d 273f 5796 a53e
000000a0: 268d 793d 9b4b 98be 7d04 183d 684d d4be
000000b0: 100e a6be 0bcb 68be 67fa 113f 70bb 7e3e
000000c0: 6667 6cbe 3a20 823c 9b71 1a3f a832 de3e
000000d0: 56de 5f3e 8e47 e33c 0a1f e83e 6625 99be
000000e0: 90e2 b83d 0332 bfbe d196 22bf 6258 81be
000000f0: aff4 973e ee9a 623e 816b 05bf fa46 cd3d
00000100: e1cb 113e 985d 303c 0f5d c93e ab9a 153d
00000110: 8d86 183e ba92 c83e 3523 05bf 5996 cabd
00000120: dcc9 f53d f0ec c43e c441 443f 0b43 f13e
00000130: 2271 bc3d fcc3 e0be a9b9 7d3e cf35 9dbe
00000140: e848 00bf 362f b83e 6154 273f e793 e3be
00000150: 1859 9e3e 7fd1 83bd e325 0ebf 2e63 8cbe
00000160: e610 383e 59ad 8abe a44c e13e 3ce4 5c3e
00000170: ef76 b83e 42dd 103e bb00 47bf 240e 92be
00000180: 55e5 993e b887 5d3d 2832 3bbf 12c8 82be
00000190: 4c4b 033f 49ff 963e 26f6 13bf 6c86 debd
000001a0: a779 fbbe 3601 90bd 569d 19bf 1a9b a5be
000001b0: 980a a4bd b172 fd3d 3d9b cfbe 6278 7f3e
000001c0: 186c c4be 4ac0 d93e 5535 343f 9a81 c1be
000001d0: fc53 f7bd d832 5f3d ba1f 343e 3a46 013e
000001e0: e924 023e 5cbc cc3d 783e c5be 2dba 5d3e
000001f0: 4597 0bbf 6f30 92be 63d0 a53c 793e 64be
00000200: 371d aebd 8407 b4be a25b c4be aab1 b03d
00000210: 03dc b9be ae0f 91bc 582e 1b3f 87ef 5bbd
00000220: 5734 863b 0ab9 9abc 99d3 da3e 0eed 9a3e
00000230: aa6a e73e 4f47 9d3e 3868 373f 2478 e7bc
00000240: 42c2 f8be 1b4f 44be 1219 483f b1ea 52bc
00000250: 447a 61be 47de c0be ca7f 39bf ff7b cfbe
00000260: 9189 dcbd 92ea 663e 5968 0e3f 0859 e8be
00000270: 2eb0 9f3e 8a52 c8be f07b d8bd 1c9a 4fbe
00000280: ac97 26be e2b6 f9bd 8655 fdbd cd88 c7be
00000290: 1b5f 933b 187f 8f3b 7a73 7cbd 3756 443e
000002a0: 984d f3be bff7 cebc a88f 393f 2f70 4fbe
000002b0: 22b0 c93e 7943 2c3e 1258 2bbf fc7c b63e
000002c0: 14ba f43c f472 7fbe e80a 1d3f d0d3 c8be
000002d0: 32ad 363d 9d15 0ebd 85d4 393f 3710 b73d
000002e0: ae14 733e c8d7 e43d 643f 823d a568 06bd
000002f0: b6fb dfbe e545 923e 2a54 623f 2edb b13e
00000300: a912 6ebe 7d32 7c3c 81dd 51bf 329c 9fbe
00000310: a273 36be c6fa 163e 7da0 3fbf d10b 25bd
00000320: 5759 8a3d c273 833e 1a72 2ebf c4c9 95be
00000330: 5ef4 acbe 5861 b33e aeb7 46be b004 e33e
00000340: 3cfb a23e 17d4 853d 1acb d8be f073 06be
00000350: b67e 673d 4835 c4bd e294 7f3d c722 693d
00000360: b372 c5be fb0d 70be 5568 1e3f 5939 dfbe
00000370: 3fae 7cbd 92c1 fd3e 95d8 e63e cead f93b
00000380: b0df debe d263 6e3e 296e 02be 1fb2 c1bd
00000390: b71e 15be 1661 aebc e4ba 81bd c4f2 c83e
000003a0: 528c a1bd 04e7 be3e 62df 093f 7d1a 8dbe
000003b0: 9762 413e c6ed a7be a96c 56be b8f3 163e
000003c0: d31d 3c3e 37ee a13e 0542 f3be 1d23 343d
000003d0: 7acb 833e 5a93 f7be 4215 b93e 30b1 d3be
000003e0: acf7 44bc ed8e 9bbd 96a4 f2be 0084 c53d
000003f0: 7f23 d73e 98b7 26be 8db0 03bf 78ff 25be
0.06463494 0.19451104 -0.63163 -0.29154292 -0.20694095 0.22113499 0.42852563 0.35172844
-0.08552371 0.0641871 0.20497835 -0.0028358328 -0.4601654 -0.2770331 -0.3194998 0.0068442817
0.16867134 0.2620276 -0.6195013 -0.18862678 -0.0019841741 0.47811908 0.0919109 0.34003472
-0.12422101 0.044798523 0.675533 -0.4459763 -0.30044112 -0.033903692 -0.36584747 0.3865583
-0.3218563 -0.26830062 -0.52849835 -0.4089123 -0.43157083 0.34385577 0.65279585 0.32341263
0.060925625 -0.29745182 0.037113655 -0.41465306 -0.32432604 -0.22733705 0.5702271 0.24876189
-0.23086318 0.015884507 0.603296 0.43398023 0.21862158 0.02774408 0.4533618 -0.29911345
0.09027588 -0.37342843 -0.6351138 -0.25262743 0.29678866 0.22129413 -0.5211716 0.10023303
0.1423793 0.010764502 0.3932881 0.036524456 0.14895077 0.39174443 -0.52006847 -0.09891958
0.12001392 0.3846202 0.7666285 0.47121462 0.09201266 -0.43899524 0.24777855 -0.30705115
-0.50111246 0.3597352 0.65363127 -0.44448778 0.30927348 -0.064364426 -0.5552656 -0.27419418
0.17975196 -0.2708538 0.44003785 0.2157144 0.3602824 0.14146903 -0.7773549 -0.28526413
0.3005778 0.05408451 -0.7312341 -0.25543267 0.5128677 0.29491642 -0.5779747 -0.10865483
-0.4911625 -0.07031481 -0.600057 -0.32344896 -0.08009833 0.12375391 -0.40548125 0.24948266
-0.3836372 0.42529517 0.7039388 -0.3779419 -0.120765656 0.054491848 0.17590228 0.12624446
0.12709393 0.09996864 -0.38524222 0.21653052 -0.54527694 -0.28552577 0.020240968 -0.22289456
-0.08501666 -0.35161984 -0.3835116 0.08627637 -0.36300668 -0.017707672 0.6061759 -0.053695228
0.004095595 -0.018887062 0.4273956 0.30258983 0.45198566 0.30718467 0.716434 -0.02825553
-0.48585707 -0.19170801 0.78163254 -0.012873338 -0.22019297 -0.37669584 -0.72460616 -0.4052429
-0.10768426 0.22550419 0.5562797 -0.45380425 0.31189102 -0.39125472 -0.10570514 -0.20273632
-0.16268796 -0.12193085 -0.12369828 -0.38971558 0.0044974214 0.0043791644 -0.061633565 0.19173513
-0.47520137 -0.025264619 0.7248483 -0.20257638 0.3939219 0.16822614 -0.6693126 0.3564223
0.029873885 -0.24946195 0.61344767 -0.392241 0.044598766 -0.03468858 0.72589904 0.089386396
0.23738357 0.111739695 0.06359747 -0.03281464 -0.43746728 0.2856895 0.88409674 0.34737533
-0.23249306 0.015392897 -0.81978613 -0.31173855 -0.17817548 0.147441 -0.7485426 -0.040294472
0.067553215 0.25674254 -0.68142855 -0.29255497 -0.33780187 0.35035205 -0.19406006 0.44339514
0.31832302 0.065345936 -0.42342454 -0.13130164 0.056517325 -0.09580475 0.062397845 0.056917932
-0.3856407 -0.23442833 0.6187795 -0.4359844 -0.06168961 0.49561745 0.45087114 0.007619596
-0.43530035 0.23280266 -0.12737335 -0.09457802 -0.14562498 -0.021286529 -0.06334475 0.39247715
-0.07888092 0.37285626 0.5385648 -0.2755927 0.18885265 -0.32798594 -0.20939888 0.14741409
0.18370752 0.31627056 -0.47511306 0.0439788 0.25741178 -0.48354608 0.3614903 -0.4134612
-0.01202194 -0.0759562 -0.47391194 0.096443176 0.4201927 -0.16280973 -0.5144127 -0.16210735

fc1.bias f4 [128]
00000000: 30fe 22be 0582 46be 908f 3b3d c021 0d3e
00000010: 821e 86be e293 853d b15c 793e 7bec b2bd
00000020: 974b 2e3e fe18 f4bd ec83 333e c69b cebe
00000030: d331 abbe ae09 86be 5247 e63e 1814 85bd
00000040: a082 05bd 4e0c abbe 8e23 f53e a119 003f
00000050: 77f1 e8be 3447 a6be 515b d3be 882d fcbc
00000060: d93f 12be 8ea1 a4be e6ab 79be 4f6b 9f3d
00000070: 24e1 85be 676a 0f3e 33bb 11be 151c 0ebe
00000080: 50a2 1c3d ae37 cf3e c58d b1be 569a 3c3d
00000090: 12aa 31be 20ac fe3e b5cc 06bf d26a f5be
000000a0: 615d 013f 2095 b7be f8f8 013e a7d7 b03c
000000b0: 58eb acbd b99d f9bd cfb0 a33e 9968 69bc
000000c0: a032 e5be 9306 8dbe 9bf5 40be 0083 713e
000000d0: eec5 85be 9632 f93e 9678 7ebd 869d e5bd
000000e0: 5e71 c73e d341 733e c17c ec3e 04f6 8b3e
000000f0: 5f31 34be 54d9 a9be 5a72 a83b 5c37 ce3e
00000100: fcb2 9dbe fc26 cbbe c592 3a3e 1bd1 eb3e
00000110: ca90 29be c664 efbe 777f fcbe 92eb 083e
00000120: 0a53 b7bc 7556 86be 1309 623d e1f7 473e
00000130: 4e25 d63e 5709 d23e 3723 afbd 0361 06bf
00000140: d853 e7be ec62 f03e 3426 923e d9b7 4d3e
00000150: 2a3c e9be 28e7 fe3e fc68 fe3e a69a f13e
00000160: 30f5 d7be 9e0f dfbd a1c7 ecbe 7a8a e43e
00000170: 8e66 50be 7d62 48be 5f2c 8f3e c079 81be
00000180: bf03 30be 4cd1 a2bd 17b5 f0bd 01fd e2be
00000190: 66ca d43e cf10 91be 09e4 2d3e ebad de3e
000001a0: a000 8a3e cb72 e0ba d884 db3e d831 cd3d
000001b0: cacc 5dbe c2ac fe3e 0625 c03d 6f5b d4be
000001c0: 16f7 26be 7efd e0be cfd6 d53e 02f6 94bd
000001d0: 821f 03bf 7181 dbbd 76dc 973e 0808 0d3e
000001e0: 04bd 083e 216d 9b3d 5760 4d3e fad3 f2bd
000001f0: 8b33 90be 459e f9be 86b4 dbbe af9e 6a3e
-0.15917277 -0.19385536 0.04579121 0.13782406 -0.2619515 0.06522347 0.24351765 -0.08736511
0.17021023 -0.119188294 0.17530793 -0.4035322 -0.3343645 -0.2617926 0.44976288 -0.06497973
-0.032595277 -0.33407825 0.4787869 0.50039107 -0.45496723 -0.324762 -0.41280606 -0.03078343
-0.14282168 -0.32154506 -0.2438198 0.07784139 -0.2614833 0.14005433 -0.14231567 -0.138779
0.03824073 0.40472168 -0.34678474 0.046045624 -0.17350033 0.49740696 -0.5265611 -0.4793306
0.5053311 -0.3585596 0.1269263 0.021587206 -0.08443326 -0.12188286 0.31970832 -0.014246129
-0.44765186 -0.27544078 -0.18843691 0.23585129 -0.2612757 0.48671407 -0.06212672 -0.11211686
0.3895368 0.23755579 0.4618893 0.27336133 -0.17596959 -0.3317362 0.005140585 0.4027661
-0.30800617 -0.3967818 0.1822005 0.46057972 -0.16559139 -0.46756572 -0.49315998 0.13371113
-0.022378463 -0.26237836 0.055184435 0.19528152 0.41825336 0.4102275 -0.085516386 -0.5249178
-0.45181155 0.4695047 0.28544772 0.20089664 -0.45553714 0.49785733 0.49689472 0.471883
-0.4217925 -0.108916506 -0.46246055 0.446369 -0.20351622 -0.1956882 0.2796354 -0.252882
-0.17188929 -0.079500765 -0.1175329 -0.44333652 0.41560668 -0.28333136 0.1698152 0.43492064
0.26953602 -0.0017124055 0.4287479 0.100192726 -0.21660152 0.4974118 0.09382062 -0.41476008
-0.16305193 -0.439434 0.41765448 -0.07273485 -0.5121995 -0.10718048 0.29660386 0.13772595
0.13353354 0.07589174 0.20056282 -0.118568376 -0.28164324 -0.48753563 -0.42911166 0.22912095

fc2.weight f4 [256, 128]
00000000: 5f77 4cbd 198e ae3d 3b30 b33c 832e 603c
00000010: 359c edbc 2dca a13d 35c5 74bd 74c2 ef3c
00000020: d15e bdbd db3f 293e 7ddc 583d 22d0 96bc
00000030: 424f e13d a374 273d f832 85bd c032 943c
00000040: 52e0 853e 0f97 163e 5355 3c3c 3a3d 883d
00000050: fca6 0dbd c1c9 72be ac9c 993d 710a 8bbd
00000060: 5947 b83c 235a 053e 540d 1abe a1f1 253d
00000070: b51b 1bbd 84b0 b53d 8227 6fbe f673 62be
00000080: cff3 4bbc 8b33 853d 74c6 183d f9ed c53d
00000090: ee07 cf3d 3d62 07bc 589b b53d 78ea c3bc
000000a0: 41fd 923d 6428 43be d7e4 c73a 2fe9 3abe
000000b0: 7139 1f3c 591f 993e a56b 153c 086d 5a3c
000000c0: 565c 2bbe feb8 60bd c0d1 2e3d eb24 7abd
000000d0: 354b 9a3c ede9 ea3d b609 73bd 9ff0 b5bd
000000e0: 2de8 533d 1366 17bd 1955 ce3c 1f46 373d
000000f0: 004f 7c3c d81e fc3c d784 63be 6f59 183d
00000100: d188 2cbe 41aa 29be 17db 313d b2b4 b03d
00000110: 9102 9abd 5e30 03bd afce 86bd 5efc e8bc
00000120: ab72 6ebe d18c 87be afed 1b3e 8db5 72bd
00000130: 9c56 3f3d 1cac 083d 95c0 b63d cd7e 9a3d
00000140: 4fcf 923d 880c 0ebd 8c81 85bc 2ba5 95bd
00000150: 5c56 0dbe f556 7b3d da16 de3d 6bc6 71bd
00000160: 7e1b 5b3d 58dc 07bf 7c89 bcbd 7af9 873d
00000170: 19a5 31be 460f 90bf 3cea c9bb 3f06 a03d
00000180: de8f 813c 45cf bbbd 2770 2dbd 28ec 3bbe
00000190: 4e07 2ebd d947 663d 276e 533d 4c89 1fbc
000001a0: 8472 943d 1d5b b93d ddff ab3d 638c 48be
000001b0: 7550 08bf 37d1 143c c4ed 7abd c2ed 6b3a
000001c0: 19c0 f03d 3fab bbbd 93ad 263c 78fd e9bd
000001d0: 3380 de3d fa70 ac3d 7b92 dbbc 6290 d9bd
000001e0: a491 513b a981 2f3d 1ff0 9cbd 6a92 a83e
000001f0: 9b03 6a3d 93bd 8abd e008 4fbd 666e ab3d
00000200: eaf9 24bd 9ca1 d3bc 1952 dd3c 5bd7 86bd
00000210: 64b3 b93d ef36 663e c0db 963c f7db 0ebe
00000220: 26f0 f83d fea5 02be 7822 b33d f7b8 adbd
00000230: 6548 a1bd 95fe bfbb 0ac4 9b3d b282 f23d
00000240: db00 7abd fe92 debb 4c90 a5be eba9 96bd
00000250: e435 52bd ab9c f63d 00f0 9cb8 af00 9a3d
00000260: a7a7 173e 95ea 843d 3e8f 213a 43a4 583d
00000270: 573e d5bd 6174 d6be a039 69bc a24d 80bd
00000280: 13a8 bf3d 2922 f5bd 2d4f 903d 768c 17be
00000290: 4e45 0d3a 6bdc 023e 9600 df3c 20b7 51bd
000002a0: c669 193d 580f 2b3c b6ab 34be bcfa 15bc
000002b0: c0f2 9ebd c4bf 7bbd 8cfa bb3c 67a0 1f3d
000002c0: 507b b53d 6330 8b3e d960 b33c 86f4 04be
000002d0: 2d10 273e ed00 c7bb 9a2d e8bd 8f25 cebd
000002e0: 9be2 82bb 3678 97bd f831 d1bc ce4d 6f3c
000002f0: 6619 3b3d a044 5a3b 58ca 433e 8c16 053d
00000300: d26e bf3c c5ac 06bd bb13 b0bd 46b0 6d3d
00000310: 7c40 0c3d 98fd 10bd 6cd0 f4bc 6942 b83c
00000320: 4b9e 85be cf1f d43d f38f 913e 50b1 103e
00000330: 6d61 88bd cf92 263d f1f2 f2bb 8794 853d
00000340: 9048 853b f8aa 69bc 3a96 4b3d 7720 213e
00000350: ddd9 18bd 2805 a0be b523 18bd 3ca3 76bd
00000360: 80bd b93a bd96 a93e 2af5 6e3d e1ca d3bd
00000370: 0e84 5b3d 6dbf 063f 3deb a9be 9eaf a4bc
00000380: 58e3 243d 462f 96bd b40f 29be dd89 1ebd
00000390: d936 30bd c45e 9d3c 1fe7 9e3c c087 c33c
000003a0: bbb5 5bbe f4e5 8fbe c568 163d 3a4c e13e
000003b0: 1e21 813e 5ba9 9d3d cda8 b2be c174 083d
000003c0: 78b6 9fbd efd5 a6bd ed5f 38bd da11 663d
000003d0: 99dd d43b 0cd6 6a3c 55ab 313d 3de9 73be
000003e0: b83d 023d 7486 abbd 63f4 313e a508 a13d
000003f0: bc50 be3c c2b5 7e3d c817 1bbd 41af 01bd
-0.04991853 0.08523197 0.021873584 0.013682964 -0.02900515 0.0789989 -0.059758384 0.029267527
-0.092466004 0.16528265 0.05294465 -0.018409792 0.11001445 0.040882718 -0.06503862 0.018090606
0.26147705 0.14706062 0.011494952 0.06652303 -0.034583077 -0.23709776 0.07500586 -0.06789101
0.022494959 0.13022666 -0.15044147 0.04051364 -0.03786822 0.08871558 -0.23354915 -0.22114548
-0.012448265 0.06503972 0.037298635 0.0966453 0.10108934 -0.008263168 0.0886752 -0.023915514
0.071772106 -0.19058377 0.0015250695 -0.18253015 0.009718285 0.2990673 0.009119903 0.013331659
-0.16734442 -0.054863922 0.042680502 -0.061070364 0.01883469 0.11470399 -0.059335433 -0.088837855
0.051735092 -0.03696258 0.025187062 0.044744607 0.015399694 0.030776426 -0.22218643 0.037194666
-0.16849066 -0.16568853 0.04342183 0.08628215 -0.07520021 -0.03202855 -0.065823905 -0.02844065
-0.2328593 -0.26474622 0.15227388 -0.05925517 0.046713457 0.03336726 0.08923451 0.075437166
0.07168447 -0.03467992 -0.016297124 -0.07306894 -0.13802475 0.061362226 0.10844202 -0.059027117
0.053493015 -0.5307059 -0.092059106 0.06639381 -0.17348136 -1.1254661 -0.006161956 0.07813691
0.015815672 -0.09170393 -0.042343285 -0.18351805 -0.042487435 0.056220863 0.05161872 -0.009737324
0.072484046 0.090505816 0.083984114 -0.19584803 -0.5324777 0.009083084 -0.061261907 0.0008999967
0.1175539 -0.09163522 0.010173219 -0.114252985 0.10864296 0.08419986 -0.026803246 -0.10623242
0.0031977678 0.042848263 -0.07662987 0.32924205 0.057132345 -0.0677444 -0.050545573 0.08370666
-0.0402774 -0.025833897 0.027016686 -0.065840445 0.09067419 0.22481893 0.018415332 -0.13951097
0.1215518 -0.12758633 0.08746809 -0.08482545 -0.07875136 -0.005859206 0.07605751 0.118413344
-0.061035972 -0.006792425 -0.32336652 -0.07356628 -0.051320925 0.12041601 -7.483363e-05 0.07519662
0.14810048 0.064900555 0.00061630073 0.052891027 -0.10412281 -0.41885665 -0.01423493 -0.06264807
0.093582295 -0.11969406 0.070463516 -0.14799675 0.00053890503 0.12779395 0.02722196 -0.051200032
0.03745439 0.01044067 -0.17643628 -0.009154018 -0.07761145 -0.06146218 0.022946618 0.03897133
0.088614106 0.27185354 0.021896766 -0.12983903 0.16314764 -0.0060731084 -0.11336823 -0.100657575
-0.0039942986 -0.07395975 -0.025536522 0.014605952 0.04567852 0.0033305064 0.19120157 0.032492206
0.023368273 -0.03287961 -0.08597513 0.058029436 0.034241185 -0.035398096 -0.02988454 0.022492604
-0.2609733 0.103576295 0.28430137 0.1413014 -0.066592075 0.04066735 -0.007414215 0.0652247
0.004067488 -0.0142619535 0.049703814 0.1573504 -0.037317146 -0.31253934 -0.037143428 -0.060214266
0.0014170855 0.33122817 0.058339275 -0.103414305 0.053592734 0.5263584 -0.33187285 -0.020103272
0.040255874 -0.073332354 -0.16509897 -0.038705695 -0.043021057 0.019210227 0.019397317 0.023868442
-0.21456043 -0.28105128 0.03672101 0.4400347 0.2522058 0.076983176 -0.3489441 0.03331447
-0.07798475 -0.08146273 -0.045013357 0.05616937 0.006496143 0.014333259 0.043376286 -0.23819442
0.03179714 -0.08375254 0.17378382 0.07862977 0.023231857 0.062185057 -0.037864476 -0.031661276

fc2.bias f4 [256]
00000000: 10eb f0ba 1c07 a7bd bb5f 453c af2d 663d
00000010: 5821 003e 55dd 443d e638 463d 917a da3d
00000020: f3c2 eabc 9876 d8ba d4d4 c13d 5c1b bdbd
00000030: 7704 fb3a 171d d1bc b3ab 8cbd a2c4 d4bc
00000040: 22eb 593d 07f5 c13d aff0 bd3d 7b5e 94bc
00000050: a0e2 ac3c e4d6 953d 9c18 a4bc 5a9b 8c3d
00000060: 5846 af3d 86be cfbd 70be 8dbc bd9d 22bd
00000070: 3c90 373d 2f44 923d fb91 36bc ed1b 6e3c
00000080: b1f5 be3d e6d1 7e3d eefc 87bd 562b 033d
00000090: 606f 1abd 7ae8 703d 76cd 4a3d 3c9c 8e3c
000000a0: 810a c63c 89d8 bcbd ac4b c43d 5700 0e3d
000000b0: bf2c f8bc e41d 323d 62fb 6d3b da3f 093d
000000c0: 1520 c9bc eeac 7b3d 1c78 d4bc 3752 943d
000000d0: 4c84 083e e4f9 2d3d c877 4fbd aa4f 7b3d
000000e0: 8a12 0d3e 1b62 9c3d 7439 743d a018 87bc
000000f0: b9ed 173d b266 033e 5e96 eb3d 061d 083d
00000100: 1493 f9bc b9ea e63d 4bdc 0ebd 64e8 51bd
00000110: 38fc 963d 57b1 613d bd45 cdbd 58b1 2cbc
00000120: 21e6 0f3c 5b3b 9d3d 01ea c13d 7cef ebbc
00000130: 8e1d a33d c8ef 69bc a6b7 e53d e626 ddbc
00000140: e86a 023c 3551 823c 39ec 913d 6eb3 ab3d
00000150: 8b61 2ebd d72d 1a3d 9ad7 bfbc e8f6 f0bc
00000160: 9e72 09bd 9059 eb3d 54b3 423d 32f6 08bd
00000170: d7c3 cb3d cd72 e9bc 99ae 333d ab9d a63c
00000180: d220 c0bd c3a6 713d 767a c13b d9d0 30bd
00000190: e393 9f3c 46eb c33a ced7 9dbd 1060 41bd
000001a0: c57c a13d 916a a93d b83b a6bd b4cf afbc
000001b0: 7888 89bd 79bd 5cbc d574 e73c 41b2 ad3b
000001c0: 681d c7bc c83b c8bc 0c08 063e 8246 ec3d
000001d0: 820f a4bd dd38 58bd 2cb4 c0bb 6c2c 92bb
000001e0: ebef 553d be18 21bd 561b a93c f3cc 7b3d
000001f0: 6be3 ad3c 67fc 1cbd f9a3 033d 920e ad3c
00000200: 0d37 c3ba 03b0 303c e340 f0bc 195a bc3c
00000210: 8846 9dbd 9bfc 69bc e366 c23a e5fa 373b
00000220: 1d53 903d e1a9 8dbd 878b ba3b ba84 073b
00000230: 6d77 a5bd 119c 923c ccd0 aabd 01dd 21bd
00000240: 5349 673d 7978 00bd b44f 08bd e78d 1bbd
00000250: 20ee 5d3b 9f13 cf3c de70 a4bd d05b 713d
00000260: 7a3e aabd 2cdd 3abd f471 d03d b769 3b3d
00000270: 15b8 dd3d acd1 a13d d2d4 b53d 48dc cb3d
00000280: 065b 373d e54b 72bd 2ac1 753d a6d8 3c3d
00000290: 76e8 dcbc c4ae 07b8 7ea8 0a3d cca7 343d
000002a0: 2ff3 63bc fd83 7fbd d670 993d c785 923d
000002b0: 5580 fb3a 1d63 e23d 494d e2bd 612e 3abd
000002c0: 882f fc3d d906 9e3d a183 b43c 45d8 233d
000002d0: fd9c a3bd ce27 a73d 815b 52bd ef28 993d
000002e0: a2fc bb3d 90fa 043d a21b d23d 93c3 26bc
000002f0: 51e3 d7ba 2f75 31bd ac17 d3bc 0ff0 0fbc
00000300: fcde 81bd 238a 16bc b563 763d 3fd7 c4bd
00000310: ff83 853d add4 873d 060a 99bd 411c c83b
00000320: b326 d33d 1ef1 5abd e79d da3d 2010 b3bb
00000330: 6f04 063c ec08 9abd 29e1 633d b405 9b3d
00000340: 53ce a43d 40ed e23c 8f4f 713d 71fc 753d
00000350: 65de 87bb 28eb 213d f69e 8e3d 488a 203d
00000360: 72b7 553d 452b 78bc 1edd 073d 5451 ec3d
00000370: 14a3 123d 237b 88bd 8537 aa3c 0153 bdbd
00000380: 5eec de3c 0e69 1bb9 488e 083c 9444 2abd
00000390: 5979 0a3d 9ea0 36bd 5067 c5bd 4215 a93d
000003a0: 99d6 08bc 7c3b c7bd c359 173d 294f b1bd
000003b0: 5956 86bc 53d1 a0bd f7dd e03b 8a29 95bb
000003c0: d9f8 76bd b4cc c43c 7dbf 0abd 1cd4 1bbd
000003d0: edc0 d23c 7111 0f3c 007c 23ba 4187 b3bc
000003e0: 7f4b 72bd c981 e3bb a106 c83d 7518 a1bd
000003f0: 75c1 d2bc 5c6a 37bd 93eb 713d efec f93c
-0.0018380601 -0.08155653 0.01204675 0.05619591 0.1251272 0.04806264 0.048394106 0.10667909
-0.028657412 -0.0016514836 0.09464422 -0.09233734 0.0019151111 -0.025526566 -0.068686865 -0.025972668
0.053202756 0.094705634 0.092744224 -0.018111458 0.021104157 0.07316378 -0.020031266 0.068655685
0.08558339 -0.10143761 -0.017302722 -0.039701212 0.044815287 0.07141911 -0.011143203 0.014533025
0.09324206 0.062211893 -0.066400394 0.03202375 -0.03770387 0.058815457 0.04951235 0.017408483
0.02417493 -0.09220988 0.09584746 0.034668293 -0.030294774 0.043485537 0.0036313166 0.03350816
-0.02455143 0.061444215 -0.025936179 0.07242244 0.13331717 0.042474642 -0.05065134 0.06135527
0.13776603 0.076359 0.059625104 -0.016491234 0.037091944 0.12832144 0.1150329 0.033230804
-0.03046564 0.112752385 -0.034878056 -0.051247016 0.07372326 0.055100765 -0.10023067 -0.010540329
0.008782894 0.07677337 0.09468461 -0.028800718 0.079646215 -0.01427836 0.11216669 -0.026996087
0.007960059 0.015907863 0.07125134 0.08383833 -0.042573493 0.037641373 -0.023418237 -0.02941461
-0.033556573 0.11491692 0.047534302 -0.033437915 0.09949463 -0.028497124 0.04386768 0.020338854
-0.0938126 0.058996927 0.005904491 -0.043167923 0.019479698 0.0014947436 -0.07707177 -0.047210753
0.07885126 0.08272279 -0.08116859 -0.021461345 -0.067154825 -0.013472908 0.028253952 0.0053007905
-0.024306014 -0.024442568 0.13089007 0.11536886 -0.080107704 -0.052788604 -0.005880853 -0.004460862
0.052230757 -0.039330237 0.020642918 0.06147475 0.021226605 -0.038326647 0.0321388 0.021125112
-0.0014893726 0.010784152 -0.029327815 0.02299218 -0.076794684 -0.014281417 0.0014831688 0.0028073129
0.070471026 -0.069171675 0.0056929025 0.0020678476 -0.08079419 0.017896684 -0.08340606 -0.039517406
0.05646641 -0.03136489 -0.033279136 -0.037977125 0.0033863857 0.02527791 -0.0802934 0.05892545
-0.08312698 -0.045621082 0.10177985 0.045755114 0.108261265 0.0790132 0.08878483 0.09954125
0.04476454 -0.05915441 0.05999867 0.04610505 -0.026966315 -3.234927e-05 0.033852093 0.044105336
-0.01391296 -0.062381733 0.07492225 0.07154422 0.0019188026 0.110540606 -0.11049897 -0.045454387
0.12313753 0.0771615 0.022035422 0.040001173 -0.079889275 0.08161889 -0.051356796 0.074785106
0.09179045 0.032465518 0.10259177 -0.010178464 -0.0016470944 -0.043324646 -0.025768124 -0.008785262
-0.06341359 -0.009188208 0.06015368 -0.096113674 0.06519317 0.066323616 -0.07472615 0.0061068838
0.10310116 -0.053452604 0.10674649 -0.0054645687 0.008179768 -0.07521233 0.05563465 0.07569447
0.08047166 0.02770102 0.058913764 0.0600552 -0.0041463845 0.039530903 0.06963913 0.039194375
0.0521769 -0.015147035 0.03316986 0.115389496 0.035800055 -0.066641115 0.020778427 -0.09244347
0.027212318 -0.00014821088 0.008334704 -0.041569307 0.033807132 -0.04458677 -0.09638846 0.08256008
-0.008351945 -0.097281426 0.036950838 -0.08657677 -0.016398596 -0.078524254 0.006862398 -0.004552071
-0.060295913 0.024023391 -0.033874024 -0.03804408 0.02572676 0.008732186 -0.0006236434 -0.02191508
-0.05915403 -0.006942962 0.09766889 -0.07865993 -0.025727013 -0.044779167 0.05906255 0.030508487

fc3.weight f4 [128, 256]
00000000: d8b4 b13c b06c d5bb e25c 66bd f0f2 203c
00000010: 10a9 04bc 20a1 f73b 405b ba3b 66e2 6ebd
00000020: 2a63 5ebd 1ca8 303d c0db 73bc b828 92bc
00000030: 80c0 203b 6655 58bd 8082 b3ba b495 063d
00000040: e488 a73c 44f7 47bd 40fe 9f3c 1c6e 213d
00000050: f2aa 283d 58b1 c4bc 7c8c a6bc b0bc 25bd
00000060: 58b4 cf3c c240 323d 8c4d 25bd f8fb d43c
00000070: b491 923c 7072 843b 38b8 483d 0805 0bbc
00000080: 9888 74bc 96bf 2ebd f8d3 503d 123b 053d
00000090: c68e 583d 38e4 07bd 503a 05bc 007a 593c
000000a0: ae5e 76bd d048 77bd 7486 ddbc b0a9 1ebd
000000b0: 0cca 713d 220d 4d3d 7c3c f2bc 28a1 64bd
000000c0: 10ed 6dbd 30bc 88bb 6a24 4ebd 8ab3 0ebd
000000d0: 9ce3 b13c 20e7 c6bc f084 f4bc 38a6 24bc
000000e0: ea20 693d eaaa 083d 4845 1e3c b87b 2a3d
000000f0: 3886 4dbc 80f2 80bc f00e f1bb c0fd fbba
00000100: 3c47 b2bc 3873 2b3d 5057 003d a69d 7c3d
00000110: 2613 75bd 6e7d 5dbd ea1a 00bd 8046 a03a
00000120: 604f 3f3c 2c01 133d 22f0 63bd 70b6 1ebd
00000130: d000 1b3d 587e 14bc 7cc2 48bd e28e 5bbd
00000140: 3463 703d 406a 28bb 3a0c 203d eae8 5ebd
00000150: c048 64bb ec02 893c defd 48bd 8857 673c
00000160: a495 4cbd 4040 78bd c029 c93a 7849 1f3d
00000170: 0087 8039 ecf4 81bc f4e9 093d 2204 253d
00000180: 00df 49bb 7896 f83c a880 09bd 2076 55bd
00000190: d037 b53b eca2 0bbd c44a 093d a028 49bc
000001a0: 7043 22bc 22c4 25bd 183e 15bc 2864 3a3c
000001b0: 3a80 123d 9243 09bd f82b 65bc 3207 1bbd
000001c0: c0c5 cabb 88ad 88bc 38a1 d33c 0061 4d3b
000001d0: a073 fc3c ba38 0e3d fcf6 79bd ecdb 843c
000001e0: 401b 5fbc 2043 0ebb 804a 903a 840b 463d
000001f0: f059 41bc 52fa 76bd 3013 383c e042 80bc
00000200: c007 ae3b 3c53 3ebd dc6a f4bc e021 ce3b
00000210: 0464 7e3d a01c 79bd 22b7 1b3d 7016 ab3c
00000220: dabc 2ebd e2d3 793d ccd7 fabc 80e4 46bc
00000230: 2022 5b3c 5861 0c3d b06b 40bc 867e 5f3d
00000240: cc00 97bc 70ba 31bd ee97 27bd a8a7 093c
00000250: ecce 39bd 844f 1d3d 124d 45bd 9075 303c
00000260: 606e 6fbc 8ca7 503d 68b7 123d 00a0 5437
00000270: 0090 fd3a 9c27 99bc 8c71 afbc 1005 3e3d
00000280: 683c e3bc 0ca6 753d 648d 65bd e81b 893c
00000290: 3c7b debc 9a65 503d e08a 29bb 203e e53b
000002a0: a0f9 273d 90a0 3ebc 4675 60bd 8231 393d
000002b0: c061 6c3c 401f 6abb 3826 edbc e08b 923c
000002c0: 5a6e 0f3d b2ba 1cbd e8b9 97bc 64fb b53c
000002d0: 68ba 1dbd 78eb 543d fa3c 683d f8f9 7abc
000002e0: 4a5e 4e3d 84a9 27bd 807b c63b 4689 1fbd
000002f0: 6807 d23c 7691 2b3d 4427 25bd 669e 29bd
00000300: deb1 073d 1e24 163d 9c8b 38bd 6018 0abb
00000310: d076 2cbd 00e9 633c 0841 23bd 5a3d 0b3d
00000320: 383a b8bc 8c16 653d a84d c9bc dc6d 12bd
00000330: 90f0 47bc a092 553d ecec f23c 40ac abbb
00000340: 90a4 1fbd b0ff 68bc a02e 713d 60a1 623c
00000350: 5eb7 473d 7e75 203d 3086 9e3b 0c39 3dbd
00000360: ac59 633d 90b4 d03b 489a 5b3c 8244 1fbd
00000370: fcbb 823c 4846 40bc 304d 45bd fc8f 643d
00000380: 6886 7dbc d68f 15bd 0e99 40bd dcc0 7c3d
00000390: 3cdf 613d c4ac 733d b0e5 753d 7634 14bd
000003a0: b44b 75bd ba51 363d aacd 4cbd 1045 6bbc
000003b0: c0ad 9aba e410 b8bc ea2e 02bd 988f aebc
000003c0: c8a4 2a3d d83a 7a3d dca1 a03c b44d 47bd
000003d0: 28f4 febc 004b e0bb 048c 9f3c 1cf8 37bd
000003e0: 4aaa 743d f4b6 c7bc 9e47 17bd 2ce3 6fbd
000003f0: 52cd 46bd 8c6e 963c 96f1 0dbd 2e33 16bd
0.021692678 -0.0065132007 -0.056240924 0.009823546 -0.008096948 0.0075570494 0.0056871474 -0.05832138
-0.05429379 0.04312907 -0.014883935 -0.017841682 0.0024528801 -0.052815817 -0.0013695508 0.03285761
0.020451017 -0.048819795 0.019530416 0.03941165 0.04117865 -0.024010345 -0.02033066 -0.04046315
0.02535455 0.04351879 -0.040357158 0.025999054 0.017891742 0.0040419623 0.04900381 -0.008485086
-0.014925145 -0.04266318 0.0509834 0.032527037 0.052870534 -0.03317663 -0.008131579 0.013273716
-0.060148887 -0.060372174 -0.027041651 -0.038736045 0.059030578 0.050061353 -0.029569857 -0.055817753
-0.05808741 -0.0041728243 -0.050327696 -0.03483919 0.021714978 -0.02428013 -0.029848546 -0.010049395
0.056916155 0.03336612 0.009660073 0.041621894 -0.012544207 -0.015740633 -0.007356517 -0.0019225404
-0.021762483 0.041857928 0.031333268 0.061673783 -0.059832714 -0.054074697 -0.031275667 0.0012228042
0.011676639 0.03588979 -0.05564893 -0.038748205 0.03784257 -0.009063326 -0.0490136 -0.05360306
0.058688357 -0.0025698096 0.03907416 -0.054421343 -0.0034833401 0.016725026 -0.04907023 0.01411999
-0.049947396 -0.06060815 0.0015347525 0.038888425 0.00024514645 -0.015863858 0.03367038 0.040287144
-0.0030803084 0.030345187 -0.03356996 -0.052114606 0.005530335 -0.03409092 0.033518568 -0.012277752
-0.009903774 -0.04047025 -0.009109043 0.011376418 0.035766818 -0.033511706 -0.013987534 -0.03784866
-0.0061881244 -0.016684309 0.025833711 0.0031338334 0.030816853 0.034722067 -0.06102656 0.016218148
-0.013617337 -0.002170749 0.0011008531 0.048350826 -0.011801228 -0.060297318 0.011235043 -0.015656888
0.0053109825 -0.046466097 -0.02983611 0.0062906593 0.0621071 -0.060818315 0.038016446 0.020884722
-0.04266057 0.060993083 -0.030620478 -0.01213944 0.013374835 0.03427252 -0.011744425 0.05456402
-0.018432997 -0.04339069 -0.040916376 0.008401789 -0.04536335 0.03840591 -0.048169203 0.010770217
-0.014613718 0.050941035 0.03581944 1.2673438e-05 0.0019345284 -0.018695645 -0.021416448 0.046391547
-0.027738765 0.059972808 -0.056043044 0.01673694 -0.027158372 0.050878145 -0.002587013 0.0069959313
0.041009545 -0.011634961 -0.05479934 0.04521323 0.014427602 -0.0035724193 -0.028948888 0.017888963
0.03501735 -0.038263984 -0.018521264 0.022214599 -0.03850785 0.051982373 0.056698777 -0.015318386
0.05038289 -0.040933147 0.006057203 -0.038949274 0.025638297 0.04188677 -0.04032065 -0.041410826
0.03312861 0.036655538 -0.045055017 -0.0021071658 -0.042105496 0.013910532 -0.03985694 0.033994056
-0.022488698 0.055929706 -0.024573162 -0.0357493 -0.012203351 0.052141786 0.029653989 -0.0052390397
-0.0389753 -0.014221117 0.058882356 0.01383242 0.048758857 0.03917455 0.0048377737 -0.046196982
0.05550544 0.006369181 0.013403483 -0.038883694 0.015958779 -0.011735506 -0.048169315 0.055801377
-0.0154739395 -0.036514126 -0.047020964 0.061707363 0.055144534 0.059490934 0.0600335 -0.036182843
-0.05988665 0.044511534 -0.050000824 -0.0143597275 -0.0011801049 -0.022468992 -0.031783022 -0.021308705
0.041661054 0.061091274 0.01960843 -0.048658088 -0.031122282 -0.006844878 0.019475944 -0.04491435
0.059732713 -0.024379231 -0.036933534 -0.058566257 -0.048535652 0.01836326 -0.034654222 -0.036669903

fc3.bias f4 [128]
00000000: cacf 4b3d cffc a53d 9948 43bb 6c3e b83d
00000010: a523 21bd cbbb 8ebc 2cb2 77bd fca7 54bd
00000020: dea6 58bd 28b2 6bbc 8100 6b3c 13e3 bf3d
00000030: 9faf 643d 49b5 573d 25af 693d e2c3 ccbc
00000040: 052d 433c bb2c 883c 154a 39bd 35cd 09bd
00000050: a4e5 7abd fe86 c33d e3ee a03d dc25 ee3c
00000060: 23a9 df3c 9831 77bd a623 d33c 7024 f23d
00000070: b1da ac3b 80df a9bc 0aad dc3c 735b b23d
00000080: f406 7b3b ffbf f23c 2637 2d3d 4b1b 483c
00000090: 99ab f23c 5831 14bd 4a0b 663d 9972 3fbc
000000a0: eb14 453d 59c3 1d3d 7389 8ebd 2eb0 57bd
000000b0: e458 9b3c 22c3 153c 2837 1cbc 931d 37bd
000000c0: 0f2a d33d 865c 2dbd 6e41 ca3d a907 463d
000000d0: 45ed b83d 30a8 01bd 2860 333d 26fc f13d
000000e0: 7387 46bd 2a6e 843c cfcd 29bc 9bc6 1a3d
000000f0: 8010 853b 80ad d9bc 8bf9 743d 230c a93d
00000100: e52f 32bd e81b f03d 0904 aa3c d15d a13c
00000110: 397e 7ebd 5ae3 bf3c ff3d a83c 6c00 15bd
00000120: c69c d53c 68ef f53d c954 ce3d e07e a83d
00000130: 0605 4abd b4e2 d43d bba0 24bd 8c60 223c
00000140: a93a 963d 3281 c73d 2841 da3c 5d27 af3b
00000150: 12ec 1c3d 4143 b23d aa62 16bb 207c 573d
00000160: ac6c 62bd 3b3a 63bd 7831 f23d 38d1 ee3c
00000170: 5bc1 ac3d ebf5 883d d2af 2bbd 5006 d0bb
00000180: 6a6d 043d 832f f03c 6030 d93d 0d17 d03c
00000190: fddf 553c 011b 833d 1189 153b 100d 61bd
000001a0: 07fe 873d 20d8 8abd a6b3 37bd 3253 5c3d
000001b0: ce06 44bc ece7 473c b911 95bd b955 c63d
000001c0: 8d92 303d 18fc 1d3d 6e01 0ebd cf61 c93d
000001d0: ddf8 7d3c 889e c9bc 8a23 11bd 3505 96bd
000001e0: b576 3c3c bc0c e6bc 7b54 9bbb 5866 5f3d
000001f0: bfc7 b13d e38e 5c3d ba1d 13bd 50f9 5ebd
0.04975871 0.0810486 -0.002979791 0.08996281 -0.039340634 -0.017423531 -0.060472652 -0.051918015
-0.052893512 -0.0143857375 0.014343382 0.09369483 0.055831548 0.05266312 0.057051796 -0.024995748
0.011912589 0.016622892 -0.045236666 -0.033642966 -0.06125416 0.09547232 0.07858064 0.029070787
0.02730233 -0.06035003 0.025773834 0.11823356 0.0052750935 -0.020736456 0.02693798 0.08708849
0.0038303705 0.029632566 0.04228892 0.012213538 0.02962284 -0.03617987 0.05616311 -0.011685037
0.048115652 0.038516376 -0.0695981 -0.052658252 0.018963285 0.009140762 -0.009534635 -0.04470594
0.103107564 -0.042324565 0.09875761 0.04834715 0.090296306 -0.031654537 0.043792874 0.118156716
-0.04846902 0.016165812 -0.01036401 0.03778706 0.004060805 -0.026571989 0.059808295 0.08254268
-0.043502707 0.11724073 0.020753877 0.019698055 -0.062132094 0.02342384 0.020537375 -0.036377355
0.026075732 0.12008554 0.10074765 0.082273245 -0.049321197 0.10394803 -0.040192347 0.009910714
0.07335407 0.09741439 0.026642397 0.0053452686 0.03831107 0.08704234 -0.0022946992 0.05260861
-0.05527942 -0.055475455 0.11825842 0.029152498 0.08435317 0.0668753 -0.041915722 -0.0063484088
0.032330908 0.02931953 0.1060493 0.025401616 0.013053891 0.06401635 0.0022817294 -0.054944098
0.06640249 -0.06779504 -0.04484906 0.05379028 -0.011964513 0.012201291 -0.07278771 0.09684319
0.04310851 0.038570493 -0.034669332 0.09833109 0.015501228 -0.024611726 -0.035434283 -0.07325212
0.011502911 -0.028082244 -0.0047402955 0.054540962 0.08680677 0.053847205 -0.03591702 -0.05443698

fc4.weight f4 [2, 128]
00000000: b2dd 263d 7b5b 093d 1729 d93c f28b c83d
00000010: 87d9 523c 6b1a 563c 507b d6bb 21a7 ab3d
00000020: fab3 8fbd be3f 063d b243 16bd 51fc 123e
00000030: 5bc5 0b3e 59be ac3d 6407 a63d 2cfd 193d
00000040: cad7 8f3d acc4 943d 9e11 af3d 8762 5cbc
00000050: 14ef 8dbd 7e58 5a3c f972 763d 1402 c63d
00000060: 5a44 59bd 6877 ec3c 94d5 17bd b31c dc3d
00000070: 65a6 f43d 5c99 07bd 41f3 bcbc 87c9 86ba
00000080: ae69 8b3d a834 d63d f553 95bc b4d3 30bc
00000090: cb37 453d be13 1a3d 4c32 f93c c3d7 c73c
000000a0: 44c8 f63d c794 1d3d a0de 1abd b8c5 223c
000000b0: 6b25 3fbd db4d 963d 0fb9 b43d 2bd2 1d3d
000000c0: 1e44 923d d81c 81bd 4334 c13d 82f0 3fbd
000000d0: e9a5 563d 46f8 383d 5552 b23d ba38 933c
000000e0: 073e 08bd ea72 513d 2bb3 96be 7f26 b83d
000000f0: 01c2 b23d 80d9 c3ba f0a3 a83d c02a 113e
00000100: bb15 1abd 3425 333d b6d9 8ebd 2e09 b9bc
00000110: 42fc 5d3d da50 963d a516 6b3d 82e2 4c3d
00000120: a354 8c3d 6845 b53d 8ff4 6ebc 3fc9 663c
00000130: 9aa9 763d 8020 413c 5db5 783d d1f1 f53d
00000140: 73cc 253e 0290 df3d f3ed a33d 7dab dd3d
00000150: 4b65 b63d c891 c53d 94b1 22bf ed3d a33d
00000160: 4ddd 8cbd ccb7 0abc 5848 ed3c 74f2 e8bc
00000170: 2127 ed3d dfe1 cd3d 7e99 043d c1a5 8d3d
00000180: 04a4 613e c8bb 37bd 5a17 f33a cfdd 80bd
00000190: c175 edba 7a83 babd 2675 043e 514e 92bd
000001a0: f6df 883d fd6c 9abd 5ef0 06bd 243d fd3d
000001b0: 830a c83b c18f 89bd 956b 68bc 5148 4e3d
000001c0: 7c1e 7abd ec0a a43d 001d 5bbc d717 103e
000001d0: 01ba 6dbd 7ee0 963b 6cd6 d6bc ad9c 3bbd
000001e0: 3cb9 e53d d3ee b1bd fda9 3cbe 2b19 933d
000001f0: 129a a2bb 2f91 683d 4a49 1fbd 3fe9 8dbd
00000200: 2d4d 78bd 1405 ca3d 1f59 57bd 345c 8b3d
00000210: b84c 983c 45f7 82bd 68aa aebd cc09 d1bc
00000220: 5084 c3bb 0455 05bd 010c 8f3c 4517 9a3d
00000230: 40b9 4ebc 9c78 b33d ef36 803d 117e 9abd
00000240: d01d 88bd 4c99 093d 0013 6fbd 33bd 09bd
00000250: 9243 3c3d c565 b83d c577 d33c 76eb 563d
00000260: fc67 d9bc ada1 ab3d 3034 0b3e 6d66 063e
00000270: 23ed 733d 4cbe bebc b4cf 6e3c 469f cd3d
00000280: 90c3 383d 9272 ea3c ba4f d03c 9b21 42bd
00000290: 9c3d a43d 4fb3 833d 7c80 bb3c 3c61 b6bd
000002a0: 2166 70bd bd59 a7bc a994 5bbd 2252 2bbd
000002b0: c4b8 3a3c 1936 053e f86a 4d3c 070b d33b
000002c0: 01d8 963d 83b1 7b3d 4e22 973d 780b 62bd
000002d0: 866c 9e3d 8beb 973d 64f0 0a3e 2fe7 f03d
000002e0: fe97 56bd 41f5 4cbd 0c64 edbe 88bf de3d
000002f0: 98b8 4dbd 896f 8e3d 102b 28bd e4a8 043e
00000300: 2b25 9f3b 027e cb3d 59be a4bd 3ff8 0cbd
00000310: 0206 52bd 1a36 ea3d bde2 96bd 3309 583d
00000320: 048c 833c ab2c bb3d ddc4 e63d 34ad d33d
00000330: 6660 5fbd a4fa ce3d 5b95 60bd 09ef 24bd
00000340: 1168 01be 9af8 a43d 6973 abbd 3bdb e93d
00000350: adb8 243b de5a 05bd 7097 2abe 8e55 a23d
00000360: 9caa 4fbc 2b22 08bd c870 8f3d fd9a 8bbd
00000370: 5997 f83d 977b 773c e84a 333c 905a 293c
00000380: b1b7 183e 744a 673c 9322 023e b0b4 a3bd
00000390: b93f f33b 224b dcbe 0e4a a53d a835 06bc
000003a0: 7f03 083d e4e5 523d 3460 003d 74f9 4abd
000003b0: 9618 7cbd d3dd b63c e1f9 7b3d 79d5 0e3e
000003c0: 7f68 8cbd 2596 373d 5c7b 90bd 7de7 49bd
000003d0: ae30 8bbd d961 62bc 0957 863d 0a16 c23c
000003e0: 4eae ad3d e8ed 9a3c 9787 cfbe 6ff9 1c3d
000003f0: ec2b f23d ea29 ae3d 2cee bdba 2ebc a93d
0.04073877 0.03353451 0.026508851 0.097923175 0.012869245 0.013067822 -0.0065454617 0.08381487
-0.0701675 0.032775633 -0.036685653 0.14354064 0.13649504 0.084347434 0.081068784 0.03759496
0.0702358 0.07264075 0.08548282 -0.013451225 -0.06930366 0.013326762 0.06016824 0.09668365
-0.0530437 0.028865531 -0.03706892 0.107476614 0.119458 -0.03310524 -0.023065211 -0.0010283449
0.06807266 0.10459262 -0.01822851 -0.010792661 0.04814891 0.037616484 0.030419491 0.024394875
0.120499164 0.038471963 -0.037809968 0.009934835 -0.046666544 0.073390685 0.088243596 0.03853051
0.071418986 -0.0630433 0.09433796 -0.046860225 0.052404318 0.045158647 0.0870711 0.017971385
-0.03326228 0.05113498 -0.2943357 0.089917175 0.087284096 -0.0014942139 0.082343936 0.14176464
-0.03761838 0.04373665 -0.06975119 -0.022587385 0.05419565 0.0733964 0.057394642 0.050020702
0.06852081 0.08851129 -0.0145846745 0.014086067 0.06022034 0.011787534 0.060719837 0.120090134
0.16191272 0.10916139 0.080043696 0.108237244 0.08906039 0.09646946 -0.6355221 0.07970796
-0.06878147 -0.008466672 0.02896516 -0.028435923 0.11579729 0.10052847 0.032372944 0.06916381
0.22035223 -0.044856817 0.0018546388 -0.06292307 -0.0018116758 -0.091071084 0.12935314 -0.07143844
0.06683342 -0.07540319 -0.032944076 0.12365177 0.0061047687 -0.06716872 -0.014185806 0.050361935
-0.06106423 0.08009896 -0.013373613 0.14071594 -0.058038715 0.0046043983 -0.026225291 -0.045803715
0.11216971 -0.0868813 -0.1842422 0.07182535 -0.0049622143 0.056779083 -0.038888253 -0.06929254
-0.060620476 0.0986425 -0.052575227 0.06804696 0.01859127 -0.06394819 -0.08528596 -0.025517367
-0.0059667006 -0.03255178 0.017461779 0.075239696 -0.012617409 0.08763239 0.06260478 -0.075435765
-0.06646311 0.03359346 -0.05836773 -0.0336277 0.045962878 0.09003786 0.025813947 0.052470647
-0.026538841 0.083804466 0.13594127 0.1312501 0.059552323 -0.0232841 0.0145758875 0.100401446
0.045108378 0.028619085 0.025428642 -0.04739533 0.080195636 0.06430685 0.022888415 -0.08905265
-0.058691148 -0.020428533 -0.05360857 -0.041826375 0.011396591 0.13008918 0.01253771 0.0064405235
0.07365418 0.061448585 0.0737959 -0.05518672 0.07735543 0.07417973 0.13568264 0.11762845
-0.052391045 -0.05003858 -0.46365392 0.108763754 -0.05022487 0.069548674 -0.041056693 0.12955052
0.0048567257 0.099361435 -0.080441184 -0.034416433 -0.05127526 0.114361 -0.07367466 0.052743148
0.016057976 0.09139379 0.112680174 0.1033577 -0.054535292 0.101064 -0.054829936 -0.040267024
-0.12637354 0.080552295 -0.08371622 0.11418768 0.002513449 -0.03255736 -0.16659331 0.079264745
-0.012674954 -0.03323571 0.07003933 -0.06816671 0.12138242 0.01510515 0.010943152 0.010336533
0.14913823 0.014116872 0.12708502 -0.07993448 0.007423368 -0.43026072 0.080707654 -0.008191504
0.03320646 0.051488772 0.031341746 -0.049554303 -0.061546884 0.02232257 0.0615176 0.13948621
-0.068558685 0.044820923 -0.07054779 -0.04929303 -0.06796394 -0.013817274 0.065595694 0.02369215
0.084805116 0.01891227 -0.40533134 0.038323816 0.11824784 0.08504088 -0.0014490536 0.082878456

fc4.bias f4 [2]
00000000: 219a 91bc 8add 9f3c
-0.01777369 0.019514818
