models/cartpole.pth (torch, 270412 bytes, 8 tensors)

fc1.weight f4 [128, 4]
00000000: f455 043c 630d de3d 1183 43bf da82 b7be
00000010: 584c e3bd 3826 4f3e e3bf d33e 1251 ac3e
00000020: 12d8 81bd 2baa c23d 0ab7 c1be 79f5 8abd
00000030: e002 e0be fb52 8cbe 062a f9be 39f5 5abd
00000040: ea7a 4c3e 8ba9 243e bb8d 2fbf 6813 86be
00000050: c0d4 4e3d 88c0 a83e 86b2 38be 961c a03e
00000060: 027e 1fbe c0c7 ed3c 9226 f23e 3761 05bf
00000070: a230 efbd d93b ecbc ecd7 bebe e680 c93e
00000080: 285d 7dbe 56aa a1be 900c f0be 1326 d5be
00000090: fde3 9abe eb93 c33e b5d6 3e3f a9cf 9c3e
000000a0: 8bae 413c 5ec0 babe 8c2f 863d 20f7 efbe
000000b0: 2b75 9dbe c872 65be f0bb 173f 130c 843e
000000c0: d5e4 81bd 2d7f 523d db3e 1d3f 5bb8 e83e
000000d0: 0ca0 3e3e 0552 1c3d b0c7 d43e 1a65 84be
000000e0: 9164 5f3e f5ab a4be 7164 1fbf 9a38 87be
000000f0: 8596 f93d 64e2 003e 9d2b e1be 509f 403e
00000100: edaa 2f3e 07f7 6bbd e673 e1be 1c96 973d
00000110: d7e2 ab3e cc71 b13e c8f1 0dbf e150 4bbe
00000120: 74d6 27bd 6ec6 ad3e 0e20 3b3f d6aa ec3e
00000130: 8972 393e 8e8f bcbe 061f 623c 2877 a9be
00000140: 784f 13bf 342e db3e e06e 2c3f 0318 e0be
00000150: 1f41 943e 30e1 dcbd 52a1 13bf 25b4 9abe
00000160: f104 7b3e e58a 83be 6690 c43e 05dc 563e
00000170: 367f bc3e 3ac3 9c3d 545c 6fbf a816 abbe
00000180: 2a91 a53e 69e4 0fbd ecbf 3fbf 5088 96be
00000190: 5fb7 ad3e 755e db3d b113 08bf 271a 59be
000001a0: ed3c abbe 3465 5dbd 60aa 16bf 654f b2be
000001b0: cb17 0cbd 4cf0 d73d 5658 20bf 5b92 833e
000001c0: 1dfa ccbe 2c34 eb3e fcc6 193f bbd0 abbe
000001d0: 5008 4cbe 6aa3 7b3d a057 533e 94a7 b63d
000001e0: 7628 da3d 4725 ec3c d065 16bf bc56 863e
000001f0: 470a 99be ce7f 5abe 0870 ccbd 6f2b 21be
00000200: 8954 07be 2a25 b0be 780c 7bbe 79de 223d
00000210: 3972 bbbe fdf5 b9bb 4918 7a3f bbdb 7cbd
00000220: b93c a9bc e1c8 21bd 4101 f03e f3a4 a03e
00000230: 9db5 8a3e ee5c 703e ec8c 4b3f 3d34 38bd
00000240: 5840 c2be 79c5 67be 4835 283f 6356 04bc
00000250: 6b60 82be 3cd6 c6be 5ad7 3bbf 7229 d4be
00000260: a858 89be 9cb9 733e 608d 013f bbe8 d6be
00000270: 2eb0 9f3e 8a52 c8be f07b d8bd 1c9a 4fbe
00000280: b479 3ebd f86f 48bd 69df e4be c278 d9be
00000290: 4c4d dabd a2a0 243c 6b92 083e 3e19 603e
000002a0: dfaf 07bf ee25 ffbd 28eb 5c3f 3094 29be
000002b0: bf20 d53e 69a6 3e3e a742 55bf e5c9 b53e
000002c0: 513f 61be 8264 86be 13a6 243f cabc c7be
000002d0: d431 043e 51b1 90bd 826f 503f eb26 f53d
000002e0: a268 f23d d68a c03d b8cc 8fbe abf9 9abd
000002f0: 9a64 c0be e027 913e 95d4 623f c2f2 993e
00000300: 2d3f c2be 7ae8 c2bd 10f2 20bf 599f 9bbe
00000310: 0d51 75be f65c 1d3e 52f6 dbbe 57c5 54ba
00000320: caf0 9f3d 81a1 073e edc4 4ebf 8622 b0be
00000330: a9cf c7be ba2b c73e 6b91 9ebe 0f22 ca3e
00000340: 7356 5c3e 14ea 123d d752 36be 8ed1 f3bd
00000350: 34bc b23b 59c5 e5bd 3d1b 213d c123 fa3c
00000360: f884 cfbe 07b5 86be 53fe 063f c882 cdbe
00000370: 0542 49be aadd ef3e f3d9 7d3e 973b 443d
00000380: 92c7 c3be b051 913e 6876 a4be 286c 38bd
00000390: 046a 14be 0a50 66bb 8ef0 b8bd bc7e c73e
000003a0: 13c8 46be a9cf b53e a70d 403f 53ae 90be
000003b0: 9d1c 5b3e 97c0 a2be 1863 edbe 383d 0d3e
000003c0: 12d7 213d e79c 543e a429 9bbd 5cf4 17bb
000003d0: 2fe3 a33e ed0d 0fbf e69e c33e 1264 83be
000003e0: 87c3 c1bb 7459 4dbd 071b 1cbf ed32 443d
000003f0: 5c65 9d3e 7afc 26be ec6e 2ebf e41c 3ebe
0.008077133 0.10842397 -0.76371866 -0.3584202 -0.11098546 0.20229423 0.41357335 0.33655602
-0.0634004 0.09505113 -0.3783496 -0.067851014 -0.43752193 -0.2740706 -0.48664874 -0.05345652
0.19968763 0.160803 -0.6857564 -0.2618668 0.050495863 0.3295939 -0.18036851 0.3127181
-0.15575412 0.029025912 0.47295052 -0.52101463 -0.11679198 -0.028837131 -0.3727411 0.39356154
-0.24742568 -0.31575269 -0.46884584 -0.4163061 -0.30252066 0.3819879 0.74546367 0.30627182
0.011821399 -0.3647489 0.065520376 -0.4686823 -0.30753455 -0.22407067 0.59271145 0.25790462
-0.06342474 0.051390816 0.61424035 0.45453152 0.1861574 0.038164157 0.415586 -0.25858384
0.21815707 -0.32162443 -0.62262636 -0.2641037 0.121869124 0.12586361 -0.43978587 0.18810773
0.17155047 -0.05760863 -0.44033736 0.07401678 0.33571503 0.34657133 -0.55447054 -0.19855072
-0.040976003 0.33940452 0.73095787 0.46224087 0.18110098 -0.36828274 0.013801342 -0.33098722
-0.57543135 0.42808688 0.6735668 -0.4376832 0.28955933 -0.107851386 -0.5766803 -0.30215564
0.24513604 -0.25691906 0.38391417 0.20982368 0.36815804 0.07654424 -0.93500257 -0.33415723
0.32337314 -0.03512994 -0.74902225 -0.29400873 0.33928964 0.107113756 -0.53155047 -0.21201383
-0.3344492 -0.054051593 -0.5885372 -0.34826198 -0.03420238 0.1054388 -0.6263479 0.25697598
-0.4003457 0.4593824 0.6006925 -0.33557686 -0.19925046 0.06143514 0.20638895 0.08918682
0.106522486 0.028826369 -0.58749104 0.26238048 -0.29890653 -0.21337816 -0.09982306 -0.15739225
-0.13215841 -0.34403354 -0.24516475 0.039762948 -0.36610582 -0.005675076 0.97693306 -0.06173299
-0.020658838 -0.039498214 0.46875957 0.31375846 0.27091685 0.2347295 0.79511905 -0.044971693
-0.37939715 -0.22633924 0.657063 -0.008077237 -0.25464186 -0.38835323 -0.73375475 -0.4143787
-0.26825452 0.23801273 0.50606346 -0.41974434 0.31189102 -0.39125472 -0.10570514 -0.20273632
-0.046502784 -0.048934907 -0.44701698 -0.42474943 -0.106592745 0.0100480635 0.13337104 0.21884629
-0.53002733 -0.124584064 0.8629632 -0.16560435 0.41626546 0.18618168 -0.8330483 0.35505596
-0.2199681 -0.26248556 0.6431591 -0.39011222 0.12909633 -0.070650704 0.8142015 0.11970314
0.118363634 0.09401481 -0.28085876 -0.07567152 -0.37576753 0.28350735 0.88605624 0.30068022
-0.37938824 -0.09516998 -0.6286936 -0.3039501 -0.239567 0.15367493 -0.42961365 -0.0008116564
0.07809599 0.13245203 -0.80769235 -0.3440134 -0.3902562 0.38900548 -0.3097032 0.3947911
0.21517353 0.035867766 -0.17805038 -0.11905204 0.0054545645 -0.11219282 0.039332617 0.030534627
-0.40531135 -0.26309988 0.5273182 -0.4013884 -0.1965409 0.46848804 0.24790172 0.04790839
-0.38238198 0.28382635 -0.32121587 -0.04502502 -0.14493567 -0.0035142922 -0.09030257 0.38963878
-0.1941226 0.35509995 0.7502083 -0.28258 0.21397634 -0.3178756 -0.46364665 0.13792884
0.039511748 0.20762978 -0.07576302 -0.002318642 0.32009265 -0.55880624 0.38207167 -0.25662285
-0.0059132013 -0.050134137 -0.6097874 0.04790013 0.30741394 -0.1630725 -0.68138003 -0.18565708

fc1.bias f4 [128]
00000000: 89e3 32be 6a37 78be 154f c93d c3f0 c33d
00000010: 40b5 9bbe bc2c 9fbc 0ed5 213e c2d7 92bd
00000020: 44b4 153c bc18 adbd 49be 203e 4f06 d3be
00000030: d100 afbe 4b9a a5be a4e2 fd3e 47c2 97bd
00000040: 9578 973b 77f7 b3be dc76 033f ebe8 033f
00000050: 5070 bbbe 3f54 9fbe 8bb6 e4be 8024 053d
00000060: 5689 43be 8650 03bf 3b44 98be ba01 bb3d
00000070: 9171 86be 6b7b 0a3e 8af7 8cbd 614f bfbe
00000080: fc92 c63c 51f3 d03e 4b6d aabe 1b97 613d
00000090: 03b7 6ebe 596a f83e 55b2 05bf d26a f5be
000000a0: f05b 023f 6b56 c6be d9a2 593e b6d6 8a3d
000000b0: d69e 50bc df04 c8bd cf61 a53e 859d 293b
000000c0: 85ad f2be 0b84 a9be eb4b 67be a1ea 843e
000000d0: 129e c3be 5ac9 f03e 5e2c 1bbe 73c6 babd
000000e0: f1c5 e23e e0d5 6f3e 8762 d73e 8fb9 9f3e
000000f0: d12d abbe de4f 96be 6f75 b43c 6def dc3e
00000100: a7a4 9cbe 55b4 c6be 9156 633e cdf0 ed3e
00000110: 873e 0cbe 8212 fcbe e809 18bf 684a 303e
00000120: 825d 1ebd 94cc 7dbe ca0f 2a3d f9e0 703e
00000130: 79bd de3e 5b39 ce3e 1e0c cabd 7ebb e1be
00000140: d853 e7be e270 ee3e 5783 f63d b607 6b3e
00000150: bb89 fdbe 4116 023f ac70 f73e 025f f43e
00000160: 30f5 d7be ccfc 4bbe 0586 f0be 96d2 e63e
00000170: 262d 72be 1cd4 70be beef 963e cbeb a5be
00000180: 14d2 e7be aced ebbc c834 e6bc 13ba c9be
00000190: 6929 db3e 2dba 95be dad1 233e 9e8c e63e
000001a0: 385f 6b3e c20b 9f3b c214 da3e 191d d43d
000001b0: 2fd6 4dbe 8b5e f53e 82a9 f63d 38c6 f9be
000001c0: f9f5 9cbd de61 c8be cc04 d13e fe5b 993c
000001d0: 79d6 14bf 5281 92bd 5031 9d3e 6e03 1e3e
000001e0: 6b86 e23d d64e 8b3d e5ba 503e 8311 1fbe
000001f0: df4f 37be 0e49 efbe 67b4 e9be 3533 743e
-0.1746961 -0.24239889 0.09829537 0.09567406 -0.3041172 -0.01943051 0.1580393 -0.07170059
0.009137217 -0.08451983 0.15697588 -0.4121575 -0.3418031 -0.3234428 0.49586976 -0.07410102
0.004622529 -0.35149738 0.5135324 0.5152728 -0.36609125 -0.31118962 -0.4467052 0.032505512
-0.19095358 -0.51294744 -0.29739556 0.09131189 -0.2625852 0.13523643 -0.06883152 -0.3736525
0.02424001 0.40810636 -0.3328651 0.055075746 -0.23312001 0.48518637 -0.5222524 -0.4793306
0.50921535 -0.38737807 0.21253528 0.06779234 -0.012733182 -0.09766554 0.32301185 0.0025881242
-0.4739801 -0.33108553 -0.22587554 0.25960258 -0.38206536 0.4702862 -0.15153643 -0.091198824
0.44291642 0.2342143 0.42067358 0.31196257 -0.33433393 -0.2935781 0.022028653 0.43151417
-0.3059437 -0.38809457 0.22200991 0.4647278 -0.13695727 -0.4923287 -0.59390116 0.17215884
-0.038663395 -0.24785072 0.041518964 0.2352332 0.4350393 0.40278134 -0.098655924 -0.44088358
-0.45181155 0.46570498 0.1203677 0.2295216 -0.49519143 0.50815207 0.4832815 0.47728735
-0.4217925 -0.19920653 -0.4697725 0.4508254 -0.23650035 -0.23518413 0.29479784 -0.32406458
-0.45277464 -0.028799854 -0.02810134 -0.39399776 0.4280503 -0.29243603 0.15998021 0.45029157
0.22985542 0.0048536966 0.42593962 0.103571124 -0.20101236 0.47923693 0.1204405 -0.4878404
-0.07664103 -0.39137167 0.40823972 0.018720623 -0.5813976 -0.07153572 0.30701685 0.15430996
0.110607944 0.06802146 0.20383795 -0.15534024 -0.17901562 -0.46735424 -0.4564545 0.23847659

fc2.weight f4 [256, 128]
00000000: 4c19 f5bc 662d c1be 247b ad3d e606 b4bc
00000010: 205e 9f3b f0a1 003d 1f01 113d 4c32 af3d
00000020: 02c9 aebd 60df b1be 4167 453d 3535 c5bd
00000030: 762b 8abc 4800 013d 65cb 23bc c190 d5bd
00000040: e80a 63bc 30cd e63d a208 9bbd b9ce b63d
00000050: db64 dfbc e86e 47be 33fa 903c ef4c 98bc
00000060: 0a08 de3d 6995 3f3e 90da 76bd b3b2 243c
00000070: 3ad3 6ebd 4468 953d 4610 04be 1d8a 7f3c
00000080: 0dfa b0bd 789d 763d ff3b 48bd 62d2 8c3d
00000090: 8567 78bd 2774 563d b920 313d 77ea c3bc
000000a0: 0e7b 1e3e 6623 cabd 921a a13d f1b5 8cbd
000000b0: 8abb f93b eba8 03be e1b9 dc3c fa72 8fbe
000000c0: a489 b9bd 35ec 36bd feeb b93d 18cc acbd
000000d0: 5630 503e 7457 c43d d250 133e 576c 09be
000000e0: 6605 ef3d ea6a 01be 5ac7 683d fc2a 95bc
000000f0: 8ea7 a5bc bafc 4d3e 8e78 32be c9f2 9c3d
00000100: 27e1 d7bd cb03 00bf f82c 86bb 40e6 fb3d
00000110: 71f3 6fbd 2526 0c3d ff39 90bd 5870 78bd
00000120: d4e2 1abe e2eb 63be c205 393e 24dd e2ba
00000130: 4cb5 99bc 8049 903d 4ca6 42bd cd7e 9a3d
00000140: 4ecf 923d 2960 3fbd 225b 9b3c 00ec 4abd
00000150: 1776 f5bd 8895 d3bb b315 9a3d a9af b5bd
00000160: 801b 5b3d eb6c 11bd 6bf9 febd 974d e13d
00000170: 9868 dabd 8f86 9cbe a03e b9bd 4c26 4b3c
00000180: c66d e2bd 56f6 a2bd fd0d aabd 1f40 c3bd
00000190: b7e6 d2bd 51e2 c0bd c9d8 e33d 1a06 b13c
000001a0: 3be0 66bd 10c0 dfbc e027 0a3e 26d1 82bd
000001b0: 5197 04bc a9f0 5e3d 8f93 33be 502d 1938
000001c0: a813 04be e629 62bc e0c8 753d 607e 68bd
000001d0: c4a3 643d b912 47be 5ea9 0a3d 0b33 04bd
000001e0: d9a8 12bd a040 dcbc 608d 82bd 2134 dc3d
000001f0: c36f 65bc 1fa6 7dbd 198e 17bc c684 403d
00000200: e19f 9dbd 9da1 d3bc 78ff a73c 53a4 99bd
00000210: 6dde 1e3d 5875 3c3d 5350 3d3d 14d1 66bd
00000220: 0862 a23d 439a 56bd 55c5 a23d f7b8 adbd
00000230: 6548 a1bd 7436 353d 8a88 7c3a 0a16 a73b
00000240: 617b 48bd d207 3ebd 7aa2 05bd e955 c1bd
00000250: 579a 9bbb 3d0f 803c faee 9cb8 d2f3 9f3c
00000260: 67bc 983d 2df5 4e3c f6d7 2abd eefe 14bd
00000270: 917c 86bd f941 72bd 9f39 69bc 7a10 80bc
00000280: b30e 213d 5637 3bbd 2d4f 903d d2da 91bd
00000290: aeb5 8339 84ac 913d ca5c 9f3d 20b7 51bd
000002a0: 92cc eb3b 580f 2b3c 9522 4dbd 3d2a fabc
000002b0: b291 6a3c c4bf 7bbd a127 c93b bfa9 1c3d
000002c0: c4bb 3cbd b35c 963d 1e7a 75bc 6e7e 0c3d
000002d0: bd43 b33d fec2 0ebd a5c7 1f3d c2d2 0dbd
000002e0: 293a afbc a16b 75bc be68 15bc 3cb3 fbbc
000002f0: da4c 2f3c a344 5a3b 1c7e 653d e52c d8bc
00000300: 02b7 aab9 c5ac 06bd f403 92bd f23a df3c
00000310: 717a 243b 98fd 10bd 6bd0 f4bc 74f9 723c
00000320: e8ec 82bc 4403 433d 9a33 81bb e0ab ce3c
00000330: f128 2a3d 3a18 f5bc 34a4 1c3d 8794 853d
00000340: 8e48 853b d149 123c d9e2 b5bb 9bdb 583d
00000350: ddd9 18bd 5efa 55bd ac00 fc3c f46a a9bd
00000360: 65bd b93a 947f 26bd 2af5 6e3d 673b babd
00000370: 0d84 5b3d 7012 9b3d a5f3 443c b0f8 c0bb
00000380: b52f b23d 61da 3dbd 7117 e8bb dd89 1ebd
00000390: f817 90bc c45e 9d3c 30fa 563b 7883 cdbc
000003a0: 90fd b4bd 894d 943b 49ee 32bc 7369 f73b
000003b0: 15f3 6b3d 5ac5 9e3d 8bca 56bd 0799 b4bb
000003c0: 310f 11bd efd5 a6bd 2808 95bd e1e8 963d
000003d0: 1777 263d 2f78 423d 2595 253d dbb9 9bbd
000003e0: 8515 183c ccd7 9c3d d18a 61bd a508 a13d
000003f0: bd50 be3c c0b5 7e3d c817 1bbd c9a8 113d
-0.029919289 -0.3772995 0.08470753 -0.021975946 0.0048635155 0.031404436 0.03540146 0.08554515
-0.08534433 -0.34740734 0.048194174 -0.09629289 -0.016866427 0.03149441 -0.0099972235 -0.10428
-0.013857581 0.11269605 -0.07570006 0.08926148 -0.027269771 -0.19475901 0.01769743 -0.018591372
0.10841377 0.18709339 -0.06026703 0.010052371 -0.05830691 0.07295278 -0.12896833 0.015596894
-0.086414434 0.060208768 -0.04888534 0.06876065 -0.0606456 0.052356865 0.043244097 -0.023915512
0.15476629 -0.09870033 0.07866396 -0.0687064 0.0076212334 -0.12857406 0.026944103 -0.28017408
-0.09059456 -0.04465886 0.09078215 -0.08437365 0.20330939 0.09586993 0.14386299 -0.13420235
0.116709515 -0.1263844 0.05683074 -0.018208973 -0.020221498 0.20115939 -0.174288 0.07663495
-0.10540991 -0.5000579 -0.004094716 0.12299776 -0.058581773 0.034216065 -0.07042312 -0.060654014
-0.1512559 -0.22257951 0.18068603 -0.0017308337 -0.018763207 0.07045269 -0.047521874 0.075437166
0.071684465 -0.046722565 0.018964354 -0.049541473 -0.119854145 -0.0064570345 0.0752367 -0.08871395
0.053493023 -0.035504263 -0.124499165 0.11001127 -0.10664481 -0.3057141 -0.09045148 0.012399267
-0.11056094 -0.07957141 -0.08303449 -0.095337145 -0.102979116 -0.094181664 0.11125333 0.021609355
-0.056366187 -0.027313262 0.13491774 -0.06387548 -0.008092717 0.05442873 -0.17536758 3.6520243e-05
-0.12898123 -0.013803935 0.060006022 -0.056761146 0.05582024 -0.19440736 0.033852927 -0.03227524
-0.035805557 -0.026886284 -0.063746214 0.1075213 -0.014003697 -0.061926004 -0.009250187 0.047001623
-0.0769651 -0.0258339 0.02050756 -0.075020455 0.03878634 0.046010345 0.04621918 -0.056351736
0.07928854 -0.05239321 0.07947794 -0.08482545 -0.07875136 0.044241384 0.0009633383 0.005099063
-0.04894579 -0.046394177 -0.032625653 -0.09440214 -0.0047486234 0.015632266 -7.4831725e-05 0.019525442
0.0745781 0.012631697 -0.041709863 -0.036375932 -0.06566728 -0.059144948 -0.014234929 -0.015632857
0.03932066 -0.04570707 0.070463516 -0.07121815 0.0002512163 0.07112983 0.0778137 -0.051200032
0.0071960175 0.01044067 -0.050081808 -0.030537719 0.014316963 -0.06146218 0.0061387573 0.03824782
-0.046077505 0.073419 -0.014982728 0.03430026 0.087531544 -0.034853928 0.039008755 -0.034624822
-0.021390038 -0.014979274 -0.009119211 -0.030725114 0.010699475 0.003330507 0.05602847 -0.026388595
-0.00032561278 -0.03287961 -0.0712966 0.027249787 0.0025097395 -0.035398096 -0.029884538 0.014829982
-0.015982106 0.047610536 -0.003942919 0.02522844 0.04154295 -0.029918779 0.038242534 0.0652247
0.004067487 0.008928732 -0.005550724 0.052943807 -0.037317146 -0.052240722 0.03076204 -0.08272353
0.0014170824 -0.04064901 0.058339275 -0.09093361 0.05359273 0.07571876 0.01202098 -0.005889021
0.08700506 -0.04635084 -0.0070828726 -0.038705695 -0.017589554 0.019210227 0.0032802932 -0.025087103
-0.08837426 0.0045258445 -0.010921069 0.0075504123 0.057604868 0.077524856 -0.052439254 -0.0055114063
-0.03541488 -0.08146273 -0.07276946 0.07368637 0.040640917 0.047477897 0.04042544 -0.076038085
0.009282474 0.076583475 -0.055064026 0.07862977 0.023231858 0.06218505 -0.037864476 0.035561357

fc2.bias f4 [256]
00000000: 2c37 e9b8 5812 c2bd a4ec 973c b153 5b3d
00000010: ec45 ee3d 65bf e53c e097 203d 09e1 063e
00000020: f7d3 d5bc d66d 02bd 1833 c63d c8a9 bdbd
00000030: 7d1f dfbc 548c 1ebd a6a1 5bbd a3da a9bc
00000040: 5855 c73d f321 6d3d 8a87 d43d 4de5 abbb
00000050: 54a2 0c3b 2c92 ad3d 9e18 a4bc dcfc 993d
00000060: b78e b93d f83e b0bd 1619 f0bc ab1d 1cbd
00000070: d9cb 353d 335f b23d c2a8 05bd db97 fa3c
00000080: d9de cf3d e7d1 7e3d 4ee3 63bd 474e 373d
00000090: 028f d0bc f072 773d 31ac 84bc 6099 39ba
000000a0: f05d 1a3d 8c3b bbbd 0e02 d73d 3b77 fa3c
000000b0: e456 1abd 578b 2f3d 8458 053a 4095 143d
000000c0: aa65 723d 3618 893d efa5 02bd 257a ba3d
000000d0: e742 093e e884 113d 633d 6bbd ab4f 7b3d
000000e0: 5cea 0e3e 30f1 a53d caae 833d 4fa3 bebc
000000f0: a917 ce3c 26c3 073e 1c96 ea3d 9989 5f3d
00000100: a147 fabc 3a07 e63d c4c1 37bd 4c7c 51bd
00000110: f594 983d 6a01 7f3d 5da0 d2bd 55b1 2cbc
00000120: e649 fa3c d4c2 7b3d 7066 d43d 1f18 fcbc
00000130: 6395 813d 8964 06bc 6cf5 e33d e726 ddbc
00000140: c898 033d 1665 bf3c a2a2 a73d 1c07 b93d
00000150: b0be 30bd 184e c53d b9c3 363b aa2f 3bbd
00000160: d7b8 0abd 33ed f53d c65f 2b3d 8ee1 70bb
00000170: d142 d73d 4789 98bd 9149 f93c f0c9 e0bc
00000180: fd74 bcbd 6501 4b3d 26da c83c 4ae7 40bd
00000190: c7be 203d 358c 483c 5fc8 7dbd 9bfa 15bd
000001a0: cc7d 8c3d 1ef8 853d 7783 d4bd b3cf afbc
000001b0: ec7f 9cbd 25ca 18bd 421f 2e3d 78c8 ac3c
000001c0: 6ea6 3ebd c834 04bd e324 093e cc34 ed3d
000001d0: e4c8 f1bd 1852 55bd d3f7 d73b e991 8abd
000001e0: 8d02 633d 23ea 29bd fdb4 b13c 4ad2 633d
000001f0: 007b 5b3a 5b9e 26bd 6888 01bb b387 ce3c
00000200: fc67 243b de1b 12bc 633d b2bc 8f9a b63c
00000210: 958e cfbd 5c56 61bc a135 20bc dd8a 543c
00000220: 085a 883d e171 a4bd 1b10 5f3c 2e40 54bb
00000230: 7d2b c1bd eb58 b13c ccd0 aabd 1dba a3bd
00000240: df92 8d3d b661 fabc 66cd e9bc bba4 e9bc
00000250: 16ee 5d3b fa3c a13d 3141 47bc 1d6d 263d
00000260: c26d a3bd e366 1bbd b787 d03d bc21 663d
00000270: e19d d83d a34a a13d 15a0 bc3d 9025 d03d
00000280: e996 e23c ce60 a6bd 2bc1 753d 0e49 8a3d
00000290: 846e 083c 7279 ddbb 6652 bc3c a158 503d
000002a0: d0e1 28bc 6047 82bd f261 893d 0b9e 913d
000002b0: 692d 3d3b 57bb e63d 0782 40bd db6a 88bd
000002c0: be6a 923d f69b a33d ae28 963c aa47 153d
000002d0: ca2a 73bd 7c3d a23d 6285 8dbd d740 403d
000002e0: 5aad b13d bdb5 173d 6544 ae3d 684a e93b
000002f0: bd5d a53c 57f2 29bd 5c81 98bd 2958 cabc
00000300: fcde 81bd 382b 13bd 359d 633d c992 cebd
00000310: f1f3 6c3d a50b a73d b0a4 82bd 0925 cc3c
00000320: b6b3 c23d 744b 2abd 8961 cf3d 2410 b3bb
00000330: cb9d b5bb 69cd cdbd 4fda 8c3d eed9 a43d
00000340: 4e01 b93d eb14 0f3d 5ac3 253d 8d5c e13d
00000350: 0b7a 963b f68b 943c 6321 bf3d 011d 233d
00000360: 3537 8f3d b7db 6abc c0cd 3d3d 5b5c ed3d
00000370: 5371 9b3c 6843 e0bc 0458 a63c a4bb c8bd
00000380: a88a 323d a2c6 3b3a 9bce 0a3c ef1f d0bc
00000390: 55ad ad3b 9ea0 36bd 132e dbbd 27a9 b53d
000003a0: 3e61 113d 6121 c6bd 4027 233d f4de afbd
000003b0: f263 0bbd d6d6 acbd 15d9 583c e011 4ebb
000003c0: 5b65 33bd 47e3 033d 5ce9 65bd 0e12 0cbd
000003d0: 2941 143d c47f 5d3c 3c7c 23ba 62fc ffbc
000003e0: 749e 71bd 9068 4e3d 90d8 ae3d cf69 bdbd
000003f0: c926 00bd 035c 64bd 84fc 913d aba0 fa3c
-0.00011120582 -0.09476155 0.018545456 0.05354661 0.1163443 0.028045366 0.03920734 0.13171782
-0.02610205 -0.03184303 0.09677714 -0.09260899 -0.027236694 -0.038708046 -0.053620957 -0.020734137
0.09733075 0.057893705 0.103774145 -0.0052458406 0.002145906 0.08475146 -0.02003127 0.07518932
0.09060424 -0.0860576 -0.029308837 -0.03811423 0.044383857 0.08709564 -0.032631643 0.030589988
0.10149927 0.062211897 -0.055636697 0.044752385 -0.025458816 0.060412347 -0.016195389 -0.00070800446
0.037687242 -0.09142217 0.10498439 0.030574432 -0.03768052 0.042857494 0.0005086737 0.03627515
0.059178986 0.06694071 -0.031896528 0.091053285 0.13404427 0.03552714 -0.05743159 0.061355274
0.13956589 0.081026435 0.06429823 -0.023271231 0.025157766 0.13258037 0.11454412 0.054574583
-0.030551733 0.11231847 -0.044862524 -0.05114393 0.07450286 0.062257208 -0.10284493 -0.010540326
0.030552816 0.0614651 0.10371101 -0.03077322 0.063273214 -0.00820268 0.11130795 -0.02699609
0.032128125 0.023363631 0.081853166 0.09034559 -0.043150604 0.09634036 0.0027887656 -0.045699753
-0.033867683 0.12008133 0.041839384 -0.0036755535 0.10510791 -0.074480586 0.030430587 -0.027440041
-0.09202001 0.049561877 0.024518084 -0.047095574 0.03924444 0.012240459 -0.061958667 -0.03661595
0.06859931 0.06541465 -0.103766374 -0.021461343 -0.07641587 -0.037302155 0.04251028 0.021091685
-0.04654544 -0.0322769 0.13392977 0.11582336 -0.11805895 -0.052080244 0.0065908222 -0.067661114
0.055422354 -0.041483056 0.021692747 0.05562047 0.00083725154 -0.040678363 -0.0019765142 0.02521119
0.0025086394 -0.008917777 -0.021757787 0.022290496 -0.10134617 -0.0137535 -0.009778411 0.012972561
0.06657797 -0.08029533 0.01361468 -0.0032386887 -0.09432123 0.021648845 -0.08340606 -0.07994483
0.06912779 -0.03056417 -0.028540324 -0.028520932 0.0033863834 0.078729585 -0.012161539 0.040631402
-0.07979919 -0.037939917 0.101821356 0.056184515 0.10576988 0.07875564 0.09210221 0.101634145
0.02765985 -0.08123933 0.059998672 0.06752215 0.00832713 -0.006758862 0.02298851 0.050865773
-0.010307744 -0.0636127 0.06708135 0.071102224 0.0028866178 0.11266201 -0.046999004 -0.06661006
0.07149266 0.079887316 0.018329944 0.036445297 -0.05936698 0.079218835 -0.069102064 0.046936836
0.08675642 0.037038554 0.08509139 0.0071194656 0.0201863 -0.04149088 -0.07446548 -0.024700241
-0.06341359 -0.03592989 0.055569846 -0.10086591 0.05784983 0.08156518 -0.06379068 0.024920003
0.095069334 -0.041575864 0.10126025 -0.0054645706 -0.005542492 -0.100489445 0.068775766 0.08049379
0.09033452 0.03493206 0.040469505 0.11003981 0.0045921854 0.018133145 0.0933254 0.039822582
0.06992952 -0.014334611 0.046338797 0.11589881 0.018974936 -0.027375892 0.020305641 -0.098014146
0.043589264 0.00071630825 0.00847211 -0.025405852 0.005300204 -0.04458677 -0.10702147 0.08870154
0.035493128 -0.09674335 0.039832354 -0.08587447 -0.034030862 -0.08439414 0.01323535 -0.003144376
-0.043797832 0.03219917 -0.056130752 -0.034196906 0.036194954 0.013519231 -0.0006236469 -0.031248275
-0.058989003 0.050392687 0.085374 -0.09248697 -0.03128699 -0.05575181 0.07128242 0.03059419

fc3.weight f4 [128, 256]
00000000: d8b4 b13c b06c d5bb e25c 66bd f0f2 203c
00000010: 10a9 04bc 20a1 f73b 405b ba3b 66e2 6ebd
00000020: 2a63 5ebd 1ca8 303d c0db 73bc b828 92bc
00000030: 80c0 203b 6655 58bd 8082 b3ba b495 063d
00000040: e488 a73c 44f7 47bd 40fe 9f3c 1c6e 213d
00000050: f2aa 283d 58b1 c4bc 7c8c a6bc b0bc 25bd
00000060: 58b4 cf3c c240 323d 8c4d 25bd f8fb d43c
00000070: b491 923c 7072 843b 38b8 483d 0805 0bbc
00000080: 9888 74bc 96bf 2ebd f8d3 503d 123b 053d
00000090: c68e 583d 38e4 07bd 503a 05bc 007a 593c
000000a0: ae5e 76bd d048 77bd 7486 ddbc b0a9 1ebd
000000b0: 0cca 713d 220d 4d3d 7c3c f2bc 28a1 64bd
000000c0: 10ed 6dbd 30bc 88bb 6a24 4ebd 8ab3 0ebd
000000d0: 9ce3 b13c 20e7 c6bc f084 f4bc 38a6 24bc
000000e0: ea20 693d eaaa 083d 4845 1e3c b87b 2a3d
000000f0: 3886 4dbc 80f2 80bc f00e f1bb c0fd fbba
00000100: 3c47 b2bc 3873 2b3d 5057 003d a69d 7c3d
00000110: 2613 75bd 6e7d 5dbd ea1a 00bd 8046 a03a
00000120: 604f 3f3c 2c01 133d 22f0 63bd 70b6 1ebd
00000130: d000 1b3d 587e 14bc 7cc2 48bd e28e 5bbd
00000140: 3463 703d 406a 28bb 3a0c 203d eae8 5ebd
00000150: c048 64bb ec02 893c defd 48bd 8857 673c
00000160: a495 4cbd 4040 78bd c029 c93a 7849 1f3d
00000170: 0087 8039 ecf4 81bc f4e9 093d 2204 253d
00000180: 00df 49bb 7896 f83c a880 09bd 2076 55bd
00000190: d037 b53b eca2 0bbd c44a 093d a028 49bc
000001a0: 7043 22bc 22c4 25bd 183e 15bc 2864 3a3c
000001b0: 3a80 123d 9243 09bd f82b 65bc 3207 1bbd
000001c0: c0c5 cabb 88ad 88bc 38a1 d33c 0061 4d3b
000001d0: a073 fc3c ba38 0e3d fcf6 79bd ecdb 843c
000001e0: 401b 5fbc 2043 0ebb 804a 903a 840b 463d
000001f0: f059 41bc 52fa 76bd 3013 383c e042 80bc
00000200: c007 ae3b 3c53 3ebd dc6a f4bc e021 ce3b
00000210: 0464 7e3d a01c 79bd 22b7 1b3d 7016 ab3c
00000220: dabc 2ebd e2d3 793d ccd7 fabc 80e4 46bc
00000230: 2022 5b3c 5861 0c3d b06b 40bc 867e 5f3d
00000240: cc00 97bc 70ba 31bd ee97 27bd a8a7 093c
00000250: ecce 39bd 844f 1d3d 124d 45bd 9075 303c
00000260: 606e 6fbc 8ca7 503d 68b7 123d 00a0 5437
00000270: 0090 fd3a 9c27 99bc 8c71 afbc 1005 3e3d
00000280: 683c e3bc 0ca6 753d 648d 65bd e81b 893c
00000290: 3c7b debc 9a65 503d e08a 29bb 203e e53b
000002a0: a0f9 273d 90a0 3ebc 4675 60bd 8231 393d
000002b0: c061 6c3c 401f 6abb 3826 edbc e08b 923c
000002c0: 5a6e 0f3d b2ba 1cbd e8b9 97bc 64fb b53c
000002d0: 68ba 1dbd 78eb 543d fa3c 683d f8f9 7abc
000002e0: 4a5e 4e3d 84a9 27bd 807b c63b 4689 1fbd
000002f0: 6807 d23c 7691 2b3d 4427 25bd 669e 29bd
00000300: deb1 073d 1e24 163d 9c8b 38bd 6018 0abb
00000310: d076 2cbd 00e9 633c 0841 23bd 5a3d 0b3d
00000320: 383a b8bc 8c16 653d a84d c9bc dc6d 12bd
00000330: 90f0 47bc a092 553d ecec f23c 40ac abbb
00000340: 90a4 1fbd b0ff 68bc a02e 713d 60a1 623c
00000350: 5eb7 473d 7e75 203d 3086 9e3b 0c39 3dbd
00000360: ac59 633d 90b4 d03b 489a 5b3c 8244 1fbd
00000370: fcbb 823c 4846 40bc 304d 45bd fc8f 643d
00000380: 6886 7dbc d68f 15bd 0e99 40bd dcc0 7c3d
00000390: 3cdf 613d c4ac 733d b0e5 753d 7634 14bd
000003a0: b44b 75bd ba51 363d aacd 4cbd 1045 6bbc
000003b0: c0ad 9aba e410 b8bc ea2e 02bd 988f aebc
000003c0: c8a4 2a3d d83a 7a3d dca1 a03c b44d 47bd
000003d0: 28f4 febc 004b e0bb 048c 9f3c 1cf8 37bd
000003e0: 4aaa 743d f4b6 c7bc 9e47 17bd 2ce3 6fbd
000003f0: 52cd 46bd 8c6e 963c 96f1 0dbd 2e33 16bd
0.021692678 -0.0065132007 -0.056240924 0.009823546 -0.008096948 0.0075570494 0.0056871474 -0.05832138
-0.05429379 0.04312907 -0.014883935 -0.017841682 0.0024528801 -0.052815817 -0.0013695508 0.03285761
0.020451017 -0.048819795 0.019530416 0.03941165 0.04117865 -0.024010345 -0.02033066 -0.04046315
0.02535455 0.04351879 -0.040357158 0.025999054 0.017891742 0.0040419623 0.04900381 -0.008485086
-0.014925145 -0.04266318 0.0509834 0.032527037 0.052870534 -0.03317663 -0.008131579 0.013273716
-0.060148887 -0.060372174 -0.027041651 -0.038736045 0.059030578 0.050061353 -0.029569857 -0.055817753
-0.05808741 -0.0041728243 -0.050327696 -0.03483919 0.021714978 -0.02428013 -0.029848546 -0.010049395
0.056916155 0.03336612 0.009660073 0.041621894 -0.012544207 -0.015740633 -0.007356517 -0.0019225404
-0.021762483 0.041857928 0.031333268 0.061673783 -0.059832714 -0.054074697 -0.031275667 0.0012228042
0.011676639 0.03588979 -0.05564893 -0.038748205 0.03784257 -0.009063326 -0.0490136 -0.05360306
0.058688357 -0.0025698096 0.03907416 -0.054421343 -0.0034833401 0.016725026 -0.04907023 0.01411999
-0.049947396 -0.06060815 0.0015347525 0.038888425 0.00024514645 -0.015863858 0.03367038 0.040287144
-0.0030803084 0.030345187 -0.03356996 -0.052114606 0.005530335 -0.03409092 0.033518568 -0.012277752
-0.009903774 -0.04047025 -0.009109043 0.011376418 0.035766818 -0.033511706 -0.013987534 -0.03784866
-0.0061881244 -0.016684309 0.025833711 0.0031338334 0.030816853 0.034722067 -0.06102656 0.016218148
-0.013617337 -0.002170749 0.0011008531 0.048350826 -0.011801228 -0.060297318 0.011235043 -0.015656888
0.0053109825 -0.046466097 -0.02983611 0.0062906593 0.0621071 -0.060818315 0.038016446 0.020884722
-0.04266057 0.060993083 -0.030620478 -0.01213944 0.013374835 0.03427252 -0.011744425 0.05456402
-0.018432997 -0.04339069 -0.040916376 0.008401789 -0.04536335 0.03840591 -0.048169203 0.010770217
-0.014613718 0.050941035 0.03581944 1.2673438e-05 0.0019345284 -0.018695645 -0.021416448 0.046391547
-0.027738765 0.059972808 -0.056043044 0.01673694 -0.027158372 0.050878145 -0.002587013 0.0069959313
0.041009545 -0.011634961 -0.05479934 0.04521323 0.014427602 -0.0035724193 -0.028948888 0.017888963
0.03501735 -0.038263984 -0.018521264 0.022214599 -0.03850785 0.051982373 0.056698777 -0.015318386
0.05038289 -0.040933147 0.006057203 -0.038949274 0.025638297 0.04188677 -0.04032065 -0.041410826
0.03312861 0.036655538 -0.045055017 -0.0021071658 -0.042105496 0.013910532 -0.03985694 0.033994056
-0.022488698 0.055929706 -0.024573162 -0.0357493 -0.012203351 0.052141786 0.029653989 -0.0052390397
-0.0389753 -0.014221117 0.058882356 0.01383242 0.048758857 0.03917455 0.0048377737 -0.046196982
0.05550544 0.006369181 0.013403483 -0.038883694 0.015958779 -0.011735506 -0.048169315 0.055801377
-0.0154739395 -0.036514126 -0.047020964 0.061707363 0.055144534 0.059490934 0.0600335 -0.036182843
-0.05988665 0.044511534 -0.050000824 -0.0143597275 -0.0011801049 -0.022468992 -0.031783022 -0.021308705
0.041661054 0.061091274 0.01960843 -0.048658088 -0.031122282 -0.006844878 0.019475944 -0.04491435
0.059732713 -0.024379231 -0.036933534 -0.058566257 -0.048535652 0.01836326 -0.034654222 -0.036669903

fc3.bias f4 [128]
00000000: cacf 4b3d 45eb b93d 22ef b33b dfb5 cd3d
00000010: 1326 e83c 88f3 abbc 942e 92bd fca7 54bd
00000020: 0069 24bd 2ea8 f7bc 4389 6e3c ed25 c83d
00000030: 8066 963d 6305 863d 733c 903d 19ce 14bd
00000040: 8b16 cb3b 3746 d73c 47f3 b0bb d13a 0cbd
00000050: 896b 9dbd 11ed bd3d 02c3 ec3c e163 353d
00000060: 8d71 fe3c c56f fa3b c416 b43c 891a 073e
00000070: d67e b13c 7f6d a6bc fdae b63d 520d ac3d
00000080: f915 803c d707 3f3d f0f1 463d 33e0 483c
00000090: c9ee 323d 5831 14bd 2941 663d ac89 783a
000000a0: 6bb6 8d3d 2edd 113d d5ed e9bc d1c4 8bbd
000000b0: 58f7 763c 11a2 ae3c 306f 28bd 4e1c 29bd
000000c0: e072 ed3d 12b1 6fbd d5a7 e63d 3de3 0a3d
000000d0: b7dd d13d 4abe 31bd f950 693d 5955 f83d
000000e0: 81bc 44bd e1ce 0a3d fde8 8cbd 791f 523d
000000f0: dd24 3bbc fba4 14bd d7ed a13d 52e6 443d
00000100: 81a5 53bd aec7 043e 7cad a93c 5cb7 a13c
00000110: c662 77bd 4995 61bd 978b af3c ecbd 6f3d
00000120: f398 1b3d 907f 0a3e 809e be3d c861 b13d
00000130: 02fb 75bd e857 d03d a3ca 2abd 80d1 d63c
00000140: 725d c63d e027 e83d 2841 da3c fe41 a03c
00000150: e400 513d 9755 c33d c911 a4bd af0d 853d
00000160: ec51 60bd 8667 39bd 8cfc 053e 34b1 ed3c
00000170: 99b2 ea3c beb1 b13d d2af 2bbd 1ef9 95bc
00000180: fb4e 553d a8c4 ed3c 8fb6 ef3d eddf d03c
00000190: 16c5 533c 1414 b23d 7a77 733c e5df edbc
000001a0: 7481 a23d 8431 8dbd 6822 1fbd 72bb 823d
000001b0: ac57 b5bc 35ea 463c ea4f 153b 9eee de3d
000001c0: 1c92 2d3d 8c19 513d 85a7 ca3c 75cf e03d
000001d0: 911b 7e3c 9b8f f0bc 3407 0e3d c305 9bbd
000001e0: 826f a23c 3b07 20bd 3cf8 67bd 6783 8b3d
000001f0: f608 ad3d 8554 313d d847 c1bc fec0 fdbc
0.04975871 0.09078077 0.0054911533 0.10044455 0.028338468 -0.020990148 -0.0713779 -0.051918015
-0.0401392 -0.030231562 0.014559093 0.09772859 0.07343769 0.06543996 0.0704278 -0.036329363
0.0061977557 0.026278598 -0.0054000947 -0.03423578 -0.07686526 0.092737325 0.02890158 0.044284705
0.031060005 0.0076427185 0.021983512 0.13193716 0.021666925 -0.020315884 0.08920095 0.08400978
0.015635477 0.046638336 0.048570573 0.0122604845 0.043684755 -0.03617987 0.056214485 0.0009480964
0.06919559 0.035611324 -0.02855579 -0.06824649 0.01507362 0.021317514 -0.04112166 -0.04128676
0.11594176 -0.058518477 0.1126248 0.033908118 0.10247367 -0.043394364 0.056961987 0.12125654
-0.048031334 0.0338887 -0.068803765 0.051299546 -0.011422363 -0.03629015 0.079066925 0.048071213
-0.05167151 0.12966797 0.020712607 0.019740753 -0.060396932 -0.05507401 0.021428866 0.058530733
0.03798766 0.13525224 0.09307575 0.086612284 -0.060053833 0.10173017 -0.041697156 0.026222944
0.09685792 0.113357306 0.026642397 0.019562718 0.05102624 0.09537809 -0.08011205 0.064967506
-0.054765627 -0.045264743 0.1308462 0.029015161 0.028649615 0.0867648 -0.041915722 -0.018307265
0.052077275 0.029024437 0.11704742 0.025497401 0.012925407 0.08695236 0.014860028 -0.029037425
0.079348475 -0.0689421 -0.03885117 0.063834086 -0.022136532 0.0121408 0.0022783228 0.10885356
0.04237567 0.051049754 0.024738083 0.10977069 0.015509502 -0.029365351 0.03467484 -0.07569458
0.019828562 -0.039069396 -0.05663322 0.068121724 0.08448975 0.043293495 -0.023593828 -0.030975815

fc4.weight f4 [2, 128]
00000000: b3dd 263d 0cb1 2e3d 29fa f53b 47ed ea3d
00000010: 665c 77bd 4859 213d 7ccd b5bc 21a7 ab3d
00000020: 2e9a a9bd f5cb 8a3c ceea 16bd 684e 1d3d
00000030: 26ed e53d 99da c73d 657b b33d 99fa 193d
00000040: 6c19 4c3d 615d b13d 6523 3c3e 1765 57bc
00000050: 6ce8 63bd b038 85bc 98c5 553d 7f5f c63d
00000060: 2371 64bd 88bc 223d 8939 82bd 6b27 f63d
00000070: 09f6 fe3d 5296 09bd 5e0c c5be 2367 17bd
00000080: ea6c a73d 4811 db3d 7672 87bc 8e33 32bc
00000090: a178 593d be13 1a3d 1744 fa3c 5fe0 833d
000000a0: 41c8 ef3d db2a 183d fd87 e9bc f155 b9bb
000000b0: 3cd3 3cbd b2ee ad3d 5879 683d 322c d13d
000000c0: 1897 a43d 59bb 70bd 1c41 d93d 8bf5 05bd
000000d0: b992 903d 64e5 873d eae0 c73d 0921 39ba
000000e0: 1a7b 08bd 2837 8e3d 4e08 28bd fe73 d03d
000000f0: ee2f 933d b7db 8dbc b5a8 a13d e05e a23b
00000100: 5405 f1bc 15cb 903d 4a26 a8bd 4034 b8bc
00000110: 2d7a 4f3d e407 013d 3f60 683d 8662 143e
00000120: d927 a13d 4f11 c43d 6b1e 55bd c5d4 63bc
00000130: 8af3 463d 2e0c 57bc 9dc8 7d3d a858 ce3d
00000140: 11aa 083e 3a85 013e f2ed a33d fc72 f13d
00000150: 8e04 da3d f129 c73d 3238 54bc 2214 ba3d
00000160: 6cc2 8dbd 789e c8bc 9bd5 b43c 497f e8bc
00000170: 299f 90bb 3b2b e13d 7d99 043d 338e 8b3d
00000180: 082a fa3d ef89 36bd 4bcc 51bc 520a 81bd
00000190: 1959 f0ba c0e9 51bd e44f 093e 10f0 9fbd
000001a0: 7708 963d 7af7 9bbd ecbb 3abd 3ea4 de3d
000001b0: 40d0 29bb c4cb 89bd 6043 48bd 5924 873d
000001c0: 2a48 78bd 5a5e a53d c9b5 d93d acb7 083e
000001d0: f917 6ebd cdf8 893b 7e27 4fbd 23a1 22bd
000001e0: 357d 653d e447 b5bd a275 69bc f0b1 b13d
000001f0: 269a 27bd 8166 c5bd effc 12bd ad91 6dbe
00000200: 2d4d 78bd 0951 cb3d 8dab 91bd f8f5 6d3d
00000210: 47b5 583e d09d 0dbd c4b0 8ebd cc09 d1bc
00000220: 4a84 c3bb 0455 05bd 188d 8e3c 8680 9a3d
00000230: b7c1 7a3b 66f0 a43d d4f6 763d 391f 86bd
00000240: 9e08 80bd 91f2 ef3c 2ad5 4dbe 58d3 08bd
00000250: 9243 3c3d 7031 cd3d 23e2 6b3c 064c 433d
00000260: 9fb7 debc 3bc5 7f3e 7e32 e13d 88f7 003e
00000270: c5f0 5d3d 4cbe bebc 6451 e23e 2c28 e33d
00000280: f650 203d 4cff 073d 9b51 e33c e181 42bd
00000290: e8d5 b43d 4fb3 833d 54dc bd3c 44ff 9dbd
000002a0: 1acf 97bd 1143 c3bc 0e66 33bf 2252 2bbd
000002b0: 0a54 383c 2db8 043e f56a 4d3c d02d 963f
000002c0: 2c48 843d 6dc0 803d ef80 853d d7ed 62bd
000002d0: 84b9 8a3d 7de5 673d f731 043e 9189 013e
000002e0: 003d 56bd e8af 30bd 00d8 e13c 14de e53d
000002f0: 98b8 4dbd 5527 5c3d 7b9a 84bd 8ef4 fa3c
00000300: 4a28 063c 053b b33d 05bc a5bd 28c7 0cbd
00000310: 7265 61bd 82ef 7a3d 1119 99bd 38db 4b3e
00000320: df5f 143c d2ff b53d 4b6c f93d ce08 ec3d
00000330: 6660 5fbd 193d dc3d 7ec8 62bd c06a 8ebd
00000340: bed3 e0bd 2354 903d 6973 abbd f62c f03d
00000350: 1187 45bc b6f4 38bd 73d2 1bbd 161c 9c3d
00000360: 2413 49bc 2f76 9abc 6451 a93d 8061 8bbd
00000370: a908 2d3d fca9 933c eb4a 333c 7e3a 713c
00000380: 4ac4 553e d5a5 703c 3cd4 b63d 640c a4bd
00000390: 569d f63b d033 e43d b4a1 953d 975a 45bf
000003a0: 26fe ea3c e5d2 613d f7ed 0e3d 9f70 16bd
000003b0: 2fa7 7bbd 6db0 b53c fbb2 1a3e 85c0 0b3e
000003c0: d188 8bbd b8c7 1e3d c794 34bf 0f3a 52bd
000003d0: e77f 8bbd 4d6b 1cbc 7c4d 163e 5925 153d
000003e0: 5c9d 5d3d 787f 0b3d ac6b 50bd c13c 193d
000003f0: 7bea 0b3e fc1d 803e 0595 6cbc 4bf9 153e
0.040738773 0.042649314 0.007506628 0.11471038 -0.060390852 0.039391786 -0.02219271 0.08381487
-0.082813606 0.016942957 -0.03684502 0.038404852 0.11226873 0.09758491 0.0876377 0.037592504
0.04982893 0.08660389 0.18372877 -0.01314666 -0.055641577 -0.016262382 0.052190393 0.09686183
-0.055771958 0.03973058 -0.0635863 0.12019237 0.12449271 -0.033590622 -0.38485998 -0.036963593
0.081750706 0.106966555 -0.016534071 -0.010876549 0.053093556 0.037616484 0.030550046 0.0643928
0.11708117 0.037150245 -0.028507227 -0.005655997 -0.046099886 0.08492793 0.056756347 0.10213508
0.08036631 -0.05877242 0.10608122 -0.03270487 0.07059235 0.0663555 0.09759696 -0.00070621126
-0.033320524 0.06944114 -0.041023545 0.10178374 0.07186876 -0.017316682 0.078935064 0.0049551576
-0.029421486 0.07069985 -0.08210428 -0.022485852 0.050653625 0.031501666 0.056732412 0.14490709
0.078689285 0.09573614 -0.052030962 -0.013905709 0.0485721 -0.013125462 0.061958898 0.100755036
0.13346125 0.12648478 0.08004369 0.1178951 0.106454 0.097247966 -0.012952851 0.09085871
-0.06921849 -0.024489626 0.022074511 -0.028381007 -0.0044135046 0.10994574 0.03237294 0.06814232
0.12215048 -0.044565137 -0.012805055 -0.063007966 -0.00183371 -0.051248312 0.13409382 -0.0780946
0.07325833 -0.07615562 -0.045589373 0.108711705 -0.002591148 -0.06728318 -0.04889238 0.0659873
-0.060615696 0.08074637 0.10630376 0.13351315 -0.05812833 0.0042105676 -0.050574772 -0.039704453
0.05602761 -0.08851603 -0.014249237 0.08676517 -0.04091849 -0.09638692 -0.035885748 -0.23200102
-0.060620476 0.099275656 -0.07112799 0.058095902 0.21162902 -0.03457433 -0.06967309 -0.025517367
-0.005966698 -0.03255178 0.017401263 0.07544045 0.0038262436 0.08053665 0.060293987 -0.06548924
-0.062516436 0.02929047 -0.20100847 -0.033404678 0.045962878 0.10019195 0.014397177 0.047679923
-0.027187167 0.24977581 0.10995959 0.12594426 0.054184694 -0.0232841 0.4420272 0.110916466
0.03913971 0.033202454 0.027748873 -0.047487143 0.08829862 0.06430685 0.02317635 -0.07714704
-0.07412548 -0.02383569 -0.700776 -0.041826375 0.011250505 0.12960882 0.012537708 1.1732731
0.06459078 0.06286702 0.06518733 -0.055402603 0.067736655 0.05661534 0.12909685 0.12650134
-0.052304268 -0.043136507 0.027568817 0.11223999 -0.05022487 0.053748447 -0.06474777 0.03063419
0.008188317 0.087514915 -0.080925025 -0.034369618 -0.055028386 0.06126357 -0.07475484 0.19907844
0.009056061 0.088866845 0.12178858 0.11525117 -0.054535292 0.10753841 -0.055366985 -0.06953955
-0.109778866 0.07047298 -0.08371622 0.117273256 -0.012056128 -0.04515525 -0.038042497 0.076225445
-0.01227263 -0.018855182 0.08267477 -0.06805706 0.042244587 0.01802539 0.010943155 0.014723418
0.2087566 0.014687975 0.08927199 -0.08010176 0.00752608 0.11142695 0.07306233 -0.77091354
0.02868564 0.055132765 0.03489491 -0.036728498 -0.061438736 0.022178853 0.15107338 0.13647659
-0.06813205 0.038764685 -0.70539516 -0.0513249 -0.06811505 -0.009547067 0.14677995 0.03641257
0.054105148 0.03405711 -0.050883934 0.037411455 0.13663666 0.25022876 -0.014439826 0.14645879

fc4.bias f4 [2]
00000000: ef77 e93a fe71 d43c
0.0017812232 0.025933262
