models/cartpole_d3qn.pth (torch, 207564 bytes, 9 tensors)

ll_fc1.weight f4 [128, 4]
000000 78 e2 86 bc a7 0d 27 3e 59 ec ee be 92 04 92 be
       -0.01646541 0.16313802 -0.46664694 -0.28519112
000010 c7 96 c3 be 03 39 65 3e 68 b1 9c 3d df fd ad 3e
       -0.3820097 0.2238503 0.07651025 0.3398275
000020 83 d4 85 bd 67 05 15 3e e3 89 16 be aa b4 1b be
       -0.06534674 0.14552842 -0.14701037 -0.15205637
000030 26 bf df be 73 7e 93 be 5d 45 97 be 24 b2 1e bc
       -0.43700522 -0.2880741 -0.29545107 -0.009686027
000040 90 e7 6e 3e 9a b5 40 3e be 71 10 bf 6a 2e 4c be
       0.23330522 0.18819275 -0.56423557 -0.1993958
000050 6c 33 03 3e 34 b5 e2 3e 43 87 bc be cc 61 bb 3e
       0.12812585 0.44278872 -0.36821947 0.3659805
000060 b7 42 ad bd c5 fe a8 3b f0 76 f2 3e 2c d0 f8 be
       -0.084599905 0.005157324 0.47356367 -0.48596323
000070 e9 3f a1 be dd c2 9d bd 52 5d 17 3e fe 22 be 3e
       -0.31494072 -0.07703183 0.14781693 0.37136072
000080 3d fe d2 be 5d 62 b3 be df a7 2d be 58 87 c6 be
       -0.41209593 -0.35035983 -0.16958569 -0.38775134
000090 83 5c e3 be 2e f9 a9 3e c5 31 2c 3f 54 1d a1 3e
       -0.44406518 0.33197922 0.6726344 0.31467688
0000a0 f2 49 1a 3d cc b7 96 be 03 98 63 3e 93 92 cb be
       0.037668176 -0.294371 0.22225957 -0.39760265
0000b0 5b 78 93 be 9c 72 76 be 29 24 15 3f 9b d5 88 3e
       -0.2880276 -0.24067158 0.582583 0.26725468
0000c0 48 24 29 be 44 47 cc 3c 4d 3e 18 3f a7 a9 e4 3e
       -0.16517746 0.024936326 0.59470063 0.44660684
0000d0 0e 58 44 3e 18 cb 1f 3c 89 61 9a 3e 1e 0e 6a be
       0.19174215 0.009753011 0.30152538 -0.22856948
0000e0 38 5c 8f 3d 40 9c bb be 04 e3 21 bf a2 1d 87 be
       0.07000011 -0.36642647 -0.63237023 -0.26389796
0000f0 54 63 59 3e 14 53 0f 3e ec a4 81 be 18 73 62 3e
       0.21229297 0.13996536 -0.25321138 0.22114217
000100 6e 7d 70 3e 49 61 17 bd 15 54 b0 3e 03 2a 66 3d
       0.23485348 -0.036958013 0.3443915 0.05619241
000110 86 35 a2 3e ff 29 e3 3e 33 96 14 bf de 1d 2c be
       0.3168146 0.44367978 -0.58041686 -0.16808268
000120 39 46 f7 3d 1f 1a da 3e a3 24 2a 3f ea 64 e4 3e
       0.12073941 0.42598054 0.66462153 0.4460824
000130 67 82 8d 3d 9d 4e d2 be 09 8a 2c bd 2e 53 b0 be
       0.06909638 -0.41075602 -0.042123828 -0.3443846
000140 0c 3b 10 bf 98 e1 c6 3e 06 05 f0 3e 9e cf e2 be
       -0.563401 0.3884399 0.46878833 -0.44299024
000150 37 3b b2 3d 57 f9 b9 bd 2b 11 9b bd 9e a2 63 be
       0.087027006 -0.09080761 -0.07571634 -0.22230002
000160 77 63 89 3e 8a a5 82 be ee dc dc 3e b6 ea 5a 3e
       0.26833698 -0.2551692 0.43137306 0.21378598
000170 e3 ff ac 3e 76 6d 51 3e 9e 33 2a bf 3f 2f b8 be
       0.33788976 0.20451912 -0.6648501 -0.35973546
000180 fd 93 9c 3e ed 5e b3 3b de 74 25 bf 90 74 9a be
       0.30581656 0.0054739625 -0.6463145 -0.30167055
000190 f1 ba 10 3f f6 ac 9a 3e 01 1a 00 bf ab 8c 20 be
       0.5653525 0.30210084 -0.5003968 -0.1567866
0001a0 b0 cf 96 be 94 ce c5 bd 1f 79 20 bf 2a b7 c6 be
       -0.29455328 -0.09658542 -0.62684816 -0.38811618
0001b0 e0 09 1c bd 8e a7 df 3d 7d 03 07 bf 40 6e 90 3e
       -0.038095355 0.109206304 -0.527397 0.28209114
0001c0 fc c7 0e be 8a ae f9 3e a8 c6 f0 3e 14 d1 cc be
       -0.13943475 0.48765975 0.47026563 -0.40003264
0001d0 ad 42 82 be a3 6c 45 3d 10 52 d6 bd 2b ec db 3d
       -0.25441495 0.048199307 -0.10464871 0.10738405
0001e0 12 d0 c5 3d b2 13 ab 3d 07 51 c7 be 9b b4 66 3e
       0.09658827 0.08353366 -0.38929006 0.22529833
0001f0 56 91 f5 be a0 bb 97 be 3c 2b 00 be ec 66 79 be
       -0.47962445 -0.29635334 -0.12516493 -0.24355668
000200 cb 46 07 be b5 c3 a4 be 31 e1 f0 be c4 f8 3a 3d
       -0.13210599 -0.32180563 -0.47046807 0.045647398
000210 7c 58 cc be 7b c7 06 bd da ca 46 3f 6f b5 98 bd
       -0.39911258 -0.032905083 0.77653277 -0.07456481
000220 a7 ff 91 bd 48 7b c2 37 e2 34 bd 3e 8c 26 8c 3e
       -0.0712884 2.318401e-05 0.3695441 0.2737316
000230 b9 8f f1 3e 87 11 ab 3e e0 a4 12 3f 91 e4 88 bd
       0.47179964 0.3341181 0.5728283 -0.066842206
000240 ff 61 da be 6b 23 75 be ab 34 36 3f c4 35 a1 bb
       -0.4265289 -0.23939292 0.71174115 -0.0049197394
000250 03 4d b4 be 76 2b c5 be 41 8c 4c bf 96 ea ce be
       -0.35215005 -0.3850972 -0.7990151 -0.4041335
000260 44 7b 1a be 66 6e 64 3e 18 25 83 3e a8 e1 eb be
       -0.15086085 0.22307739 0.25614238 -0.460706
000270 6d 58 91 3e 19 0a d5 be 00 de ce bd 3e de 46 be
       0.28387776 -0.41609266 -0.10100937 -0.19420716
000280 07 6a be bd d7 da 99 bd 9e 34 cf be 5f 92 ea be
       -0.09297567 -0.075124435 -0.4046983 -0.45814797
000290 12 e8 98 bd c8 8b d0 3c 89 7a d8 bd aa 1b 24 3e
       -0.07466139 0.025457278 -0.10570247 0.16026178
0002a0 81 f7 d8 be 58 8a df bd 1e e4 65 3f bd 53 1d be
       -0.4237633 -0.10915059 0.89801204 -0.15363975
0002b0 9c 0e ca 3e 08 f2 3a 3e 28 9a 32 bf 56 ee af 3e
       0.3946427 0.1825639 -0.69766474 0.34361523
0002c0 37 5b be bd bb e1 98 be de 1a e0 3e e8 31 b0 be
       -0.092947416 -0.2985972 0.43770498 -0.34413075
0002d0 93 aa d5 3d 00 cc 67 bd 9d 02 1d 3f 1d af a2 3d
       0.10432925 -0.056591034 0.6133211 0.079435565
0002e0 e5 57 73 3e 98 12 2e 3e 52 1e db 3d 6a 96 ed bd
       0.23763998 0.1699928 0.106991425 -0.11600955
0002f0 09 59 99 be f0 6b a4 3e d5 6c 44 3f 82 01 8f 3e
       -0.2995074 0.321136 0.76728565 0.27930838
000300 5d a7 22 bd 09 5d 3f 3d 83 fa 35 bf 84 c9 b6 be
       -0.03971039 0.046719585 -0.71085376 -0.3570062
000310 30 2c 95 be 34 f9 2e 3e c4 8d 98 be 00 ba 32 bc
       -0.29135275 0.17087251 -0.2979566 -0.010908604
000320 0e 35 9a 3d 41 47 73 3e ea a2 21 bf 3b 37 a0 be
       0.07529651 0.2375765 -0.6313921 -0.31292138
000330 f2 c4 d2 be 85 27 e5 3e 52 ca 94 3d 93 ec ba 3e
       -0.41165882 0.44756714 0.07265152 0.36508617
000340 33 ce 3a 3e ed 8b 11 3d fa c6 28 3d c7 4f 1a 3d
       0.18242721 0.035533834 0.041205384 0.037673738
000350 63 e7 36 3c 96 3e cc bd e9 80 d5 bc af 72 79 3d
       0.011163565 -0.09972875 -0.026062446 0.060900386
000360 93 70 f6 be ab b9 85 be 50 74 07 3f 8a fa cd be
       -0.48132762 -0.26118216 0.52911854 -0.4023021
000370 4a 5b c7 bd c3 7b 0d 3f 29 ca b1 3e 9b 71 41 bc
       -0.09734209 0.5526697 0.34724548 -0.011806871
000380 90 da 1c bf 9a 1d 1b 3e 42 50 ce bd 28 5c a5 bd
       -0.61271 0.15148011 -0.10073902 -0.08074218
000390 67 f0 81 bd ee b1 fc bc 11 13 bc 3e 92 76 a9 3e
       -0.06344681 -0.030846562 0.36733297 0.33098274
0003a0 b4 f2 b2 3c cf 4f b1 3e 56 d8 04 3f ba e9 80 be
       0.021844245 0.34631202 0.518926 -0.2517832
0003b0 fa 16 41 3e 56 ee 9b be a8 ab 01 bf 8b 13 e4 3d
       0.18856421 -0.30455273 -0.5065255 0.1113654
0003c0 73 29 14 3e 78 ea b8 3e 12 ca fa bd be ec a0 3c
       0.14468937 0.36116385 -0.12245573 0.019644137
0003d0 fd db 76 3e 82 f8 ff be b9 b8 c0 3e 75 5d c9 be
       0.24107356 -0.49994284 0.37640932 -0.39329115
0003e0 fa 41 87 bd 74 c8 9f bd 21 0d 05 bf b9 09 b5 3d
       -0.06604381 -0.07801905 -0.5197316 0.08839745
0003f0 50 8e b3 3e 35 97 09 be e0 99 f8 be a5 a2 3b be
       0.35069513 -0.13436587 -0.48554897 -0.18323763

ll_fc1.bias f4 [128]
000000 6e 38 0c be 4a f2 72 be 78 29 b5 3d d1 3f 5f 3e
       -0.13693401 -0.23725238 0.088458 0.21801688
000010 dd ed 9c be 36 81 ee 3c 40 56 81 3e ed dc 7f bd
       -0.30650225 0.029114347 0.25261116 -0.06246655
000020 48 be 35 3d 22 8a 7b bd 62 c7 7c 3e 51 8d bf be
       0.04437092 -0.06141103 0.24685434 -0.37412503
000030 42 84 a7 be b0 79 a4 be f7 4b f1 3e 8c 01 42 be
       -0.32718092 -0.3212409 0.4712827 -0.18945903
000040 eb 9c 84 bd a1 25 7f be cb d2 01 3f 9b 5f fd 3e
       -0.06475242 -0.24916698 0.5071227 0.49487004
000050 2d ce da be 11 e6 d2 be 1d 43 ce be 9c c9 88 3b
       -0.42735425 -0.41191152 -0.40285578 0.0041744243
000060 d9 b8 57 be 13 c7 a4 be 27 09 19 be 36 c8 4e 3d
       -0.21066608 -0.32183132 -0.14944898 0.050483905
000070 03 fe 4e be fc 25 d2 3d 10 7f a4 bd b0 18 78 be
       -0.20214085 0.10261151 -0.08032048 -0.24228168
000080 bc f3 01 bd 15 4d c9 3e a3 5c bf be 90 49 db 3c
       -0.031726584 0.3931662 -0.37375364 0.026768476
000090 2a 90 1c be 3f c0 00 3f 68 bf f7 be 7c d2 01 bf
       -0.15289369 0.50293344 -0.4838822 -0.507118
0000a0 7d 9e ef 3e 3a 8b c5 be ed 3a 2a 3e 88 9f 7d 3a
       0.46800604 -0.38582784 0.16624041 0.0009674956
0000b0 7c 11 35 be d4 99 52 be 94 e5 a3 3e d8 9e 18 3c
       -0.17682451 -0.20566493 0.32011092 0.009315215
0000c0 5d 6e cf be d8 21 97 be 42 dd 1e be 70 e9 88 3e
       -0.40513888 -0.29518008 -0.1551409 0.267406
0000d0 3f 42 d0 be 59 b0 fb 3e af 97 e1 bd 12 f1 89 bd
       -0.40675542 0.4915798 -0.110152595 -0.06735434
0000e0 59 ec d7 3e c8 c7 90 3e 7e 27 dd 3e de 17 95 3e
       0.42172506 0.2827742 0.43194193 0.29119772
0000f0 14 b3 24 be 6a 3c b2 be ce 53 08 bd 7e 36 dc 3e
       -0.16083938 -0.34811717 -0.033283047 0.43010324
000100 d6 51 02 be 69 7b c3 be 18 30 69 3e 10 fe 01 3f
       -0.1272653 -0.38180092 0.22772253 0.50778294
000110 0f 79 10 bd d2 14 fa be 80 17 f3 be 69 d1 2f 3e
       -0.0352717 -0.4884401 -0.47478867 0.17169727
000120 08 7f 45 bd fc 92 9a be 7a 79 d1 3d c2 ee 4b 3e
       -0.04821685 -0.30190265 0.10228248 0.19915298
000130 c9 ec ca 3e 91 dc d2 3e 9a 1d 52 bd 7e bb e1 be
       0.39633778 0.41183904 -0.05129776 -0.44088358
000140 d8 53 e7 be 05 44 f9 3e fb 33 01 3e f9 19 74 3e
       -0.45181155 0.48684707 0.12617485 0.23838033
000150 c5 7e bf be 07 ff f1 3e 87 82 fd 3e 8c 6f e8 3e
       -0.37401405 0.47264883 0.49513647 0.45397604
000160 30 f5 d7 be 88 30 41 be 4a e0 b2 be 3d a9 dd 3e
       -0.4217925 -0.1886617 -0.34936744 0.4329318
000170 94 73 76 be ee fe 38 be 13 9f 80 3e ac 26 b7 be
       -0.24067527 -0.18065998 0.25121364 -0.35771692
000180 aa 71 0e be e4 56 34 bd 57 6c 44 bc 43 71 cf be
       -0.13910547 -0.044028178 -0.011988721 -0.405161
000190 6d fc d9 3e eb 4d 9b be 1b 94 1e 3e 13 48 e7 3e
       0.42575398 -0.30332884 0.15486185 0.45172176
0001a0 a1 83 58 3e be ec d8 3c d4 cf d6 3e 7c ec 82 3d
       0.21143962 0.026480075 0.41955435 0.06392762
0001b0 f8 50 5a be 97 6a f2 3e c1 e7 d4 3d 38 c6 f9 be
       -0.2131995 0.47346947 0.10395766 -0.4878404
0001c0 80 2f fa bd 18 fe c6 be cb 02 e2 3e 31 40 da bd
       -0.12216091 -0.38865733 0.44142756 -0.10656775
0001d0 36 1c 15 bf 35 eb 3f bd b8 3d 9b 3e df b4 d9 3d
       -0.5824617 -0.04685517 0.30320525 0.106302015
0001e0 9d e8 2c 3e bf ee 25 3e c5 41 43 3e 7b b7 23 be
       0.1688561 0.16204356 0.19068058 -0.15987961
0001f0 be e7 53 be 0e 49 ef be d6 9e db be 5e 88 72 3e
       -0.20693871 -0.46735424 -0.4289462 0.23684832

ll_fc2.weight f4 [128, 128]
000000 57 87 55 bd 28 37 b5 bd 5e 1d 54 3d 62 58 a9 3c
       -0.052131023 -0.08848411 0.05178582 0.020672027
000010 f5 fc 71 bd af 95 a4 ba 36 7a 5e bc 3e 70 0a 3d
       -0.05907913 -0.0012556816 -0.013578942 0.03379845
000020 09 b4 95 bd 28 17 ca be d6 89 d0 3d f3 06 9e bd
       -0.073097296 -0.39470792 0.1018254 -0.07716169
000030 be be a1 3c 6a 27 6d bd b2 96 ee bc 6d 47 2c 3c
       0.019744273 -0.057898916 -0.029124591 0.010515076
000040 10 fc 16 3d 1c a2 b1 3d ab 02 cd bc d4 a1 b7 3d
       0.03686148 0.08673498 -0.025025686 0.08966413
000050 59 c7 e1 bc 21 d1 c2 bc ad 10 44 3d 98 42 b8 bd
       -0.027560877 -0.023781361 0.047867466 -0.08997077
000060 4a 80 24 bc 04 4c a9 3d ae bd a9 bd 4f 2d 09 3d
       -0.010040352 0.08266452 -0.08288132 0.033490475
000070 98 41 f1 bc 25 62 9a 3d 1c 51 18 be 9f b6 50 bc
       -0.029450223 0.07538251 -0.14874691 -0.012738853
000080 a8 d8 0d bd 54 8a a7 3d 5a a7 31 39 f3 ad 8b 3d
       -0.034630448 0.08180681 0.00016942379 0.068202876
000090 50 a1 30 bb d9 c0 61 3d 19 7f 53 3d e2 1f f1 bc
       -0.0026951618 0.055115554 0.05163488 -0.029434148
0000a0 e8 3c ec 3d 5a 8b aa bd 22 5e 16 3e 2e f3 62 bd
       0.115350544 -0.083273605 0.14684346 -0.055407695
0000b0 08 c5 84 3d 62 99 c4 3c 69 8f f5 3c d0 fe ed bd
       0.06482893 0.02399892 0.02997561 -0.11620867
0000c0 e2 86 aa bd 32 98 d8 3c fe a5 33 3d a6 10 7c bd
       -0.08326508 0.02643976 0.043859474 -0.061539315
0000d0 9e 5b 5a be 4d 98 e4 3d 69 c5 1e 3d 5a 57 eb bd
       -0.21324012 0.111618616 0.038762484 -0.1149127
0000e0 23 aa fb 3d 6e 4b 84 bd 38 72 59 3d a5 29 d2 3c
       0.122883104 -0.064596996 0.053087443 0.025654623
0000f0 a7 27 09 bd fe a2 90 3c 04 ba 0d be 37 85 77 3d
       -0.03348508 0.017655846 -0.1384049 0.060429778
000100 27 71 c0 bd 5d ec 84 be 67 3c bb 3c 1b c4 eb 3d
       -0.09396582 -0.2596158 0.02285595 0.115120135
000110 43 8a a1 bd cb f2 b1 3d ed 92 5e bd b8 0c 60 bd
       -0.078876995 0.08688887 -0.054339338 -0.05469963
000120 2f 4b 37 be c7 7b 03 be cf 38 22 3e 0e 21 91 bc
       -0.17899774 -0.12840186 0.15841983 -0.017715957
000130 37 87 a6 3c cd 7e 54 3d 65 97 18 3d cd 7e 9a 3d
       0.020328147 0.05187874 0.037253756 0.075437166
000140 4e cf 92 3d 06 17 9c bc 2c 76 88 ba fe 72 74 bd
       0.071684465 -0.019053947 -0.0010411195 -0.059679978
000150 3c ac 88 be e0 a2 21 3d 0f ba cf 3d 1b 30 87 bd
       -0.26693904 0.03946197 0.1014291 -0.06600972
000160 80 1b 5b 3d 7b b4 3b bd a5 91 70 bd 97 5a bd 3d
       0.053493023 -0.045826416 -0.058732647 0.09245794
000170 fa 33 cb bd f8 0f ad be bb b9 5c bd cd 7b 88 3d
       -0.09922023 -0.33801246 -0.053888064 0.06664238
000180 0d 6f 9f be 36 ad dc bd ec c8 9d bc fe 6d fe bd
       -0.31139413 -0.10775225 -0.019260846 -0.12423323
000190 45 b7 81 bd ad 5c b8 bb 95 1b e0 3d 31 95 ee 3b
       -0.06333784 -0.005626282 0.10942761 0.0072809686
0001a0 ef 06 16 3d 16 41 71 3d ef 85 fd 3d 4a 51 0e be
       0.036627706 0.05889996 0.123790614 -0.13898197
0001b0 b8 82 b5 bd 96 b6 64 3d ab 11 a3 bd 50 2d 19 38
       -0.08862823 0.05583819 -0.07962354 3.6520243e-05
0001c0 21 42 6a 3d cf 86 f6 3d b9 98 47 3d db 09 f7 3b
       0.05719197 0.120374314 0.048729632 0.0075390167
0001d0 61 02 db bd f6 7e 12 3d a0 8f 0b bc 7f e9 dd bd
       -0.10693813 0.03576561 -0.00851813 -0.108355515
0001e0 dd b0 49 3b 39 00 b2 3d 65 ee 8c bd c1 75 26 3e
       0.0030775585 0.08691449 -0.06881408 0.16255857
0001f0 3e c2 a0 3a 1f a6 7d bd c5 af a9 3b 31 d5 90 3d
       0.001226492 -0.061926004 0.005178424 0.07071913
000200 00 34 9d bd cc 81 19 bd 36 b6 26 3d 29 d8 5b bd
       -0.07675934 -0.0374773 0.040701114 -0.053672943
000210 05 51 08 3d 0a 76 13 3e 0a 09 60 3d 76 35 35 bd
       0.03328039 0.14400497 0.05469612 -0.044240437
000220 a7 ce bb 3d 30 f3 db be bf fb bd 3d 3b 92 03 be
       0.09170275 -0.42958975 0.092765324 -0.12848751
000230 d0 10 e3 bd 9f a8 44 3d cf b2 70 3d fa 73 80 3d
       -0.11087191 0.048012372 0.058764275 0.06272121
000240 76 e4 75 bd 08 6e 1f bd fb 1a 12 bc ec 4e 96 bd
       -0.06003233 -0.038923293 -0.008917565 -0.07339272
000250 74 d2 82 b8 8e 45 37 3c be bb 0a bd 94 80 2b 3c
       -6.238083e-05 0.011186017 -0.03387045 0.010467667
000260 3f 05 6f 3d 36 a4 b6 3c 8f 08 cb bd 2f 33 00 3d
       0.058354612 0.022295099 -0.09913742 0.031298812
000270 82 84 2a bd 7d c1 19 bd 3f 00 73 3d 7a 10 80 bc
       -0.041630276 -0.03753804 0.059326407 -0.015632857
000280 0f ed a5 3d 3b 22 48 bd a6 5d f2 3c d1 6d c5 bc
       0.08101856 -0.04886077 0.02958567 -0.024100216
000290 c0 52 1a be 6f 15 15 3e 36 48 a4 3d de 7b 63 bd
       -0.15070629 0.14558958 0.08021586 -0.05553805
0002a0 b9 dd 2c 3d f0 ba bd bd 0c 61 2e be 10 4f ca 3d
       0.04220364 -0.09264171 -0.17029208 0.09878361
0002b0 a7 88 4b 3d 36 2f 3e be 66 28 36 3d a5 06 f8 bb
       0.04969087 -0.18572697 0.04447212 -0.0075691515
0002c0 09 3a 39 be b3 5c 96 3d dd 23 1f bc 42 90 a1 3d
       -0.18088545 0.073419 -0.00971314 0.07888843
0002d0 67 5d 1a be 97 11 93 ba 86 1a ae 3d 3b 18 3b 3d
       -0.15074693 -0.0011220452 0.08501153 0.045677405
0002e0 4d cd 10 3c 54 99 d9 3a fb 95 61 3c d1 c1 d7 3b
       0.00883801 0.0016601481 0.013768668 0.006584384
0002f0 fb 2b 0c 3d 2b ea 31 bc 7e 04 3c 3e 48 ae 09 3d
       0.03422163 -0.010859053 0.18361089 0.033613473
000300 67 d4 c0 bc af 56 97 be 1a 14 21 bd 55 59 94 3d
       -0.023538781 -0.29558322 -0.03932581 0.07243601
000310 4d 7d 74 bc 5a 81 ce bc e3 88 d9 bb e4 bc 82 3d
       -0.014922452 -0.025208164 -0.0066386326 0.06383684
000320 e3 1d 91 3d 7e 0d 3b bc 1b 16 b7 3b 8b 94 c9 3d
       0.070857786 -0.011416791 0.005587352 0.098427854
000330 5a da 69 3d a1 f1 31 3d 83 d9 e9 3c 87 94 85 3d
       0.057093002 0.043443326 0.0285461 0.0652247
000340 8e 48 85 3b 6c 12 56 3c 69 35 e4 3c f3 a4 16 3e
       0.004067487 0.013065916 0.0278575 0.1471136
000350 dc 5e 93 be 01 73 1e bd fe d5 70 3d c8 7b 36 bd
       -0.2878331 -0.038683895 0.05879783 -0.04455164
000360 65 bd b9 3a 94 7f 26 bd 12 96 92 3d 85 e8 8f bd
       0.0014170824 -0.04064901 0.0715753 -0.070267715
000370 00 44 c3 3d df 42 90 be 05 9e 22 3d 7b e3 88 bc
       0.09534454 -0.2817602 0.03970148 -0.016710034
000380 f6 d5 56 be ea ce f6 3c 21 24 04 3d 9b f5 66 3c
       -0.20980057 0.030127961 0.032261018 0.014096643
000390 0d f4 00 3d 98 37 d1 39 d4 ac ae 3c 63 5e 1c 3d
       0.031482745 0.00039905007 0.021322645 0.03817595
0003a0 ce d5 7c bd c1 1e 36 3d 1a 78 c9 3c 19 4b 29 3e
       -0.061727338 0.044462923 0.024593402 0.16532554
0003b0 20 5c 9a bc a5 8f 9b 3d 50 c3 1a bd 07 99 b4 bb
       -0.018842757 0.075957574 -0.03778392 -0.0055114063
0003c0 b2 34 3c bd 74 9f b4 bd 73 18 de bc 08 ce 97 3d
       -0.04594869 -0.08819476 -0.027111268 0.07412344
0003d0 9b de d6 bc ea 43 31 3d 74 47 8b 3d b5 75 db 3b
       -0.026229193 0.04327766 0.06800738 0.0066973814
0003e0 01 91 4b 3d df ec bc 3c 5c f1 3c bc d3 5d 00 bd
       0.049698833 0.023062168 -0.011532154 -0.031339478
0003f0 fc 5c 37 3a c0 b5 7e 3d 01 45 95 bd 2d db b3 3d
       0.0006994752 0.06218505 -0.07288552 0.08782039

ll_fc2.bias f4 [128]
000000 1a 65 d5 3c 30 a4 e9 3d 44 4d 60 bd ae 1b 13 3d
       0.026049186 0.114082694 -0.054761186 0.03591507
000010 11 3a e4 3b bc bc 3b bd 81 d4 34 3d d8 fe d3 3d
       0.00696493 -0.045834288 0.044147972 0.10351342
000020 cb 81 d1 3d 12 33 ad 3d 47 c2 34 3d cc b9 6a bc
       0.10229834 0.084570065 0.04413059 -0.014326524
000030 83 a0 dc 3d 25 20 08 bd 3a 01 c8 3c ab eb 58 bd
       0.10772803 -0.03323378 0.024414647 -0.052959125
000040 f9 7a c8 3c af 89 6f bc 75 65 07 bc 13 51 93 bd
       0.0244727 -0.014620229 -0.008263935 -0.07193198
000050 1a 05 31 bc 27 6b 1f bc 74 67 62 bd fd ba a7 bd
       -0.010804439 -0.009730137 -0.05527444 -0.08189962
000060 08 bc d4 3d 29 79 80 3d 6b b0 8d bc f1 ab b4 3d
       0.103874266 0.062731095 -0.017296037 0.08821858
000070 24 5a 54 3c 35 7b e0 bc 58 ac 95 bc 65 74 9e 3d
       0.012960944 -0.0274025 -0.018270656 0.07737044
000080 c0 db b8 ba 47 d9 94 bb d7 5a d9 bc e5 c9 cd 3d
       -0.0014103577 -0.004542503 -0.026532574 0.10048274
000090 10 b7 ae bd 89 1b bf 3c 40 7d ee bc 1f 69 54 3d
       -0.0853101 0.02332856 -0.029112458 0.051858064
0000a0 ce 17 21 3d 0c 8c 55 bd 55 04 8c bc 73 00 8a bc
       0.039329343 -0.052135512 -0.01709191 -0.016845917
0000b0 8e b7 39 3d 0a 82 00 3d 77 ce d6 bc 30 11 42 bc
       0.045341067 0.031374015 -0.026221497 -0.011844918
0000c0 88 3c af bd 71 c4 f2 3c 63 24 e6 3d 34 b2 02 bd
       -0.08556467 0.029634686 0.11237409 -0.03190823
0000d0 e6 2c 33 3b ff f5 de 3d 1a 65 88 3d e2 6e 6e bd
       0.0027339994 0.10886764 0.066599086 -0.058211215
0000e0 2c f0 e4 bc 21 0e 04 3e 85 cd d5 bc 46 05 04 3c
       -0.027946554 0.12896015 -0.026098976 0.008057898
0000f0 bb b4 c7 bd 4f c1 b1 3d e4 d2 0c 3d 69 71 e5 bc
       -0.097512685 0.08679449 0.03438081 -0.02800818
000100 d2 22 34 bd 7f 42 7b 3d 64 04 20 bd 43 15 ea ba
       -0.04397852 0.061342712 -0.039066687 -0.001785912
000110 3d 12 81 bd 17 6c ee 3d 16 8b 3b 3d cf c4 65 bc
       -0.06302307 0.1164171 0.04578694 -0.014023974
000120 56 05 2d 3d ae a8 35 3d 99 8f 1c bd 61 6f 30 3d
       0.042241417 0.04435032 -0.038222883 0.04307497
000130 4f 2e 43 3d e3 b9 f8 3c 26 92 cd 3c 88 08 58 bd
       0.047651585 0.030362075 0.025094103 -0.05274251
000140 5f 2b 0a 3d 84 cf 04 3e f5 77 c4 bc 00 35 13 bd
       0.03373277 0.12969786 -0.023982981 -0.035939217
000150 00 42 cc 3c a2 fe 95 3d 15 6d d5 bc 27 89 ce 3c
       0.024933815 0.07323958 -0.02605299 0.025211884
000160 b3 54 36 3d b6 14 89 3b 9f 4a b3 bd aa e4 0d bd
       0.04451437 0.004183377 -0.08754467 -0.0346419
000170 c5 d1 f2 3b 89 e1 9e 3d d0 43 bf bd b2 b4 70 3d
       0.0074102604 0.07757861 -0.09339106 0.058766074
000180 90 ce 04 bd 97 cb 31 3d cf c6 fb bb ba 3e c3 3d
       -0.032423556 0.04340705 -0.007683612 0.095334485
000190 1c c1 44 3d 1c a5 ac 3c a4 8a 9b bd 7c 3f e2 bc
       0.048035726 0.021074824 -0.07594803 -0.027618162
0001a0 8a f0 82 bd 11 23 20 3d fa 51 11 bd 53 ef 86 3d
       -0.063935354 0.039095942 -0.03547857 0.06588616
0001b0 9f 60 bb bd 6e 0f c8 3d 8c fe da bc 10 f3 b7 bd
       -0.091492884 0.09768568 -0.026732706 -0.08981907
0001c0 92 17 13 bc 62 65 aa bd 05 88 a6 3c fa c5 00 3e
       -0.008977788 -0.083201185 0.020328531 0.12575522
0001d0 89 c9 73 bc 8a 92 fb bc 3e 6d a6 3d b8 64 21 3d
       -0.014879593 -0.030709524 0.08126305 0.039402694
0001e0 cf 5c 8d ba 98 c3 04 3d fa 0d 98 bd 09 e1 2d bd
       -0.0010785105 0.032413095 -0.07424541 -0.04245094
0001f0 d4 1c 41 3d 59 ad 11 3d ed 99 2a bd 5a 35 9f bd
       0.047146633 0.035565708 -0.0416507 -0.07773848

sl_fc3.weight f4 [256, 128]
000000 fa 93 bb 3d 64 24 71 3a 8a 29 ef ba cb a9 6f be
       0.09159084 0.0009198843 -0.0018246633 -0.23404615
000010 5b eb 6e 3c 85 cb 66 bd 52 ef 8b bd 56 bb 7c 3d
       0.01458248 -0.056346435 -0.06832756 0.061702095
000020 17 fd 6b 3d 45 14 b1 3d bc c1 4e 3d 85 f6 5c be
       0.057614412 0.08646444 0.05047773 -0.21578415
000030 26 9d b7 3d 60 5e 2f 3d 0d 92 9d 3d fd 96 9b 3b
       0.089655206 0.042814612 0.076938726 0.004748224
000040 e2 9e 96 3d 7c 2d 6f bc ed 40 10 3d 85 fb 57 3d
       0.07354523 -0.014598247 0.035218168 0.052730102
000050 b5 5d d3 bd b3 b4 c8 3d e3 bd 81 3c 07 d8 cd bc
       -0.103206076 0.09800091 0.015837615 -0.025127424
000060 28 b9 02 3c f5 45 e9 be 9c 41 58 3c f5 f6 07 3d
       0.007978715 -0.45561185 0.013199236 0.0331945
000070 9b a6 ae 3c 88 34 2c bc 98 a6 b7 3b 47 14 d3 3d
       0.021319678 -0.010510571 0.0056045763 0.10306602
000080 88 8a 1d bf 1d 57 23 bc 53 a3 5f 3d b6 82 a0 3d
       -0.61539507 -0.0099695 0.054599117 0.07837431
000090 1c 58 5e 3d d4 f1 9b 3d 09 4d bc bd c3 b9 1e bd
       0.054283246 0.076144844 -0.09194381 -0.038751375
0000a0 79 e1 38 bd fa c5 9b 3d 21 fd 9e 3d 80 4a 49 3d
       -0.045136902 0.076061204 0.07763124 0.049143314
0000b0 c4 df f0 3d 8d fa 93 bc ee cd a9 3d b7 56 fc 3c
       0.1176143 -0.018063808 0.08291231 0.030803068
0000c0 b6 14 a3 3c 13 7e 12 3c 6e b8 f9 3b 4d dc 98 bd
       0.019907337 0.008941191 0.0076208627 -0.07463894
0000d0 2d 23 8c 3d 1a 2d 9b 3d 28 69 3a bd fc d7 2b bd
       0.06842647 0.07576962 -0.04551044 -0.041954026
0000e0 83 9e e7 3c 0d 37 39 bd c9 f5 3a bb a9 d0 2f 3c
       0.028273826 -0.045218516 -0.0028527847 0.010730901
0000f0 9d 05 28 3c b3 c6 41 3d e7 dc 9d 3d ac 13 6d bd
       0.010255245 0.047308635 0.077081494 -0.05788009
000100 a7 87 ec bc 91 ee 84 bb d9 46 27 be 2f f3 75 3d
       -0.028873278 -0.0040567596 -0.1633562 0.06004637
000110 8d f1 8e bd f5 2a 20 3d 5a 4a f3 bc 24 ab 8d bd
       -0.06979666 0.039103467 -0.02969854 -0.06917408
000120 78 97 de 3c 94 af 17 bd eb 2d ed 3d c9 32 10 bd
       0.027171835 -0.03703268 0.11581024 -0.035204682
000130 14 17 fa bb a5 d5 3b 3d 28 c6 88 3d 1d 83 6e 3c
       -0.0076321457 0.045858044 0.0667842 0.014557627
000140 bf 14 31 3d 53 c3 bd 3c ba 39 1b 3b df 3e ed 3d
       0.043232676 0.023164427 0.002368553 0.11584257
000150 41 58 e2 3d 78 60 18 bc 9a 12 d9 3d c7 f3 87 3d
       0.11051989 -0.009300344 0.10599251 0.06638294
000160 7d 62 16 bd 82 e0 1e bc e8 b7 33 be 05 98 47 bd
       -0.03671502 -0.0096970815 -0.17550623 -0.04872896
000170 d9 b5 40 bc db 6a 22 3d b2 20 93 bd 3c 0b 47 bd
       -0.011762106 0.039652687 -0.071839705 -0.0485947
000180 b2 06 95 bb 67 a0 be 39 55 5f a8 3d f4 27 db 3d
       -0.0045479173 0.00036359133 0.08221308 0.1070098
000190 aa 32 2d 3d 88 9f 1a bd 18 f8 7a bd fe 82 f0 bc
       0.042284645 -0.037749797 -0.061271757 -0.029359337
0001a0 83 a3 b8 3c 16 12 31 be f1 54 cd 3d 04 99 6d 3d
       0.022538906 -0.17292055 0.10025967 0.058007255
0001b0 28 67 c4 bc f7 4d 50 3b 33 4c bc 3d 46 af 83 3d
       -0.02397497 0.0031784752 0.09194221 0.06429915
0001c0 cd 15 95 3d a4 12 80 bd 87 b1 85 bd d2 e6 3a bd
       0.07279549 -0.062535554 -0.06528001 -0.045630284
0001d0 c9 ae 87 bc bc e1 bd 3c 7e 9e d1 3d 7e 0b c1 bc
       -0.016562836 0.023178928 0.10235308 -0.02356505
0001e0 c7 c0 8f bd f5 99 39 3c 86 c5 98 3c 81 52 c7 3c
       -0.07019191 0.01132821 0.018648874 0.024331333
0001f0 c0 52 d4 bb 79 c6 14 bd 1b d1 98 bd 72 a5 b8 3d
       -0.006479591 -0.03632209 -0.07461759 0.09015931
000200 c1 9e 11 bb 3e a0 a8 3b f0 6e 5d 3d 31 89 a0 be
       -0.002221987 0.0051460555 0.054060876 -0.3135467
000210 be aa 7f bd 2a df 9e bd 5c a6 87 3c 38 db 84 3d
       -0.06241869 -0.07757409 0.016558819 0.06487125
000220 09 d3 88 3d 1a c0 c2 bc 4a f9 34 3c a2 3d 20 be
       0.06680877 -0.023773242 0.011045763 -0.15648511
000230 c3 7e aa 3d 31 d3 59 bd 9a 61 85 3d c9 c4 b0 3c
       0.08324959 -0.053179923 0.06512757 0.02157821
000240 c7 56 7d 3d a1 d8 77 bd 2c 32 88 bc b1 bd 3d bd
       0.061850335 -0.060509328 -0.016625486 -0.046323482
000250 a8 9f 8f bd 80 df 29 bd 47 27 a6 3c 21 d5 b0 3d
       -0.07012874 -0.04147291 0.0202824 0.08634401
000260 18 11 c8 3d b8 e8 5b be 26 02 80 bc 9a 3b 39 3a
       0.097688854 -0.21475494 -0.015626024 0.0007066071
000270 09 ce 01 bd da 46 03 bd 76 9b c0 3c 6d f2 8d bc
       -0.03169063 -0.03204999 0.02351163 -0.017327512
000280 de 19 a9 be 99 99 41 3c f0 47 d2 3d 0b 58 b3 3c
       -0.33027548 0.011816406 0.10267627 0.021892568
000290 15 63 87 3e f1 15 65 bd 45 32 c2 3d 30 bb e7 3c
       0.2644278 -0.055929128 0.094822444 0.0282875
0002a0 b0 4c b3 3d 65 a0 43 3c c6 93 2f 3d 78 23 b1 bd
       0.08754861 0.0119400965 0.042865537 -0.08649343
0002b0 6e 5f 20 3c 64 af 40 3c 02 e0 90 bc 75 20 76 3d
       0.009788377 0.011760566 -0.01768494 0.060089547
0002c0 40 55 07 bd f8 95 c3 bc f3 64 1d bd 13 a8 9a 3c
       -0.033040285 -0.023875222 -0.03842635 0.018878972
0002d0 32 ca ea 3d 6d e7 3a 3d c7 45 34 bd 34 6b 09 3d
       0.11464347 0.04563086 -0.044011857 0.033549502
0002e0 0a ed 2d 3d d8 2a a5 3d d2 dd 43 bb dd bb b3 3d
       0.042462386 0.080648124 -0.0029886854 0.087760665
0002f0 f3 19 c1 3d 0e ba cc bc eb 7b ad 3d 32 a4 a7 bc
       0.094287775 -0.024991062 0.08470901 -0.020464037
000300 38 d3 b0 bd 74 4c cc 3d ae 66 76 be 0a 44 04 3d
       -0.08634037 0.0997552 -0.24062607 0.03229145
000310 a5 f4 b3 3d 85 c7 4b bc a6 a9 b8 3d 17 72 ac 3c
       0.087868966 -0.012437706 0.09016733 0.021050496
000320 b6 06 bf 3c 8c 2a 47 3d e1 c8 17 bb e5 cc c6 bc
       0.02331863 0.04862456 -0.0023160505 -0.024267623
000330 f7 26 9b bd 88 ed 99 3d b0 cc 3a bc 31 d3 8d 3d
       -0.07575791 0.075160086 -0.01140134 0.06925047
000340 18 0f 47 3d 31 8d bc 3c 29 ab f0 3d 64 9b 8e 3d
       0.04859838 0.023016544 0.11751396 0.06963232
000350 ec 4a a3 3d 3b bf 85 3c f5 3e 88 3d b6 47 58 bd
       0.079732746 0.016326537 0.06652633 -0.052802764
000360 a6 f2 07 3c 7d da e4 3c 53 62 95 be 66 ab 84 bc
       0.008297598 0.027936215 -0.29176578 -0.01619501
000370 ec d0 93 3d 71 e8 b4 3d ff 99 38 3c 37 91 fb bb
       0.07217583 0.08833397 0.011267184 -0.007677223
000380 0c 01 81 bd 8a 2e 59 bd be d6 9c bb 55 f8 83 bb
       -0.06299028 -0.0530229 -0.0047863415 -0.004027406
000390 4a b8 a6 bd c9 bb 75 3c dc 89 85 bd 09 4e fa 3b
       -0.08140619 0.014998385 -0.06520435 0.007638697
0003a0 03 6f 76 3d 8d 91 84 bd 7c da 8e 3d b0 81 92 bd
       0.060164463 -0.06473074 0.06975266 -0.07153642
0003b0 3e 5f a0 bd 19 4f e6 3d f4 d9 bf bc e9 3c ba 3d
       -0.07830666 0.112455554 -0.023419358 0.09093649
0003c0 4d c6 94 3d f7 ad 00 3d a6 42 1e bd e0 df 5f 3d
       0.07264385 0.031415906 -0.03863778 0.054656863
0003d0 aa 4d 16 3c 63 13 02 3d 84 fa 09 3d f1 e9 d0 3d
       0.00917379 0.03175677 0.033686176 0.10200871
0003e0 d8 d6 ae 3c 63 7a 55 3d 62 41 ec bc 71 b3 ed bc
       0.02134268 0.05211867 -0.02883977 -0.029016228
0003f0 18 47 ba 3d 33 ac 23 3c 11 29 2f 3d 51 8a 50 bd
       0.09095591 0.009989786 0.042763773 -0.05091316

sl_fc3.bias f4 [256]
000000 6a 64 9b 3d 20 dd 89 3c e9 4e a5 3c f3 6b 53 bd
       0.07587512 0.016829073 0.020179229 -0.05161662
000010 be be fb 3d f3 7a 80 3d 8e 28 16 bd 1a cf e2 3c
       0.122922406 0.06273451 -0.03665977 0.027686644
000020 36 2e 1f bd ab c9 ce 3c 6b df b2 bd 9d e1 d0 3d
       -0.03886243 0.025242647 -0.0873402 0.10199282
000030 c8 ab 11 3d 3b 0e ec 3d bc fd f3 3d 5b c5 32 3d
       0.035564214 0.11526152 0.1191363 0.043645244
000040 f7 47 0d 3e 54 83 0c bc 6a 13 9f 3d c1 53 f7 3a
       0.13796984 -0.008576233 0.07767375 0.0018869565
000050 57 97 b7 3b e8 e3 32 3c f5 9a 85 bd 03 b3 c8 bd
       0.005602758 0.010918595 -0.06523696 -0.09799769
000060 5b 1b 0b bd 65 01 0d 3c af 5f b4 bd fe 03 3d bd
       -0.033961635 0.0086062895 -0.08807313 -0.046146385
000070 e8 60 66 b9 d5 4a ec 3d 88 df 36 3c 92 33 13 bd
       -0.0002197061 0.115377106 0.011161692 -0.035937853
000080 ee 26 a6 bd 3f 02 1b 3d 51 6e 94 3c 94 18 08 3e
       -0.08112894 0.03784394 0.01811901 0.13290626
000090 fa d6 78 bb 7a 4a 40 bb a8 a0 cf bc 39 0a 81 3d
       -0.0037969933 -0.0029341266 -0.025345162 0.06300778
0000a0 26 90 ad bd a9 74 89 3c 1e df dc 3d 67 0a 9f 3d
       -0.0847476 0.01677926 0.10784744 0.07765656
0000b0 ea a8 23 3d 07 d5 df 3c ba b6 44 3d 86 9c 6a 3c
       0.03995601 0.027323259 0.048025824 0.014319545
0000c0 09 55 a4 3c 03 40 b3 3d c0 e5 bc bd c0 4d b3 3d
       0.02006008 0.08752444 -0.09223509 0.08755064
0000d0 d3 dc ed bc 27 e9 be bd 30 a8 19 3d a2 a2 87 bd
       -0.029035961 -0.09321814 0.03751391 -0.066228166
0000e0 a5 b3 bd bd 73 ab 20 bd ff cc 9a 3d 91 d6 b2 bd
       -0.0926278 -0.039226007 0.07558631 -0.087323315
0000f0 04 31 f5 3d e7 29 a3 bd 20 9e 55 3d 93 46 aa 3d
       0.119722396 -0.079669766 0.052152753 0.08314242
000100 46 c7 37 3d c1 12 c0 bc b3 e9 25 3d 46 1f 8f 3d
       0.044867776 -0.023446443 0.040506076 0.06988387
000110 11 13 80 3d 8e 26 a0 3d 21 78 ff bc f2 fc 80 3d
       0.06253637 0.07819854 -0.031185212 0.062982455
000120 ab b9 41 3d 5e 89 1e 3c 90 38 77 bc a2 23 0b bd
       0.047296207 0.009676306 -0.015089169 -0.03396953
000130 f8 94 88 bd 0f b0 a0 bd 77 df 0d 3d f6 1d e1 3c
       -0.066690385 -0.078460805 0.03463694 0.027480107
000140 d1 76 8b 3d 54 37 f2 3d 39 dd 0b 3e 29 1d 64 3d
       0.06809772 0.11826959 0.13658608 0.05569187
000150 37 8a 78 bd 2b 30 b8 bd 46 10 a1 bd 41 01 7c bc
       -0.060678687 -0.08993562 -0.07864432 -0.015381158
000160 e5 c3 12 be c9 b7 06 3d 01 a1 9d 3d 7e e0 9c 3d
       -0.1433254 0.032890115 0.07696725 0.07660006
000170 10 a7 18 3d 27 05 95 3d 37 6a f1 bc 22 f3 3e 3d
       0.0372687 0.07276373 -0.029469592 0.04661859
000180 17 e9 7b 3c 7f d9 e2 3c 79 65 65 bd 2f fa 0f bc
       0.015375397 0.0276916 -0.056004975 -0.008787676
000190 93 9d b5 3c 7d b4 07 3e 2a 94 09 39 f0 56 c0 3c
       0.022169864 0.13252445 0.00013120534 0.023478955
0001a0 7a 07 43 3d 68 13 65 ba 5e b6 0f 3e 4e a7 bb bd
       0.047614552 -0.00087385485 0.14034411 -0.0916277
0001b0 d6 7c 76 3a 3f 50 b4 3c ee 7a b8 3d 27 64 14 bc
       0.0009402757 0.02201092 0.09007822 -0.009057081
0001c0 6c 4a 09 3b 2a 88 61 3c 85 7f 4d bd ff 1e d5 3c
       0.00209489 0.013765374 -0.05017044 0.026015757
0001d0 16 9f 10 3b 1a b3 71 3d 4a 7d 84 bd fd ec 9a bd
       0.002206748 0.059008695 -0.064692095 -0.07564733
0001e0 08 a5 36 3d 30 d0 c6 3d 60 b5 46 3c 05 62 c7 3d
       0.04459098 0.09707677 0.012128204 0.097354926
0001f0 76 34 1d 3d 98 f2 16 3d 84 ae 4d 3d e6 33 26 bb
       0.03838011 0.03685245 0.05021526 -0.0025360524
000200 3e 37 8b bd 47 8a dc bc 83 15 9a bd 06 59 fd 3d
       -0.06797646 -0.026921405 -0.07523634 0.123704955
000210 86 7e bb 3c 0f 3c 57 3d b8 e0 ae 3d a2 24 1a 3d
       0.02288748 0.05254751 0.085389555 0.037632592
000220 06 e5 b1 bd c3 ea c9 3d 8e 79 85 3b 19 e8 b8 bc
       -0.08686261 0.0985923 0.0040733283 -0.02257161
000230 d3 85 f0 3b 3e be 77 3d 81 4f d1 3d c3 a3 44 bc
       0.007340172 0.060484163 0.10220242 -0.012001934
000240 a2 58 60 bc 33 5a 0f 3d ff ef e9 3d 0d 2d eb bc
       -0.013693007 0.03499813 0.11422729 -0.028708005
000250 9e 1f 42 bc 64 c9 1e bd a8 43 30 3c d3 2a 78 3d
       -0.011848358 -0.03876628 0.010758318 0.060587715
000260 d2 fd ba bc a8 52 50 3a 86 b5 e7 bc 20 b2 86 3d
       -0.02282611 0.0007946887 -0.0282848 0.065769434
000270 6d 5b d3 3b 5e a0 b9 bd ff a0 b2 bc 94 fb 8b 3d
       0.006450108 -0.09063791 -0.021805285 0.06835094
000280 8b 01 9f 3d 20 f7 23 3c 6a 1c 4f bd 60 60 93 bc
       0.07763966 0.01000765 -0.050564207 -0.017990291
000290 ab 4d 89 bc 51 93 7c 3d 29 0e e3 3d 4a 96 ae bc
       -0.016760668 0.06166393 0.11086685 -0.021311898
0002a0 4c 6a 84 3d dd 17 f0 3c a8 d0 69 bd df 98 a7 bc
       0.06465587 0.029308254 -0.057083756 -0.020458637
0002b0 6b 20 3d 3d 51 0d 0a 3e 98 57 63 bd f7 2a 40 3c
       0.046173494 0.13481642 -0.055503458 0.011728994
0002c0 10 f3 2f 3d 9c 15 ff 3d 39 ac 8f 3d 48 ad 36 bc
       0.04295641 0.124552935 0.07015271 -0.011149712
0002d0 ba 62 d2 3d dc 9d 6e bd fb f4 e2 3d 31 87 a3 3c
       0.10272737 -0.058256015 0.110818826 0.019961925
0002e0 35 63 7e bc 08 06 a1 bd 47 e0 a7 3d 68 91 c8 3d
       -0.0155265825 -0.078624785 0.081970744 0.09793359
0002f0 52 4f 79 bd b9 69 80 bd 27 c8 bc bd c1 d9 0a bd
       -0.06086666 -0.06270165 -0.092178635 -0.033899073
000300 92 bd 82 bc c0 eb d5 3b 1a f8 ce bb 98 b1 09 3d
       -0.015959535 0.0065283477 -0.006316197 0.033616632
000310 4d be ad bc 3e 26 6c bd ab c8 1b bd eb d1 80 bc
       -0.021208907 -0.057653658 -0.03803317 -0.015725097
000320 40 ff ce 3d 60 0e a5 3d cd 36 08 3a 38 f1 69 3d
       0.10107279 0.080593824 0.0005196154 0.05711481
000330 4a 14 80 3c bc 0c 84 bd cf b1 fd bc d2 a9 89 bc
       0.015634675 -0.064477414 -0.030968575 -0.01680461
000340 73 96 b5 bd 51 58 b5 3d a0 62 bc bb 7a 24 6b bd
       -0.088665865 0.08854736 -0.0057490617 -0.057407834
000350 35 60 93 bd 46 4e d1 3d 58 20 33 3d d4 c3 cc 3c
       -0.071960844 0.102200076 0.043732017 0.024995722
000360 92 31 af 3c 6a 7b 85 3c e4 6c 03 3e b6 85 f8 3d
       0.021385942 0.0162942 0.12834507 0.12134878
000370 1a 47 ac 3c 8d 8f 88 3c d0 e8 ad 3b ef ed 84 3b
       0.021029998 0.016670013 0.0053072944 0.004056684
000380 c9 99 0f bd 3b 84 13 3c 65 bb 83 3c 29 41 b6 3b
       -0.03505877 0.009003694 0.016080568 0.005561967
000390 df a4 1f 3d c6 21 85 bc 6c 01 ef 3d 17 0b 33 3d
       0.038975593 -0.016251456 0.11670193 0.043711748
0003a0 73 78 d5 3d 43 d6 c2 3c cd 4d 0b 3e 05 46 e2 bc
       0.104233645 0.023783809 0.13603897 -0.027621279
0003b0 03 1d 1f bb bc 6b 48 bd c9 c7 43 bd 32 cb bf bd
       -0.0024278767 -0.04893087 -0.04779795 -0.09364928
0003c0 af f2 9e 3c 3f 1a eb 3c b5 cc 92 bd 3c 06 1d 3d
       0.01940283 0.028699039 -0.07167951 0.038336024
0003d0 4a 88 10 bb e2 34 de 3d 94 29 40 bd 09 aa ed bc
       -0.002205389 0.1084993 -0.046914652 -0.029011743
0003e0 36 57 68 bd 86 69 60 3d 33 f8 73 3d 5c 46 1f 3d
       -0.056723796 0.054788135 0.059562873 0.03888546
0003f0 80 17 bf 3d 18 c9 c1 bb 78 62 5c 3d 7b ec 8a bd
       0.09330654 -0.005913865 0.053804845 -0.06783386

sl_fc_v.weight f4 [1, 256]
000000 02 3a 01 3e 85 49 9d 3d 2b 62 01 bd d8 6e 20 3d
       0.12619784 0.07680038 -0.03158776 0.03916821
000010 6c 00 67 3d 43 f3 29 bd 27 de 21 3a 9a 7b 38 bd
       0.056396887 -0.041491758 0.0006174766 -0.04503975
000020 f8 5e 35 3d f7 80 11 bc b3 3b 9b 3c 2b eb 80 3d
       0.044280022 -0.008880845 0.018949365 0.06294855
000030 12 e7 b9 3d 3c e9 90 3d b1 97 18 3d 13 c0 2d ba
       0.09077276 0.07075736 0.03725404 -0.00066280476
000040 43 45 86 3d 7b 08 de bc d8 27 65 bd cc da a2 bc
       0.065561794 -0.027103653 -0.0559462 -0.019879721
000050 32 da 63 bd 84 46 d9 bc c8 47 08 bd 4d c5 cc 38
       -0.05562801 -0.026522882 -0.03327158 9.764228e-05
000060 a0 d8 9b bd 36 7e 90 bc 60 2f 1a 3d 07 a1 fc 3c
       -0.07609677 -0.017638307 0.037642837 0.030838503
000070 a6 c1 b9 3e af 8e cc bd 44 00 97 3d 78 a0 45 bd
       0.36280555 -0.09988152 0.073730975 -0.048248738
000080 00 3a f9 bb dd 0f fc 3d db ac 88 3d 44 3d 8d 3d
       -0.007605791 0.12307713 0.066735946 0.06896451
000090 88 1b 81 bc 4e 44 64 bd f9 a3 7c be 21 01 80 3d
       -0.015760198 -0.055729203 -0.24671926 0.06250215
0000a0 13 57 6d bd 9f 1c f0 bd db 3b f8 3d 98 ce 67 3d
       -0.05794437 -0.11724209 0.121207915 0.056593508
0000b0 9b 07 84 3d e6 75 03 3e 30 ac 26 bd 2f 53 6c 3d
       0.06446763 0.12837943 -0.040691555 0.057696518
0000c0 72 01 9d bc 32 14 fb bc 8a f6 f9 bc 3e fe c0 3d
       -0.019165728 -0.030649278 -0.030513067 0.09423493
0000d0 d8 fa cb ba 7a 96 e8 bc ba cd 81 3d 36 f7 37 bd
       -0.0015562428 -0.028392065 0.06338067 -0.044913493
0000e0 ca d0 4c bd 35 9c 1a bc f0 13 c3 3d 4e 3f a3 bc
       -0.050003804 -0.009436657 0.09525287 -0.019927647
0000f0 75 c5 96 3d 94 a7 a8 bc 84 52 9c 3c c0 40 7b 3d
       0.07361881 -0.02058772 0.019082315 0.061341047
000100 91 b1 b5 bc 26 12 20 bc e3 ae 91 bc 70 74 38 3d
       -0.022179397 -0.009769952 -0.017783588 0.04503292
000110 68 1c 31 3d 18 82 98 bc e0 85 00 be 6b 05 33 3d
       0.04323998 -0.018616721 -0.1255107 0.04370634
000120 73 43 be bb cf 41 91 3d 0a 76 1c bd cf 6d 8e 3d
       -0.0058063804 0.0709263 -0.03819851 0.06954538
000130 e9 32 e2 bc 4c f3 a8 bc c5 e7 5e 3d 29 9f a6 3d
       -0.027612166 -0.020623825 0.05442025 0.08135826
000140 13 f3 9a 3d 62 78 ff 3c 5f 0a b2 3d 4a b8 2c 3d
       0.07565894 0.031185333 0.086933844 0.04216794
000150 9b 65 70 bc 73 10 46 bd e2 9f 21 3d 30 7a 19 bd
       -0.014672662 -0.04835553 0.039459117 -0.037470043
000160 a8 53 6c bb c0 ce c6 3d 23 f9 47 bc 01 b0 9f 3d
       -0.0036060605 0.09707403 -0.012205395 0.07797242
000170 08 46 b1 3d 55 14 6f bd 55 14 db 3b 59 64 80 bc
       0.086559355 -0.058369 0.0066857734 -0.01567285
000180 a3 db 4a 3d 11 d9 f6 bc 06 1e 88 bc 08 48 ae 3d
       0.04952587 -0.030132802 -0.016615879 0.085098326
000190 70 ad 8c bb 0d 6d a5 3d c5 53 00 3c 6a 87 c7 3d
       -0.0042931363 0.080774404 0.007832472 0.09742625
0001a0 89 8c 00 be 01 39 98 3d 9a 72 56 3d b3 07 b7 bc
       -0.1255361 0.07432748 0.052355386 -0.022342538
0001b0 52 49 41 3d c1 d4 3b bd 49 06 8a 3d ad d6 4e bd
       0.047189064 -0.045857195 0.0673948 -0.0504977
0001c0 3a 9b 3f 3d ab 3b 2f bc ea f7 73 bc c2 42 5e bd
       0.046778895 -0.010695378 -0.01489065 -0.054262884
0001d0 a7 6b 08 3d a9 f4 2f bc 9f f8 da b9 06 19 be bc
       0.03330579 -0.010739484 -0.00041765437 -0.023205291
0001e0 1b f2 2b 3d 3c fa a1 3c dd 55 4b bd 4f f7 cd 3d
       0.041978937 0.019772641 -0.049642432 0.10056936
0001f0 91 cb 88 3d 39 74 8e bc 3c 2e aa 3d ee 2f 78 be
       0.06679452 -0.017389404 0.083096 -0.24237034
000200 e8 3f 42 3d ec 1a cd bc 91 bd af bc 98 c5 97 3d
       0.047424227 -0.025037251 -0.021452697 0.07410735
000210 be a1 ba 3d 63 72 a2 3d 2b 5e 9e 3d a5 ac 91 3d
       0.09112881 0.07931974 0.07732805 0.071130075
000220 58 a6 18 bd 65 c7 5a 3d 57 3c 36 bd f0 89 2c bd
       -0.037268013 0.053412814 -0.04449114 -0.042123735
000230 39 66 7d bc 61 29 2e bd e1 23 9d 3d 2c 32 a2 3b
       -0.015466266 -0.04251993 0.07672859 0.0049498286
000240 00 b7 7e 3c ba 93 51 bd 05 78 e0 3c 17 b1 46 be
       0.01554656 -0.051166274 0.02740098 -0.19403492
000250 d4 e1 90 bc 05 85 02 bc 4b 3f 75 be 29 77 61 3d
       -0.017685808 -0.007966285 -0.23949926 0.05504528
000260 27 4f 6c bc 51 c7 0a 3d 81 da dc 3b 62 89 ca bc
       -0.014423168 0.03388149 0.006739915 -0.024723712
000270 0c e9 2c 3b 5b ad e8 3a 08 e3 dc bc a2 bc c6 3d
       0.0026384024 0.0017751859 -0.026963726 0.097039476
000280 b1 7c 80 3d b3 c1 cb bc de 5c 56 bc 00 01 80 3d
       0.06273783 -0.024872636 -0.013083665 0.06250191
000290 66 2f 38 3d 7c 15 2b bd b5 4a 8a 3d c2 80 31 3d
       0.044967078 -0.041768536 0.067525305 0.043335684
0002a0 70 16 8d bb 40 7f 6a bd 7f d7 19 3c 09 ab 99 3c
       -0.0043056533 -0.05725026 0.009389757 0.018758314
0002b0 53 9d 77 3d 4f fa 80 3d 4d 15 a3 bb 0e 25 51 bd
       0.06045277 0.062977426 -0.0049769045 -0.05106073
0002c0 4c 03 82 3d 3b 0c c5 3d 22 e3 8b 3d ef 21 3f 3b
       0.06348285 0.096214734 0.068304315 0.0029164513
0002d0 1d f5 b0 3d 90 a0 b4 3b 2a 10 9c 3d ce 77 c0 bc
       0.08640502 0.0055123046 0.076202706 -0.023494627
0002e0 b2 79 72 bd 50 74 ed 3b 12 ca 49 bc f6 40 ac 3d
       -0.05919809 0.0072465315 -0.012316244 0.08410828
0002f0 7e 74 9d be 69 e9 5f 3d 38 04 24 bd 3b 66 5e 39
       -0.3075294 0.054665957 -0.040043086 0.00021209654
000300 cd cd aa bc b2 bd 4a 3e 3b eb 25 bd 38 02 1c bb
       -0.020850087 0.19798926 -0.040507536 -0.0023805033
000310 d1 e5 a1 3d af eb b6 be 6d 87 29 bc f1 2f 23 bd
       0.07905162 -0.35726687 -0.010347229 -0.039840642
000320 a9 a4 bf 3d 7c cd 9d 3d df ce f3 bc bc 39 50 3b
       0.09357578 0.07705209 -0.02976173 0.0031772694
000330 e6 b5 12 bd 94 58 a1 3c bd df 54 3b 17 3a a8 3d
       -0.035818003 0.019695558 0.0032481991 0.08214205
000340 23 e7 ee bb 08 bb 86 3d f4 c3 48 bd 11 4a 75 be
       -0.0072907372 0.06578642 -0.049015 -0.23954035
000350 3a 1a 16 3d dc f0 b7 3d cd eb 9c 3d 73 af 0a 3b
       0.036646105 0.08981487 0.07662163 0.0021161705
000360 08 87 6e bc d7 7f 09 bd 30 79 cd 3d 7e 0e b6 3d
       -0.014558561 -0.033569183 0.1003288 0.08889483
000370 2a 0c c3 3d 1e 11 30 bd dc e4 9f 3d af cc 9f bc
       0.095238045 -0.042985074 0.07807323 -0.01950678
000380 26 5a 22 bd f8 89 b8 3c e6 97 c3 bc 89 d4 c0 3d
       -0.039636753 0.022526726 -0.023876142 0.09415538
000390 0e 48 8c 3d 58 5e 22 3d 60 71 9c 3d 94 ec 0c bd
       0.06849681 0.039640754 0.07638812 -0.034405306
0003a0 7d 11 a2 3d d2 a3 00 3e a2 ac 20 3d 9c 31 3c bd
       0.07913492 0.12562492 0.039227135 -0.04594575
0003b0 7c 63 22 3d 25 8c c2 bc 2c e1 fc 3c b3 c4 bd bb
       0.039645657 -0.023748467 0.030869089 -0.0057912706
0003c0 d3 00 8b 3d 15 b3 92 3b 59 de 92 3b b3 c9 5c be
       0.067872666 0.0044769146 0.0044820723 -0.21561317
0003d0 56 13 f1 bc 1e dc 36 3d 9a 18 b6 bc 78 43 88 bc
       -0.029428165 0.044643514 -0.022228528 -0.016633734
0003e0 30 17 65 3d fe e5 ad bd dd ee 82 bc 84 c0 df bd
       0.055930316 -0.08491133 -0.01598304 -0.10925391
0003f0 ab 14 c9 3d be 82 2e bd 58 20 03 3d e2 08 91 ba
       0.09818395 -0.042605154 0.032013267 -0.0011065269

sl_fc_a.weight f4 [2, 256]
000000 78 29 8f 3c a1 bd 04 3c ac 37 8a bc ea 1f 00 bd
       0.017475829 0.008101852 -0.01687225 -0.031280436
000010 44 ef eb bd 40 b7 04 be 39 fd eb ba 73 72 96 bc
       -0.11520246 -0.1296053 -0.0018004543 -0.01836512
000020 97 6a 15 3d 98 72 4c bd 14 3e c4 bc 98 72 2e 3d
       0.036478605 -0.049913973 -0.023955382 0.042589754
000030 1a 6d 99 3b b1 12 a1 bd c9 d1 8d 3d 88 c6 ef 3d
       0.0046821954 -0.07864893 0.06924779 0.11707789
000040 d7 4c 86 bd 00 5a 2e 3d 1c 04 b0 bc 08 16 45 3d
       -0.06557625 0.0425663 -0.021486335 0.048116714
000050 d2 41 1e bd 03 fc 02 bc 58 b5 4f 3b 45 54 bc 3c
       -0.03863699 -0.007994655 0.0031693783 0.022989402
000060 37 cc 48 bd f7 76 a6 3c ae 7d 2a 3c 9a 06 cd 3d
       -0.04902288 0.020320399 0.010405941 0.10011025
000070 6a 94 79 3e 34 8b 23 3e eb 18 5e bc ed b3 17 bd
       0.24373022 0.1597107 -0.013555746 -0.037036825
000080 4a 08 7c 3d 47 a5 57 3d 0f 80 bd bd af 9b cc 3d
       0.061531343 0.052647855 -0.09252941 0.09990632
000090 c7 94 d2 bd b6 fc 35 3d 43 99 ad bd 5d 8f 4f 3d
       -0.10282283 0.044430457 -0.08476498 0.05067383
0000a0 21 13 80 bc 0d 98 a1 3c c1 b0 db 3d bd 49 c3 bc
       -0.015634121 0.019725824 0.107270725 -0.023838872
0000b0 52 ef 20 bd 05 71 0f bb 91 88 57 bd 90 e1 a8 3d
       -0.039290734 -0.0021887433 -0.052620474 0.08246148
0000c0 34 2f 87 3c 60 dd a5 bd 15 bd 43 3c 32 5c a7 3c
       0.016502 -0.080988646 0.011946936 0.020429704
0000d0 df 01 1c bd c2 53 73 3d a6 53 17 bd 11 62 4d 3d
       -0.038087722 0.05940605 -0.036945008 0.05014235
0000e0 b6 e0 5b b9 03 38 6f 3d e7 30 2a 3d 0b 34 89 3c
       -0.00020969179 0.058403026 0.041550543 0.016748449
0000f0 b6 64 f1 bc 48 7f 8f bc 84 06 59 bd 29 8b c6 bd
       -0.029466968 -0.017516747 -0.05298473 -0.096945114
000100 6f c7 5a bd 0c 84 07 3d cf 66 7c bd b4 03 4a 3c
       -0.05341285 0.033084914 -0.061621483 0.012329984
000110 87 6c cc bd ff fa 7e 3d 41 52 3d 3e 6d 6b 00 3c
       -0.099816374 0.062251087 0.18488409 0.007838112
000120 2d 35 07 bc 74 10 2f bd 4c 9f b8 3c 3d 0b c9 bc
       -0.008252424 -0.0427403 0.022536896 -0.024541492
000130 dc 8a 77 bc 0b 3c d8 ba 70 ab be 3a 8b de 59 bd
       -0.01510879 -0.0016497386 0.0014546942 -0.05319075
000140 8f c5 3c 3c 69 01 4c bc 3f f7 17 bd f7 ed 0f 3d
       0.011521711 -0.012451508 -0.037101027 0.03513905
000150 8d d0 f5 bc 53 85 47 bd 1e 88 47 bd 43 f3 32 bd
       -0.030006671 -0.048711132 -0.048713796 -0.043689024
000160 48 80 5f bd 4e 0d 0d 3e 64 b1 52 3d 09 7c aa bd
       -0.054565698 0.13774607 0.051438704 -0.08324439
000170 df ab 9a 3d e6 55 44 3e ea 59 a9 3a 9d 82 35 3d
       0.07552313 0.19173393 0.0012920473 0.044314016
000180 41 32 16 3d a6 c2 b4 3b c7 fd 22 3c c6 b4 d4 bc
       0.03666902 0.005516368 0.009948201 -0.025965106
000190 26 f7 74 bd 07 30 3b bc 08 3f e9 bc fa 2e 55 3d
       -0.05980601 -0.011425025 -0.028472438 0.052046753
0001a0 16 c4 3e bc ea 4e 69 bc cd 8a 28 3d e2 44 5a 3d
       -0.01164343 -0.014240006 0.041147996 0.053288348
0001b0 e3 c0 1d be 18 d3 00 bc c2 ac ee 3c 52 42 34 bd
       -0.15405612 -0.007862829 0.029135112 -0.04400856
0001c0 a1 dc 6f bd 7a 1d 73 3c 33 ac c7 3c d1 90 03 3d
       -0.058560017 0.014838571 0.024374103 0.03212053
0001d0 eb ae d2 3d fc 9d a3 3c 48 84 18 bc ee 67 35 bd
       0.10287269 0.019972794 -0.009308882 -0.04428857
0001e0 5c 2a d0 3c bf 3b 7d 3d 22 ce 28 3d f8 20 af bd
       0.025410824 0.061824556 0.04121221 -0.0855121
0001f0 ed de 8b bd ca 55 15 bd 60 f6 aa bd f4 2a 8c be
       -0.06829629 -0.036458768 -0.083477736 -0.2737652
000200 f8 43 ad 3c 60 c2 3c 3b 07 12 ce bc 48 dd ca bd
       0.021150574 0.002880238 -0.02515508 -0.09905487
000210 9b 27 84 b9 16 ab d0 39 30 a5 6c 3c 0f 08 62 bd
       -0.0002520651 0.0003980032 0.014443681 -0.055183467
000220 06 9a d4 bb 3b eb b9 3b 67 e4 cb 3c 30 fe 8f bb
       -0.0064880876 0.0056737936 0.024889184 -0.004394315
000230 f3 16 1d 3d e0 f7 45 3d f0 37 5c bc 1a b2 d1 3c
       0.038351964 0.048332095 -0.013441071 0.02559762
000240 db 97 6e bc 50 32 9b bc f1 cb 83 bd ec 76 06 be
       -0.014562572 -0.01894489 -0.06435383 -0.13131303
000250 b3 28 8e 3c 03 9d e0 ba 7e 1f 05 be ab b7 4c 3c
       0.017353391 -0.0017136637 -0.13000295 0.012494962
000260 49 a0 70 3d 69 57 9f bb 3b 2f e4 3a ba ca 77 bc
       0.05874661 -0.004862715 0.0017409095 -0.015124017
000270 ad 35 b9 bc e5 61 9e bc 8e 8b 6d bc 08 6e 84 bd
       -0.022608602 -0.01933379 -0.014498604 -0.06466299
000280 e7 01 27 3d 55 ed de 3c d0 12 10 3d 77 dc 0b bd
       0.0407733 0.027212778 0.03517419 -0.0341458
000290 a8 c0 86 bb 31 96 22 3d 6c 6a 74 3d 05 1d 55 3d
       -0.004112322 0.039694015 0.059671804 0.05202963
0002a0 61 51 5f bc f4 39 32 bd b9 9d 30 bc 73 90 b9 bd
       -0.013630242 -0.0435123 -0.0107797915 -0.090607546
0002b0 5b 53 d2 3d 44 29 21 bd 97 14 1e 3d 48 e8 fa 3c
       0.10269805 -0.039345995 0.038593855 0.030628338
0002c0 01 3b eb bb fa e4 92 bc da 91 ab bd c7 5c 26 3c
       -0.0071786647 -0.01793145 -0.08377428 0.010153956
0002d0 7a 84 5d 3c 48 37 1b 3c 04 0c f7 3b 1f 29 b6 3c
       0.013520354 0.009473629 0.007539274 0.022236405
0002e0 40 fa 3f 3d 70 ee de bb d9 53 16 3e f2 60 79 bd
       0.046869516 -0.0068033263 0.14680423 -0.06088347
0002f0 21 b6 88 be da 5c cd 3e 66 50 41 3d 94 ad 06 3d
       -0.26701453 0.40109903 0.047195815 0.03288038
000300 dd 30 46 3d 7c 34 b9 3e 20 58 4b 3c 2c 06 94 bb
       0.048386443 0.36172855 0.012411147 -0.0045173373
000310 17 43 a0 bd 3e ab 26 be c9 0e 32 3c 59 d3 d9 3c
       -0.07825296 -0.16276261 0.010867783 0.026590036
000320 fa 7f eb bc c3 5a 31 bd 75 de 5f 3c 58 09 bd 3c
       -0.028747547 -0.043299448 0.013663878 0.023075745
000330 18 68 87 bb 44 64 98 bc 63 1c fb 3c bb 72 c5 bc
       -0.004132282 -0.018602498 0.030653184 -0.02410256
000340 52 b8 fe 3c e0 02 a2 bd de 29 2e 3d 4f 5a 9b bd
       0.03109375 -0.079107046 0.042520396 -0.07585584
000350 fa eb 31 bd 64 3d 06 bc e7 a8 d1 bc 09 f5 ad 3b
       -0.043437935 -0.008193348 -0.025593234 0.0053087515
000360 3e f0 9f bd a4 c3 84 bc 78 d7 d6 3c 65 e3 a2 3c
       -0.078094944 -0.01620657 0.02622579 0.01988382
000370 e2 c4 2d bc 7c 37 6b 3d 47 3f 0c bd 41 6f 36 bd
       -0.010606023 0.05742596 -0.034240033 -0.044539694
000380 68 a5 6d bc 90 80 1f bd 3a c8 48 3c d4 0b 90 ba
       -0.014504768 -0.038940966 0.012254769 -0.0010989853
000390 5f 30 51 3d 10 78 10 3c 02 1e 23 3b d8 2c 14 3c
       0.05107152 0.008817688 0.0024889712 0.009043895
0003a0 5a 77 29 3d 5e 00 8f 3c c0 8a b6 bb fb 3d 0f bd
       0.04137359 0.01745623 -0.0055707395 -0.03497122
0003b0 9e c5 58 bc e0 df 49 bd 8f 7b 6f 3c af 04 ee bb
       -0.013230709 -0.04928577 0.014616861 -0.007263742
0003c0 eb 85 ec 3c b0 a3 84 bd 57 97 1e 3d 48 2a 03 be
       0.02887245 -0.064765334 0.038718548 -0.12809098
0003d0 1a 01 fa 3c ad 36 19 bc 6f 55 f1 3c b2 60 56 3d
       0.030518103 -0.009351415 0.029459683 0.05233831
0003e0 93 62 8e 3d fd 30 d1 be 81 ab b0 bd d5 6f 07 3d
       0.06952395 -0.40857688 -0.08626462 0.033065636
0003f0 15 fa b1 3c b4 ef 14 be b7 39 d6 bb 52 b2 f0 3c
       0.021725694 -0.14544564 -0.006537642 0.029381905

sl_fc_a.bias f4 [2]
000000 ba a1 f7 3b 52 7c 64 bd
       0.007557121 -0.055782624
