models/cartpole.pth (torch, 270412 bytes, 8 tensors)

fc1.weight f4 [128, 4]
0	0xbd896ad4	-0.06709829
1	0x3e5caf97	0.21551357
2	0xbf3e6f13	-0.74388236
3	0xbea78eef	-0.32726237
4	0xbe73165c	-0.23738998
5	0x3e4e9699	0.20174636
6	0x3eae9902	0.3410111
7	0x3eb970c2	0.3621884
8	0xbd8adc55	-0.06780306
9	0x3d6a7cb2	0.057247825
10	0x3e21c895	0.15799172
11	0xbc250027	-0.010070837
12	0xbed99072	-0.42493016
13	0xbe8ae6f0	-0.27129316
14	0xbeed9af8	-0.46407294
15	0xbccc5d8b	-0.024946949
16	0x3e305a4c	0.17221946
17	0x3e7504a2	0.23927549
18	0xbf35d1b4	-0.71023107
19	0xbe3cb923	-0.18429999
20	0x3da0f32b	0.078588806
21	0x3ed10c05	0.40829483
22	0xbd67109e	-0.05641233
23	0x3eba9755	0.36443582
24	0xbe05e26f	-0.13074659
25	0x3ceb55bb	0.028727403
26	0x3f50c9a6	0.8155769
27	0xbed5dde6	-0.41770858
28	0xbe6c96d3	-0.2310441
29	0xbd659873	-0.05605359
30	0xbedfa22a	-0.4367841
31	0x3ecef482	0.4042092
32	0xbe431190	-0.19049668
33	0xbe6da085	-0.23205765
34	0xbf0d5bf9	-0.55218464
35	0xbed228cc	-0.4104675
36	0xbea1bda2	-0.3158999
37	0x3ebb9209	0.36634853
38	0x3f2f2f9d	0.6843203
39	0x3ea7fe50	0.32811213
40	0x3d665072	0.056229062
41	0xbe933279	-0.28749445
42	0x3e9cc159	0.30616263
43	0xbedea2e2	-0.43483645
44	0xbe941be4	-0.2892753
45	0xbe67de60	-0.22643423
46	0x3f23b026	0.63940656
47	0x3e98f903	0.2987748
48	0xbe45fe40	-0.1933527
49	0x3d2302c2	0.039797552
50	0x3f19495b	0.59877557
51	0x3eed738d	0.4637722
52	0x3e85f719	0.26165083
53	0xbadc4e14	-0.0016807937
54	0x3ed6f094	0.41980422
55	0xbe8db206	-0.27674884
56	0x3db2406a	0.08703692
57	0xbeb01d26	-0.34397238
58	0xbef823a2	-0.48464686
59	0xbe814049	-0.25244358
60	0x3dccdb40	0.10002756
61	0x3df7f098	0.121064365
62	0xbea0ae53	-0.31383
63	0x3e394044	0.18090922
64	0x3eaf0d88	0.3419001
65	0xbcff9d64	-0.03120298
66	0xbd8459ca	-0.064624384
67	0x3d8ec524	0.06971195
68	0x3e941dd7	0.28929016
69	0x3ed58879	0.41705683
70	0xbf229741	-0.63512045
71	0xbe020c56	-0.12700018
72	0x3dd3496d	0.10316739
73	0x3ebf88b4	0.37408984
74	0x3f546214	0.82962155
75	0x3ef2d715	0.4742972
76	0x3decbf38	0.115599096
77	0xbec90f75	-0.39269605
78	0x3eba67bf	0.36407277
79	0xbe9c4813	-0.30523738
80	0xbedbb3ec	-0.42910707
81	0x3eadb715	0.33928743
82	0x3f2b2372	0.6685096
83	0xbed8616e	-0.42261833
84	0x3e846c91	0.2586408
85	0xbd7af9d5	-0.061273415
86	0xbf22fd64	-0.63667893
87	0xbe9935a5	-0.2992374
88	0x3e3ab490	0.18232942
89	0xbe95a2b8	-0.29225707
90	0x3ee4e895	0.44708696
91	0x3e739a0e	0.23789236
92	0x3ea6ba2c	0.32563913
93	0x3e0cc788	0.1374799
94	0xbf405404	-0.751282
95	0xbe8e23e9	-0.27761772
96	0x3e502032	0.20324782
97	0x3c452a69	0.012034037
98	0xbf384e40	-0.719944
99	0xbe6bcd41	-0.23027517
100	0x3f0153b9	0.50518376
101	0x3e9a1556	0.30094403
102	0xbf1f5c60	-0.6225033
103	0xbde42cf3	-0.11141386
104	0xbec02275	-0.3752629
105	0xbd3a951f	-0.04555237
106	0xbf36b5c6	-0.71371114
107	0xbeb38a06	-0.3506624
108	0xbd545738	-0.05184099
109	0x3e01c353	0.12672167
110	0xbef6e132	-0.48218685
111	0x3e6ba4ed	0.23012133
112	0xbeacabc4	-0.33724797
113	0x3ec44f3d	0.38341704
114	0x3f35f0c1	0.71070486
115	0xbeaffabd	-0.34370986
116	0xbe09c367	-0.13453446
117	0x3cf02a6d	0.029317105
118	0x3d95081b	0.072769366
119	0x3df2c00d	0.11853037
120	0x3db91cac	0.09038672
121	0x3d2c2d23	0.042035233
122	0xbef28798	-0.47369075
123	0x3e80a797	0.2512786
124	0xbe9373e4	-0.28799355
125	0xbe1ca7f8	-0.1529845
126	0xbdb88f11	-0.09011663
127	0xbe9a234b	-0.3010505
128	0xbd16dc7f	-0.036831375
129	0xbeb4c36f	-0.35305354
130	0xbea49697	-0.3214614
131	0x3dd2c676	0.1029176
132	0xbec7bb13	-0.39009914
133	0xbcdb226e	-0.026749816
134	0x3f246e3a	0.6423069
135	0xbd44ebb3	-0.048076343
136	0xbd5fc215	-0.05462845
137	0xbb8f1f6b	-0.004367759
138	0x3ed89a5e	0.42305273
139	0x3e9147c4	0.28375065
140	0x3eeeb382	0.4662133
141	0x3e9dc438	0.30813766
142	0x3f21aaf8	0.631515
143	0xbd808e02	-0.06277086
144	0xbef97c8d	-0.48727837
145	0xbe44234c	-0.1915409
146	0x3f4a5165	0.7903045
147	0xba2fdac8	-0.0006708321
148	0xbe866470	-0.26248503
149	0xbebf2dcc	-0.37339628
150	0xbf2560b8	-0.64600706
151	0xbed315dd	-0.41227618
152	0xbe0f8fe2	-0.1401973
153	0x3e592d36	0.21208653
154	0x3f0fd633	0.5618622
155	0xbee4b6ed	-0.4467081
156	0x3e9fb02e	0.31189102
157	0xbec8528a	-0.39125472
158	0xbdd87bf0	-0.10570514
159	0xbe4f9a1c	-0.20273632
160	0xbd9d0bf7	-0.07668298
161	0xbd4a0da3	-0.04932941
162	0xbe955904	-0.29169476
163	0xbed1e248	-0.4099295
164	0xbdb40125	-0.08789281
165	0x3d100f73	0.035170984
166	0xbd2adeee	-0.04171651
167	0x3e357ce8	0.17723429
168	0xbef570da	-0.4793766
169	0xbd0e7011	-0.034774844
170	0x3f4a63a3	0.79058284
171	0xbe4911be	-0.19635674
172	0x3ea0d363	0.31411275
173	0x3e0a545d	0.13508745
174	0xbf23a7e5	-0.6392806
175	0x3eb97cdb	0.3622807
176	0x3cf61463	0.030039018
177	0xbe7b8195	-0.2456115
178	0x3f122446	0.570866
179	0xbec4d16d	-0.3844103
180	0x3da0c0a5	0.07849244
181	0xbd2589c7	-0.040414598
182	0x3f311eea	0.69187796
183	0x3dc6d9f0	0.09709537
184	0x3e560338	0.20899665
185	0x3e01052f	0.12599634
186	0x3d3a759a	0.04552231
187	0xbd62fa20	-0.05541432
188	0xbec62a91	-0.3870435
189	0x3e975618	0.29557872
190	0x3f468512	0.775468
191	0x3ead82e5	0.33888927
192	0xbe53494f	-0.20633434
193	0xbcd7ac1a	-0.026327182
194	0xbf576141	-0.8413277
195	0xbe8ad5fd	-0.27116385
196	0xbdead515	-0.114664234
197	0x3e47854a	0.1948444
198	0xbf39b9de	-0.72549236
199	0xbd3505ef	-0.04419511
200	0xbad7050f	-0.0016404706
201	0x3e88b597	0.26701042
202	0xbf3c7e38	-0.73630095
203	0xbe9ab251	-0.3021417
204	0xbe6895be	-0.22713372
205	0x3ed7663d	0.4207019
206	0xbf1e84e6	-0.61921537
207	0x3eb9948c	0.36246145
208	0x3e87fe99	0.2656143
209	0x3d89a3bc	0.06720683
210	0xbe888234	-0.26661837
211	0xbdec6911	-0.11543477
212	0x3d1e25aa	0.038610138
213	0xbdb5fbe2	-0.088859335
214	0xbd9895a1	-0.074504144
215	0x3d4b5a25	0.049646515
216	0xbeb9ec42	-0.36313063
217	0xbe70167a	-0.23446074
218	0x3f27bda4	0.65523744
219	0xbed56f9d	-0.41686717
220	0xbe0801c1	-0.13281919
221	0x3ef791d8	0.48353457
222	0x3efff3a3	0.49990568
223	0xbb2cd9c1	-0.0026374909
224	0xbed2be79	-0.41160944
225	0x3e95316e	0.29139274
226	0xbe07db1e	-0.1326718
227	0xbdc536bb	-0.0962958
228	0xbe22acda	-0.1588625
229	0xbd2ea96d	-0.042642046
230	0x3c46ada6	0.012126362
231	0x3ec9cfbc	0.394163
232	0xbda0320a	-0.07822044
233	0x3ec0d3cb	0.37661585
234	0x3f12c543	0.5733225
235	0xbe8871c8	-0.26649308
236	0x3e83b1d0	0.25721598
237	0xbea00386	-0.31252688
238	0xbe8e3f7e	-0.27782816
239	0x3e071322	0.13190892
240	0xbc8bdd86	-0.017073404
241	0x3e9b4c8e	0.30331844
242	0xbeae31dc	-0.34022415
243	0x3d1b8595	0.03796919
244	0x3e827cd4	0.2548586
245	0xbeec9d91	-0.46213964
246	0x3e6eeece	0.23333284
247	0xbf0306c8	-0.5118222
248	0x3ca6e15e	0.020371135
249	0xbd8e79fb	-0.0695686
250	0xbef17370	-0.47158384
251	0x3d984b58	0.07436246
252	0x3ec3ded9	0.38255957
253	0xbe2b8caa	-0.16752878
254	0xbf0160da	-0.5053841
255	0xbe3a8275	-0.18213828

fc1.bias f4 [128]
0	0xbe1f25fa	-0.1554183
1	0xbe65b9dc	-0.22434181
2	0x3d87c289	0.066289015
3	0x3e2010a9	0.15631355
4	0xbe80fbc1	-0.25192073
5	0xbc065931	-0.008199976
6	0x3e8db6e7	0.27678606
7	0xbdb58763	-0.088637136
8	0x3de9b52d	0.1141151
9	0xbe0204aa	-0.12697092
10	0x3e3beee8	0.18352854
11	0xbeb4026c	-0.35158098
12	0xbea5fbb8	-0.3241861
13	0xbe9bf6f1	-0.3046184
14	0x3eeb0f1e	0.4590997
15	0xbe96b119	-0.2943199
16	0xbdcaa41f	-0.09894585
17	0xbe93b815	-0.2885138
18	0x3efa2b1a	0.4886101
19	0x3f042b44	0.5162852
20	0xbf055de3	-0.52096385
21	0xbe9c19cc	-0.3048843
22	0xbec127b3	-0.377256
23	0xbd4fcd86	-0.05073311
24	0xbe48651d	-0.19569822
25	0xbe97dbb6	-0.29659814
26	0xbe756653	-0.23964815
27	0x3dbeb6ad	0.093121864
28	0xbeb1b28d	-0.34706536
29	0x3de66568	0.112498105
30	0xbd683c52	-0.05669815
31	0xbeab8df2	-0.33506733
32	0x3d428d1a	0.047497846
33	0x3ec8da59	0.39229086
34	0xbebc90cb	-0.36829218
35	0x3b3998b8	0.0028319787
36	0xbe3c8f50	-0.18414044
37	0x3efb1bfb	0.49044785
38	0xbf0d4167	-0.5517792
39	0xbef56ad2	-0.4793306
40	0x3f01a24b	0.50638264
41	0xbebdd756	-0.3707835
42	0x3e3f22a2	0.18665555
43	0x3bc80b8a	0.006104891
44	0xbe01842d	-0.12648077
45	0xbe091ed8	-0.13390672
46	0x3e9fac00	0.31185913
47	0x3bbc660f	0.005749471
48	0xbf04e201	-0.51907355
49	0xbe7814ee	-0.24226734
50	0xbe4bd976	-0.19907174
51	0x3e802cfb	0.25034317
52	0xbeb71afb	-0.35762772
53	0x3ef6830b	0.48146853
54	0xbdddde4b	-0.10833415
55	0xbde3f75d	-0.11131165
56	0x3ed60d5a	0.4180706
57	0x3e757046	0.2396861
58	0x3ef4cff5	0.4781491
59	0x3e9ae600	0.302536
60	0xbe424ded	-0.18975039
61	0xbe774603	-0.24147801
62	0xbd7476c8	-0.05968359
63	0x3eced48a	0.4039653
64	0xbecdaa12	-0.40168816
65	0xbeca2468	-0.394809
66	0x3e6ec399	0.23316802
67	0x3ef10144	0.47071278
68	0xbe622e65	-0.2208801
69	0xbf0916c1	-0.53550345
70	0xbf11d630	-0.5696745
71	0x3e078281	0.13233377
72	0x3b8fd36c	0.004389217
73	0xbe7e1f9e	-0.24816748
74	0x3d77c284	0.06048824
75	0x3e3e004d	0.18554802
76	0x3ed67ede	0.41893667
77	0x3ecd5ef0	0.40111494
78	0xbd5951c8	-0.05305651
79	0xbf0a37b4	-0.53991246
80	0xbee753d8	-0.45181155
81	0x3ef09e4b	0.46995768
82	0x3e9bdbd4	0.30441153
83	0x3e5c8e9f	0.2153878
84	0xbed15a20	-0.40889072
85	0x3f02729a	0.5095612
86	0x3efd5836	0.49481362
87	0x3ee71430	0.4513259
88	0xbed7f530	-0.4217925
89	0xbe69f46c	-0.22847146
90	0xbefadeb5	-0.48998037
91	0x3ed95416	0.42446965
92	0xbe7b1d9c	-0.24523014
93	0xbe7b0805	-0.24514778
94	0x3e91407c	0.2836951
95	0xbea5f45c	-0.32412994
96	0xbe85f4cb	-0.26163325
97	0xbda2e1c3	-0.07953217
98	0xbdabe76d	-0.0839375
99	0xbee19e21	-0.44065955
100	0x3edc5068	0.43030095
101	0xbe57f0fe	-0.21088025
102	0x3e359f11	0.1773646
103	0x3ede4aa4	0.4341632
104	0x3e683ab7	0.22678648
105	0x3d82911c	0.06375334
106	0x3ee54abb	0.44783577
107	0x3dbd983a	0.092575505
108	0xbe5c3dc2	-0.21507934
109	0x3f0210e5	0.5080703
110	0x3dec034e	0.11524068
111	0xbeb192b2	-0.34682232
112	0xbe47093e	-0.1943712
113	0xbeee2a86	-0.46516818
114	0x3ed20c46	0.4102499
115	0xbde2d3a4	-0.110755235
116	0xbefbb28d	-0.4915966
117	0xbda72827	-0.08161955
118	0x3e94b71c	0.2904595
119	0x3e034828	0.12820494
120	0x3e0f6e61	0.1400695
121	0x3e06101d	0.13092084
122	0x3e56ad2f	0.20964502
123	0xbe130edb	-0.14361136
124	0xbe7fa18b	-0.24963968
125	0xbf01e685	-0.5074237
126	0xbed90c4d	-0.42392197
127	0x3e7e5ec4	0.24840838

fc2.weight f4 [256, 128]
0	0xbe22a390	-0.15882707
1	0x3cc245bc	0.023714893
2	0x3d1a82cc	0.037722394
3	0x3d2ab076	0.041672193
4	0xbda6cbd7	-0.08144348
5	0x3e015036	0.12628254
6	0xbd480bb1	-0.048839275
7	0x3cc42015	0.02394108
8	0xbd675f58	-0.05648741
9	0xbe361e76	-0.17785057
10	0x3d016651	0.031591717
11	0xbcfce145	-0.030869136
12	0x3d98490a	0.07435806
13	0x3a9283cf	0.0011178198
14	0xbda311c7	-0.07962375
15	0xbce58ebe	-0.028022166
16	0x3d8da9b3	0.06917133
17	0x3dbd6084	0.092469245
18	0xbb4dec4f	-0.0031421368
19	0x3d3af656	0.04564508
20	0xbdb61d4e	-0.08892308
21	0xbe759506	-0.23982629
22	0x3d8567c3	0.065139316
23	0xbda5af0f	-0.080900304
24	0xbd5fb557	-0.0546163
25	0x3de4e670	0.11176765
26	0xbd5baac2	-0.053629644
27	0x3d40a7a1	0.047034863
28	0xbdcdcaf2	-0.10048474
29	0x3db07112	0.086153165
30	0xbe345cad	-0.17613478
31	0x3dd8409d	0.10559199
32	0xbd335628	-0.043783337
33	0x3d6d439e	0.057925813
34	0x3c03ff6f	0.008056506
35	0x3de96d04	0.11397746
36	0x3db6eec9	0.089322634
37	0xbb3b769a	-0.0028604628
38	0x3ba7e3af	0.0051235775
39	0xbcc3ea77	-0.023915512
40	0x3d8f40ac	0.06994757
41	0xbddfdb1a	-0.10930462
42	0x3d6265e3	0.055272948
43	0xbd52008f	-0.051270064
44	0xbcb39327	-0.021920754
45	0x3e1419d3	0.14462976
46	0x3c1ac627	0.009446657
47	0xbd2302e1	-0.039797667
48	0xbd859422	-0.06522395
49	0xbe80cfac	-0.2515844
50	0xbd24d41d	-0.04024135
51	0xbd5e37bf	-0.054252382
52	0x3cccd4f4	0.025003888
53	0x3dc31123	0.09524753
54	0x3d032284	0.03201534
55	0xbdcc31e6	-0.09970455
56	0x3d85f6e1	0.06541229
57	0xbd90ee72	-0.0707673
58	0x3d1f5cf2	0.038907
59	0x3c14948f	0.009068622
60	0xbbb35311	-0.005472549
61	0x3e534726	0.2063261
62	0xbe0c4d59	-0.13701381
63	0x3ce57d64	0.028013892
64	0x3c078d49	0.008273431
65	0xbe5122b9	-0.20423402
66	0x3c2e2d77	0.010630957
67	0x3db44c5d	0.08803628
68	0xbda6d641	-0.081463344
69	0x3da13701	0.07871819
70	0xbd57f007	-0.052719142
71	0xbc14dad3	-0.009085375
72	0xbe27da98	-0.1639198
73	0xbe8dd747	-0.27703306
74	0x3d9c138e	0.07620917
75	0xbcbb8985	-0.022892723
76	0x3c330c96	0.010928294
77	0x3cbeb746	0.023280751
78	0x3cd865b2	0.02641568
79	0xbc7df3cd	-0.015500021
80	0x3d92cf4e	0.071684465
81	0xbd005f89	-0.03134111
82	0xbd20c017	-0.03924569
83	0xbd48667f	-0.048925873
84	0x3c949cc6	0.018141162
85	0x3d26432b	0.0405914
86	0x3ddbca3e	0.10731934
87	0xbd780c6b	-0.060558718
88	0x3d5b1b80	0.053493023
89	0xbd1263ba	-0.035739638
90	0xbd116cb5	-0.03550406
91	0x3dbebba0	0.093131304
92	0xbd51c35f	-0.05121171
93	0xbefb0af2	-0.49031788
94	0xbc9b9c7a	-0.018995512
95	0x3da82780	0.08210659
96	0x3ded8812	0.11598219
97	0xbe0144e0	-0.1262393
98	0xbc3b93b0	-0.011448786
99	0xbde637a5	-0.11241082
100	0xbd6b12dd	-0.057391036
101	0x3b025541	0.001988724
102	0x3d8ff8a9	0.0702985
103	0xbc651738	-0.013982587
104	0x3d04a63f	0.032385107
105	0x3d28ce3f	0.041212317
106	0x3d7ca05a	0.06167636
107	0xbdb57798	-0.08860701
108	0xbd1be9b4	-0.038064674
109	0xbc23395f	-0.009962409
110	0xbd95b2fe	-0.07309531
111	0xbd8dc8c0	-0.06923056
112	0x3d8980ed	0.06714044
113	0x3dd0be99	0.101926036
114	0x3c678d35	0.0141327875
115	0x3cf1d16a	0.029518802
116	0xbc8f2888	-0.017475381
117	0x3d701dba	0.0586221
118	0xbcef280e	-0.029193904
119	0xbcd503e5	-0.026002834
120	0x3c4b0d54	0.012393314
121	0x3dc84c07	0.09780126
122	0xbdc05d12	-0.09392752
123	0x3e34d55c	0.17659515
124	0x3d34e545	0.04416396
125	0xbd7da61f	-0.061926004
126	0xbce0ed00	-0.02745676
127	0x3da334e8	0.079690754
128	0xbda59ad8	-0.08086175
129	0xbcd3a19d	-0.0258339
130	0x3ca28b1e	0.019841727
131	0xbd9e969d	-0.07743571
132	0x3d0c85b2	0.03430719
133	0x3d2b779a	0.041862108
134	0x3d33f353	0.043933224
135	0xbd66d114	-0.056351736
136	0x3d9dc470	0.07703483
137	0xbd651d4b	-0.05593614
138	0x3d9e1e3f	0.07720613
139	0xbdadb8f7	-0.08482545
140	0xbda14865	-0.07875136
141	0x3d1f0489	0.038822684
142	0xb9a2f2de	-0.00031079998
143	0x3ba7160a	0.005099063
144	0xbd487b61	-0.04894579
145	0xbd4ef61d	-0.05052768
146	0xbd0154e4	-0.0315751
147	0xbdc387b6	-0.09547369
148	0xbc0eaac4	-0.008707706
149	0xbc64845c	-0.013947573
150	0xb89ceefa	-7.4831725e-05
151	0x3c84a0df	0.01618999
152	0x3d9103f1	0.0708083
153	0x3bc0f7c0	0.005888909
154	0xbd3dd0c0	-0.046341658
155	0xbd14feee	-0.036375932
156	0xbd8e4174	-0.06946078
157	0xbd86086e	-0.065445766
158	0xbc69399f	-0.014234929
159	0xbc80107a	-0.015632857
160	0x3d210eb3	0.03932066
161	0xbd3d650d	-0.046238948
162	0x3d904f2d	0.070463516
163	0xbd97cf3a	-0.07412572
164	0x3983b5ae	0.0002512163
165	0x3d8da351	0.06915916
166	0x3d94a554	0.07258096
167	0xbd51b720	-0.051200032
168	0x3ba59a95	0.005053828
169	0x3c2b0f58	0.01044067
170	0xbd53db12	-0.051722594
171	0xbcfa2a3d	-0.030537719
172	0x3c35f451	0.011105613
173	0xbd7bbfc4	-0.06146218
174	0x3b9544b4	0.004555309
175	0x3d1ca9bf	0.03824782
176	0xbd823129	-0.06357033
177	0x3d66b416	0.056324087
178	0xbc9c837f	-0.019105671
179	0x3cfeb7dc	0.03109353
180	0x3d8071cd	0.06271706
181	0xbd0e0b50	-0.034678757
182	0x3d064ec5	0.032789964
183	0xbd1a05b2	-0.037603088
184	0xbcbf1a18	-0.023327872
185	0xbc756ba1	-0.014979274
186	0xbc3b8b3f	-0.011446773
187	0xbce793a3	-0.02826864
188	0x3c053467	0.0081301695
189	0xbc28ea04	-0.0103097
190	0x3d657e1c	0.05602847
191	0xbce57bb8	-0.028013095
192	0xbaba1194	-0.0014195913
193	0xbd06acc5	-0.03287961
194	0xbd8d168b	-0.06889065
195	0x3cd14f8a	0.025550622
196	0xbaae97b5	-0.0013320359
197	0xbd10fd98	-0.035398096
198	0xbcf4d06b	-0.029884538
199	0x3c5a920c	0.013340484
200	0xbc82ece8	-0.015982106
201	0x3d2960a3	0.041351926
202	0xbb4d5cf4	-0.0031335922
203	0x3ccc334c	0.024926804
204	0x3d32bb8b	0.043635886
205	0xbd00eb69	-0.031474505
206	0x3d1ca434	0.038242534
207	0x3d859487	0.0652247
208	0x3b85488e	0.004067487
209	0x3be456bf	0.0069683488
210	0xbbf6cf18	-0.0075320117
211	0x3d53f14f	0.0517438
212	0xbd18d9dd	-0.037317146
213	0xbd35e9b3	-0.044412326
214	0x3cf54eab	0.029944738
215	0xbda827ad	-0.082106926
216	0x3ab9bd65	0.0014170824
217	0xbd267f94	-0.04064901
218	0x3d6ef52a	0.058339275
219	0xbdbf8972	-0.093523875
220	0x3d5b840d	0.05359273
221	0x3d73dd1d	0.059537042
222	0x3c345043	0.011005464
223	0xbbc0f8b0	-0.005889021
224	0x3d92f14e	0.071749315
225	0xbd46cd56	-0.048535667
226	0xbbe81771	-0.0070828726
227	0xbd1e89dd	-0.038705695
228	0xbbf5f3e5	-0.007505881
229	0x3c9d5ec4	0.019210227
230	0x3aee917a	0.0018201314
231	0xbcdacceb	-0.02670904
232	0xbdb4fd90	-0.08837426
233	0x3b944d89	0.0045258445
234	0xbc48b184	-0.012249354
235	0xbb525e07	-0.0032099502
236	0x3d4a634f	0.049411114
237	0x3d9b4df3	0.07583227
238	0xbd56ca8b	-0.052439254
239	0xbcabfd0c	-0.020994686
240	0xbd110f31	-0.03541488
241	0xbda6d5ef	-0.08146273
242	0xbd97ef07	-0.07418638
243	0x3d8f91ae	0.07010208
244	0x3d0a3b47	0.033747938
245	0x3d42782f	0.047477897
246	0x3d1bc228	0.03802696
247	0xbd99156d	-0.0747479
248	0x3c181585	0.009282474
249	0x3d85b0dd	0.065278746
250	0xbd4a11fe	-0.049333565
251	0x3da108a5	0.07862977
252	0x3cbe50bd	0.023231858
253	0x3d7eb5c0	0.06218505
254	0xbd1b17c8	-0.037864476
255	0x3d1c7c28	0.038204342

fc2.bias f4 [256]
0	0xbc47dd9a	-0.01219883
1	0xbdc40eb4	-0.09573117
2	0x3b2ea921	0.0026651102
3	0x3d5facf0	0.054608285
4	0x3de849a5	0.113421716
5	0x3ca3a4c0	0.01997602
6	0x3d6da022	0.058014043
7	0x3de70214	0.11279693
8	0xbd05d453	-0.03267319
9	0xbd09c7e2	-0.03363789
10	0x3db78c3a	0.08962293
11	0xbdb89a5b	-0.09013816
12	0x3bd9c718	0.0066460483
13	0xbd1bc23d	-0.038027037
14	0xbd778747	-0.060431745
15	0xbd127960	-0.035760283
16	0x3d4a98a4	0.049461976
17	0x3dc9bff3	0.098510645
18	0x3db5537a	0.088538125
19	0xbc8a5e53	-0.01689068
20	0x3b2c0dba	0.00262533
21	0x3d8da419	0.06916065
22	0xbca4189e	-0.02003127
23	0x3d859dd9	0.06524248
24	0x3da06af4	0.078329
25	0xbd2c700a	-0.042099036
26	0xbc4e93bc	-0.012608465
27	0xbd1ebaa7	-0.038752224
28	0x3d36d9fc	0.04464148
29	0x3d8498fc	0.06474492
30	0xbcbd88b6	-0.023136478
31	0x3c8a488e	0.0168803
32	0x3dc591e2	0.096469656
33	0x3d7ed1e7	0.062211897
34	0xbd39a2c9	-0.04532126
35	0x3ceab21d	0.028649384
36	0xbca935b7	-0.020655496
37	0x3d5f9976	0.05458971
38	0x3d357435	0.044300277
39	0x3c4eca45	0.012621467
40	0x3cc4a90a	0.024006385
41	0xbda5af04	-0.08090022
42	0x3dd17d84	0.10229018
43	0x3d142e5c	0.036177024
44	0xbd16a5b7	-0.03677913
45	0x3d202f87	0.039107826
46	0xb91d1752	-0.00014981374
47	0x3cd8dd02	0.026472572
48	0xbce49eca	-0.027907748
49	0x3d713800	0.058891296
50	0xbccf040f	-0.02527049
51	0x3d0eb8ff	0.034844395
52	0x3e07754d	0.1322834
53	0x3cc4c336	0.024018865
54	0xbd62a1a2	-0.055329926
55	0x3d7b4fab	0.061355274
56	0x3e04d63d	0.1297235
57	0x3d1862dd	0.03720366
58	0x3d376213	0.044771265
59	0xbc84b720	-0.016200602
60	0x3db9ef9b	0.09078904
61	0x3e073d23	0.13206916
62	0x3dfca02c	0.12335238
63	0x3d2be913	0.041970324
64	0xbcfd014c	-0.030884407
65	0x3df0c7a8	0.117568314
66	0xbcc4fca7	-0.024046255
67	0xbd930abe	-0.07179783
68	0x3da003f4	0.07813254
69	0x3d640a02	0.055673607
70	0xbdd03cad	-0.10167823
71	0xbc2cb155	-0.010540326
72	0x3bf55646	0.0074870912
73	0x3d8a8e3d	0.06765411
74	0x3dbcb8e9	0.09214956
75	0xbd7ce616	-0.061742865
76	0x3db1ba6a	0.08678134
77	0xbc93a522	-0.018023077
78	0x3de75c53	0.11296906
79	0xbcdd26e7	-0.02699609
80	0x3c752f71	0.014964924
81	0xbbec5114	-0.0072118137
82	0x3da70aa1	0.08156324
83	0x3db4f91e	0.08836578
84	0xbd5f3d09	-0.054501567
85	0x3d895149	0.06704957
86	0xbca95289	-0.020669239
87	0xbd256fa5	-0.040389676
88	0xbd21bd95	-0.03948744
89	0x3dfc2804	0.1231232
90	0x3d3bf98b	0.04589228
91	0xbd054340	-0.032534838
92	0x3dc95d66	0.098322675
93	0xbd7ef03a	-0.062240817
94	0x3d2e3d06	0.042538665
95	0x3d46c20f	0.048524912
96	0xbdc6d3fc	-0.097084016
97	0x3d5edac7	0.05440786
98	0x3ca6bc60	0.020353496
99	0xbd3cdb97	-0.046107855
100	0x3c99f575	0.0187938
101	0x3c488b97	0.012240312
102	0xbd9a0b4c	-0.07521686
103	0xbd4037af	-0.046928104
104	0x3d96c610	0.07361996
105	0x3db057ba	0.086104825
106	0xbd92bf67	-0.07165413
107	0xbcafcfb3	-0.021461343
108	0xbd898878	-0.067154825
109	0x3bbf5388	0.005838815
110	0x3ca2326c	0.019799434
111	0x3c116945	0.008875196
112	0xbc9311c3	-0.017952805
113	0xbd1f11c6	-0.03883531
114	0x3e04047a	0.12892333
115	0x3df04611	0.11732114
116	0xbd9d8297	-0.07690924
117	0xbd57844e	-0.05261641
118	0xbba70a2c	-0.005097648
119	0xbd801610	-0.06254208
120	0x3d54d9e5	0.051965613
121	0xbd140eea	-0.036147036
122	0x3c43598b	0.011923204
123	0x3d72084c	0.059089944
124	0x3cba85f6	0.022768956
125	0xbcf357b1	-0.0297049
126	0x3d04578a	0.032310046
127	0x3c2abace	0.010420514
128	0xbc24760d	-0.010037911
129	0xbc21a9c6	-0.009867137
130	0xbcaa1dea	-0.020766217
131	0x3ca25c6e	0.019819465
132	0xbd9af097	-0.0756542
133	0xbc5a8f43	-0.01333982
134	0xbc88443c	-0.0166341
135	0x3beca16d	0.007221392
136	0x3d8eb5e2	0.06968285
137	0xbda5dc52	-0.080986634
138	0x3b64b5b6	0.0034898347
139	0xbbc9e9cd	-0.0061619044
140	0xbe0180e6	-0.12646827
141	0x3cd1b46f	0.025598733
142	0xbdaad0cc	-0.08340606
143	0xbd22a0ce	-0.039704137
144	0x3d6ddc0a	0.058071174
145	0xbcf22b0e	-0.029561546
146	0xbcc2cd95	-0.02377967
147	0xbd2e78b5	-0.042595584
148	0x3b5dee16	0.0033863834
149	0x3dd18b38	0.10231632
150	0xbda44ef7	-0.08022874
151	0x3d9a68d8	0.075395286
152	0xbdb53ea4	-0.088498384
153	0xbd319bcf	-0.04336148
154	0x3dcdafa1	0.10043264
155	0x3d182a71	0.03714985
156	0x3de190ba	0.110139325
157	0x3da126f7	0.0786876
158	0x3dcfe4e0	0.10151076
159	0x3dd51d05	0.10405926
160	0x3d192c80	0.037395954
161	0xbdb84326	-0.089971825
162	0x3d5aeafd	0.05344676
163	0x3d3bbb74	0.045833066
164	0xbcec9b11	-0.028882535
165	0x3c5c2d5e	0.013438551
166	0x3d0aa87f	0.033852097
167	0x3d4b7584	0.04967262
168	0xbcaea115	-0.021317044
169	0xbd7f5f5d	-0.062346805
170	0x3d94882b	0.072525345
171	0x3d7cd7bc	0.061729178
172	0x3b5ecf62	0.0033998122
173	0x3de14052	0.10998596
174	0xbde824a9	-0.11335117
175	0xbd8ea5a5	-0.06965188
176	0x3d8f47ae	0.06996094
177	0x3d93886a	0.07203753
178	0x3c2b34ce	0.010449601
179	0x3d132348	0.03592232
180	0xbd9aaf4e	-0.07552968
181	0x3da2b1cd	0.07944069
182	0xbd500570	-0.050786436
183	0x3d2aeb6c	0.041728422
184	0x3d905b2a	0.07048638
185	0x3cf81435	0.030283073
186	0x3dcaf3a6	0.099097535
187	0xbc58a5ed	-0.013223154
188	0x3baef062	0.0053387145
189	0xbd967e5b	-0.07348319
190	0xbd1b3f45	-0.037902135
191	0xbc94a58e	-0.018145349
192	0xbd81defc	-0.06341359
193	0x39c7e12c	0.00038124004
194	0x3d48c1d1	0.049012963
195	0xbdc60537	-0.096689634
196	0x3d9c5fe9	0.07635481
197	0x3d85d9f0	0.06535709
198	0xbd98b3fa	-0.07456203
199	0xbb2baee1	-0.0026196765
200	0x3dce4465	0.10071639
201	0xbd516ab2	-0.051127143
202	0x3dcf524b	0.10123118
203	0xbca957d6	-0.020671766
204	0x3bc91410	0.006136425
205	0xbd8c8bad	-0.068625785
206	0x3d4d4d09	0.050122295
207	0x3d92bc8c	0.07164869
208	0x3dc31ce3	0.09526994
209	0x3cd3d448	0.02585806
210	0x3d6258e6	0.05526056
211	0x3d41917e	0.047257893
212	0xbb78caa4	-0.003796258
213	0x3d28e352	0.041232415
214	0x3df44e1a	0.11928959
215	0x3d033f53	0.032042813
216	0x3d687067	0.05674782
217	0xbc6bae08	-0.014384754
218	0x3d0744ba	0.033024527
219	0x3debf1b3	0.1152071
220	0x3d25d85b	0.040489536
221	0xbd6790cc	-0.056534573
222	0x3b9d8472	0.0048070485
223	0xbdf70ff0	-0.12063587
224	0x3d2091af	0.039201435
225	0x3c3e465e	0.0116134565
226	0x3c084029	0.008316078
227	0xbcbff073	-0.023430085
228	0x3d2c6cad	0.04209583
229	0xbd36a09e	-0.04458677
230	0xbdd7f003	-0.105438255
231	0x3dc40796	0.095717594
232	0x3c87eaff	0.016591547
233	0xbdc50ec0	-0.09621954
234	0x3d0af39a	0.033923723
235	0xbdb1ec02	-0.08687593
236	0xbc884b3a	-0.016637433
237	0xbdac1309	-0.08402068
238	0x3c8d4696	0.017245572
239	0x3cda6c87	0.026663078
240	0xbd508d4b	-0.050915997
241	0x3c5d3a50	0.013502672
242	0xbd2e54e8	-0.04256144
243	0xbd4240ef	-0.047425207
244	0x3c88c55a	0.016695667
245	0x3c5ec4a4	0.0135966875
246	0xbc84b6d2	-0.016200457
247	0xbccb09ee	-0.024785008
248	0xbd7990c7	-0.060929086
249	0xbc77cc67	-0.015124417
250	0x3db8c600	0.090221405
251	0xbdb64516	-0.08899896
252	0xbd1be3f3	-0.038059186
253	0xbd19f527	-0.03758731
254	0x3d73be16	0.059507452
255	0x3d003ac2	0.031306036

fc3.weight f4 [128, 256]
0	0x3cb1b4d8	0.021692678
1	0xbbd56cb0	-0.0065132007
2	0xbd665ce2	-0.056240924
3	0x3c20f2f0	0.009823546
4	0xbc04a910	-0.008096948
5	0x3bf7a120	0.0075570494
6	0x3bba5b40	0.0056871474
7	0xbd6ee266	-0.05832138
8	0xbd5e632a	-0.05429379
9	0x3d30a81c	0.04312907
10	0xbc73dbc0	-0.014883935
11	0xbc9228b8	-0.017841682
12	0x3b20c080	0.0024528801
13	0xbd585566	-0.052815817
14	0xbab38280	-0.0013695508
15	0x3d0695b4	0.03285761
16	0x3ca788e4	0.020451017
17	0xbd47f744	-0.048819795
18	0x3c9ffe40	0.019530416
19	0x3d216e1c	0.03941165
20	0x3d28aaf2	0.04117865
21	0xbcc4b158	-0.024010345
22	0xbca68c7c	-0.02033066
23	0xbd25bcb0	-0.04046315
24	0x3ccfb458	0.02535455
25	0x3d3240c2	0.04351879
26	0xbd254d8c	-0.040357158
27	0x3cd4fbf8	0.025999054
28	0x3c9291b4	0.017891742
29	0x3b847270	0.0040419623
30	0x3d48b838	0.04900381
31	0xbc0b0508	-0.008485086
32	0xbc748898	-0.014925145
33	0xbd2ebf96	-0.04266318
34	0x3d50d3f8	0.0509834
35	0x3d053b12	0.032527037
36	0x3d588ec6	0.052870534
37	0xbd07e438	-0.03317663
38	0xbc053a50	-0.008131579
39	0x3c597a00	0.013273716
40	0xbd765eae	-0.060148887
41	0xbd7748d0	-0.060372174
42	0xbcdd8674	-0.027041651
43	0xbd1ea9b0	-0.038736045
44	0x3d71ca0c	0.059030578
45	0x3d4d0d22	0.050061353
46	0xbcf23c7c	-0.029569857
47	0xbd64a128	-0.055817753
48	0xbd6ded10	-0.05808741
49	0xbb88bc30	-0.0041728243
50	0xbd4e246a	-0.050327696
51	0xbd0eb38a	-0.03483919
52	0x3cb1e39c	0.021714978
53	0xbcc6e720	-0.02428013
54	0xbcf484f0	-0.029848546
55	0xbc24a638	-0.010049395
56	0x3d6920ea	0.056916155
57	0x3d08aaea	0.03336612
58	0x3c1e4548	0.009660073
59	0x3d2a7bb8	0.041621894
60	0xbc4d8638	-0.012544207
61	0xbc80f280	-0.015740633
62	0xbbf10ef0	-0.007356517
63	0xbafbfdc0	-0.0019225404
64	0xbcb2473c	-0.021762483
65	0x3d2b7338	0.041857928
66	0x3d005750	0.031333268
67	0x3d7c9da6	0.061673783
68	0xbd751326	-0.059832714
69	0xbd5d7d6e	-0.054074697
70	0xbd001aea	-0.031275667
71	0x3aa04680	0.0012228042
72	0x3c3f4f60	0.011676639
73	0x3d13012c	0.03588979
74	0xbd63f022	-0.05564893
75	0xbd1eb670	-0.038748205
76	0x3d1b00d0	0.03784257
77	0xbc147e58	-0.009063326
78	0xbd48c27c	-0.0490136
79	0xbd5b8ee2	-0.05360306
80	0x3d706334	0.058688357
81	0xbb286a40	-0.0025698096
82	0x3d200c3a	0.03907416
83	0xbd5ee8ea	-0.054421343
84	0xbb6448c0	-0.0034833401
85	0x3c8902ec	0.016725026
86	0xbd48fdde	-0.04907023
87	0x3c675788	0.01411999
88	0xbd4c95a4	-0.049947396
89	0xbd784040	-0.06060815
90	0x3ac929c0	0.0015347525
91	0x3d1f4978	0.038888425
92	0x39808700	0.00024514645
93	0xbc81f4ec	-0.015863858
94	0x3d09e9f4	0.03367038
95	0x3d250422	0.040287144
96	0xbb49df00	-0.0030803084
97	0x3cf89678	0.030345187
98	0xbd0980a8	-0.03356996
99	0xbd557620	-0.052114606
100	0x3bb537d0	0.005530335
101	0xbd0ba2ec	-0.03409092
102	0x3d094ac4	0.033518568
103	0xbc4928a0	-0.012277752
104	0xbc224370	-0.009903774
105	0xbd25c422	-0.04047025
106	0xbc153e18	-0.009109043
107	0x3c3a6428	0.011376418
108	0x3d12803a	0.035766818
109	0xbd094392	-0.033511706
110	0xbc652bf8	-0.013987534
111	0xbd1b0732	-0.03784866
112	0xbbcac5c0	-0.0061881244
113	0xbc88ad88	-0.016684309
114	0x3cd3a138	0.025833711
115	0x3b4d6100	0.0031338334
116	0x3cfc73a0	0.030816853
117	0x3d0e38ba	0.034722067
118	0xbd79f6fc	-0.06102656
119	0x3c84dbec	0.016218148
120	0xbc5f1b40	-0.013617337
121	0xbb0e4320	-0.002170749
122	0x3a904a80	0.0011008531
123	0x3d460b84	0.048350826
124	0xbc4159f0	-0.011801228
125	0xbd76fa52	-0.060297318
126	0x3c381330	0.011235043
127	0xbc8042e0	-0.015656888
128	0x3bae07c0	0.0053109825
129	0xbd3e533c	-0.046466097
130	0xbcf46adc	-0.02983611
131	0x3bce21e0	0.0062906593
132	0x3d7e6404	0.0621071
133	0xbd791ca0	-0.060818315
134	0x3d1bb722	0.038016446
135	0x3cab1670	0.020884722
136	0xbd2ebcda	-0.04266057
137	0x3d79d3e2	0.060993083
138	0xbcfad7cc	-0.030620478
139	0xbc46e480	-0.01213944
140	0x3c5b2220	0.013374835
141	0x3d0c6158	0.03427252
142	0xbc406bb0	-0.011744425
143	0x3d5f7e86	0.05456402
144	0xbc9700cc	-0.018432997
145	0xbd31ba70	-0.04339069
146	0xbd2797ee	-0.040916376
147	0x3c09a7a8	0.008401789
148	0xbd39ceec	-0.04536335
149	0x3d1d4f84	0.03840591
150	0xbd454d12	-0.048169203
151	0x3c307590	0.010770217
152	0xbc6f6e60	-0.014613718
153	0x3d50a78c	0.050941035
154	0x3d12b768	0.03581944
155	0x3754a000	1.2673438e-05
156	0x3afd9000	0.0019345284
157	0xbc99279c	-0.018695645
158	0xbcaf718c	-0.021416448
159	0x3d3e0510	0.046391547
160	0xbce33c68	-0.027738765
161	0x3d75a60c	0.059972808
162	0xbd658d64	-0.056043044
163	0x3c891be8	0.01673694
164	0xbcde7b3c	-0.027158372
165	0x3d50659a	0.050878145
166	0xbb298ae0	-0.002587013
167	0x3be53e20	0.0069959313
168	0x3d27f9a0	0.041009545
169	0xbc3ea090	-0.011634961
170	0xbd607546	-0.05479934
171	0x3d393182	0.04521323
172	0x3c6c61c0	0.014427602
173	0xbb6a1f40	-0.0035724193
174	0xbced2638	-0.028948888
175	0x3c928be0	0.017888963
176	0x3d0f6e5a	0.03501735
177	0xbd1cbab2	-0.038263984
178	0xbc97b9e8	-0.018521264
179	0x3cb5fb64	0.022214599
180	0xbd1dba68	-0.03850785
181	0x3d54eb78	0.051982373
182	0x3d683cfa	0.056698777
183	0xbc7af9f8	-0.015318386
184	0x3d4e5e4a	0.05038289
185	0xbd27a984	-0.040933147
186	0x3bc67b80	0.006057203
187	0xbd1f8946	-0.038949274
188	0x3cd20768	0.025638297
189	0x3d2b9176	0.04188677
190	0xbd252744	-0.04032065
191	0xbd299e66	-0.041410826
192	0x3d07b1de	0.03312861
193	0x3d16241e	0.036655538
194	0xbd388b9c	-0.045055017
195	0xbb0a1860	-0.0021071658
196	0xbd2c76d0	-0.042105496
197	0x3c63e900	0.013910532
198	0xbd234108	-0.03985694
199	0x3d0b3d5a	0.033994056
200	0xbcb83a38	-0.022488698
201	0x3d65168c	0.055929706
202	0xbcc94da8	-0.024573162
203	0xbd126ddc	-0.0357493
204	0xbc47f090	-0.012203351
205	0x3d5592a0	0.052141786
206	0x3cf2ecec	0.029653989
207	0xbbabac40	-0.0052390397
208	0xbd1fa490	-0.0389753
209	0xbc68ffb0	-0.014221117
210	0x3d712ea0	0.058882356
211	0x3c62a160	0.01383242
212	0x3d47b75e	0.048758857
213	0x3d20757e	0.03917455
214	0x3b9e8630	0.0048377737
215	0xbd3d390c	-0.046196982
216	0x3d6359ac	0.05550544
217	0x3bd0b490	0.006369181
218	0x3c5b9a48	0.013403483
219	0xbd1f4482	-0.038883694
220	0x3c82bbfc	0.015958779
221	0xbc404648	-0.011735506
222	0xbd454d30	-0.048169315
223	0x3d648ffc	0.055801377
224	0xbc7d8668	-0.0154739395
225	0xbd158fd6	-0.036514126
226	0xbd40990e	-0.047020964
227	0x3d7cc0dc	0.061707363
228	0x3d61df3c	0.055144534
229	0x3d73acc4	0.059490934
230	0x3d75e5b0	0.0600335
231	0xbd143476	-0.036182843
232	0xbd754bb4	-0.05988665
233	0x3d3651ba	0.044511534
234	0xbd4ccdaa	-0.050000824
235	0xbc6b4510	-0.0143597275
236	0xba9aadc0	-0.0011801049
237	0xbcb810e4	-0.022468992
238	0xbd022eea	-0.031783022
239	0xbcae8f98	-0.021308705
240	0x3d2aa4c8	0.041661054
241	0x3d7a3ad8	0.061091274
242	0x3ca0a1dc	0.01960843
243	0xbd474db4	-0.048658088
244	0xbcfef428	-0.031122282
245	0xbbe04b00	-0.006844878
246	0x3c9f8c04	0.019475944
247	0xbd37f81c	-0.04491435
248	0x3d74aa4a	0.059732713
249	0xbcc7b6f4	-0.024379231
250	0xbd17479e	-0.036933534
251	0xbd6fe32c	-0.058566257
252	0xbd46cd52	-0.048535652
253	0x3c966e8c	0.01836326
254	0xbd0df196	-0.034654222
255	0xbd16332e	-0.036669903

fc3.bias f4 [128]
0	0x3d4bcfca	0.04975871
1	0x3da8e31b	0.08246442
2	0x3bb35296	0.0054724915
3	0x3dc32505	0.09528545
4	0xbd196d9a	-0.03745804
5	0xbc927fd3	-0.017883217
6	0xbd9c0424	-0.07617977
7	0xbd54a7fc	-0.051918015
8	0xbd246900	-0.0401392
9	0xbc6bb228	-0.0143857375
10	0x3c66e473	0.0140925525
11	0x3dbf4b9f	0.093405955
12	0x3d64769c	0.055777177
13	0x3d5cd35d	0.05391251
14	0x3d6ea752	0.058265038
15	0xbccb26c4	-0.024798758
16	0x3c0764ef	0.008263811
17	0x3ce0b119	0.027428197
18	0xbc310b7b	-0.01080596
19	0xbd09cd35	-0.033642966
20	0xbd7ae5a4	-0.06125416
21	0x3dc454dc	0.09586498
22	0x3d551ac1	0.052027468
23	0x3cf3a1ec	0.029740296
24	0x3cbcffd5	0.023071209
25	0xbd773198	-0.06035003
26	0x3ca355a0	0.01993829
27	0x3df56633	0.119823836
28	0x3be7a3fc	0.007069109
29	0xbb9f80c0	-0.004867643
30	0x3cdd839e	0.027040299
31	0x3db07e40	0.0861783
32	0x3ba84e5d	0.0051362948
33	0x3cf66c72	0.030081008
34	0x3d471a9b	0.048609357
35	0x3c466b8a	0.0121106
36	0x3d004ad0	0.031321347
37	0xbd143158	-0.03617987
38	0x3d63eaef	0.055643972
39	0x3d38e33a	0.045138575
40	0x3d5638da	0.05230031
41	0x3d12c60d	0.035833407
42	0xbd9d4813	-0.07679763
43	0xbd57b02e	-0.052658252
44	0x3c9ad2c4	0.018899329
45	0x3c2e9b98	0.010657214
46	0xbc1c3728	-0.009534635
47	0xbd2522d4	-0.040316418
48	0x3dd56f9f	0.10421681
49	0xbd2d6cab	-0.042339962
50	0x3dccda07	0.10002523
51	0x3d45355e	0.048146598
52	0x3dba7724	0.091047555
53	0xbd01a830	-0.031654537
54	0x3d38aab1	0.04508466
55	0x3df4b697	0.11948889
56	0xbd5093e4	-0.05092229
57	0x3c8f254c	0.01747384
58	0xbd920502	-0.071298614
59	0x3d22126a	0.039568342
60	0x3b851080	0.004060805
61	0xbcd9ad80	-0.026571989
62	0x3d7d7b93	0.061885428
63	0x3dae59fb	0.08513256
64	0xbd31eaf6	-0.043436967
65	0x3df23326	0.11826162
66	0x3caaefea	0.020866353
67	0x3ca0b6d7	0.019618435
68	0xbd8373fd	-0.064186074
69	0x3ccb64f4	0.024828412
70	0x3ca6722b	0.020318111
71	0xbcdd334c	-0.027002
72	0x3cd62c54	0.026144184
73	0x3df83001	0.12118531
74	0x3dcd6961	0.10029865
75	0x3dab1310	0.08353245
76	0xbd4a0506	-0.049321197
77	0x3dd578fd	0.10423467
78	0xbd4220e7	-0.04739466
79	0x3bacf535	0.0052782544
80	0x3d88f5eb	0.0668753
81	0x3dc9c55b	0.09852096
82	0x3cda4128	0.026642397
83	0x3be7cb9d	0.007073833
84	0x3d2dc8b2	0.042427726
85	0x3db5fd3f	0.088861935
86	0xbc8133e0	-0.015771806
87	0x3d5b6bfb	0.053569775
88	0xbd2009d9	-0.03907189
89	0xbd396786	-0.045264743
90	0x3df3c4ef	0.119027965
91	0x3cee6c49	0.029104369
92	0x3dadda30	0.084888816
93	0x3d8ed57c	0.06974313
94	0xbd68eb25	-0.056864876
95	0xbbd00650	-0.0063484088
96	0x3d274c15	0.04084404
97	0x3cf05c73	0.029340958
98	0x3deb840e	0.11499797
99	0x3cd0430e	0.0254226
100	0x3c5473d9	0.012967073
101	0x3d09e971	0.033669893
102	0xbb4078a0	-0.0029368773
103	0xbd610d10	-0.054944098
104	0x3d82c10b	0.06384476
105	0xbd873dd2	-0.06603588
106	0xbd22917e	-0.039689533
107	0x3d557dba	0.052121855
108	0xbc43b585	-0.011945133
109	0x3c48169b	0.012212421
110	0x3a5002c6	0.00079349836
111	0x3dc8eb1c	0.098104686
112	0x3d323d4f	0.0435155
113	0x3d20e77e	0.03928327
114	0x3d162a31	0.03666133
115	0x3dc8c1bc	0.09802577
116	0x3c7df835	0.015501072
117	0xbd113cab	-0.035458248
118	0x3c9d1e7c	0.019179575
119	0xbd8946e7	-0.06702977
120	0x3c613387	0.013745195
121	0xbce60cbc	-0.028082244
122	0xbd6fb967	-0.058526423
123	0x3d64a2ec	0.055819437
124	0x3db2ff40	0.08740091
125	0xbc8c46d1	-0.017123612
126	0xbcc147d8	-0.023593828
127	0xbd9192a4	-0.071080476

fc4.weight f4 [2, 128]
0	0x3d26ddb3	0.040738773
1	0x3d1f51a6	0.038896225
2	0x3c023397	0.00794687
3	0x3e15bd37	0.14622961
4	0x398d22bf	0.00026919504
5	0x3c596bd4	0.013270337
6	0xbbd67b48	-0.006545458
7	0x3daba721	0.08381487
8	0xbda99a5d	-0.082813956
9	0x3d063fbe	0.032775633
10	0xbd157a7a	-0.036493756
11	0x3de86c39	0.11348767
12	0x3dd2151c	0.102579325
13	0x3dc17f12	0.09448065
14	0x3da7d426	0.08194761
15	0x3d19c912	0.03754527
16	0x3d8be3d7	0.068305664
17	0x3daac5cf	0.0833851
18	0x3e22fd99	0.15917052
19	0xbc5c6281	-0.01345122
20	0xbd8def14	-0.06930366
21	0x3ca21b96	0.019788545
22	0x3d61e597	0.055150595
23	0x3dc2ec82	0.095177665
24	0xbd630b96	-0.05543097
25	0x3cec7769	0.028865533
26	0xbca78bb0	-0.02045235
27	0x3ddd232d	0.10797725
28	0x3dff8b9d	0.12477801
29	0xbd487840	-0.048942804
30	0xbcbd680c	-0.023120902
31	0x3bb6cecd	0.005578852
32	0x3d966e95	0.073453106
33	0x3dcdd7e0	0.100509405
34	0xbc8889d9	-0.016667293
35	0xbc2e75e2	-0.010648223
36	0x3d4ac028	0.04949966
37	0x3d1a13be	0.037616484
38	0x3cf93018	0.03041844
39	0xbec5e51d	-0.38651362
40	0x3df0fa98	0.11766547
41	0x3c98674c	0.018603943
42	0xbd77413b	-0.060364943
43	0x3c22c5b7	0.009934834
44	0xbd3f1524	-0.04665102
45	0x3d9ef75c	0.07762024
46	0x3db4b910	0.0882436
47	0x3d1dbbcf	0.038509186
48	0x3d9beb52	0.07613243
49	0xbd8153be	-0.06314801
50	0x3dc4f247	0.09616523
51	0xbd3f949d	-0.046772588
52	0x3d6aedc0	0.057355642
53	0x3d38f847	0.04515865
54	0x3dbdba0b	0.092640005
55	0x3ce9e90d	0.02855351
56	0xbc8d3a4d	-0.017239714
57	0x3d8bd945	0.0682855
58	0xbd32bb5e	-0.04363572
59	0x3dc81a09	0.09770591
60	0x3db2c201	0.087284096
61	0xbac3d968	-0.0014942111
62	0x3d8aa140	0.06769037
63	0x3e1906e8	0.14944041
64	0xbd1aed1b	-0.037823778
65	0x3d4e3b0d	0.050349284
66	0xbda8c98b	-0.08241566
67	0xbcb8786a	-0.022518355
68	0x3d2ad12b	0.041703384
69	0x3d986d66	0.07442741
70	0x3d6a706c	0.05723612
71	0x3d9067b9	0.070510335
72	0x3d939dd0	0.07207835
73	0x3dbaf496	0.09128682
74	0xbbe50c35	-0.0069899806
75	0x3cbb7f9b	0.022887995
76	0x3d76a998	0.06022033
77	0x3c955013	0.018226659
78	0x3d53ddac	0.051725075
79	0x3e149bfc	0.14512628
80	0x3e4a2b99	0.19743194
81	0x3debfac0	0.11522436
82	0x3da3edf2	0.08004369
83	0x3de100b8	0.10986465
84	0x3db2e26f	0.08734595
85	0x3dbb05fc	0.09132001
86	0xbede72e4	-0.4344703
87	0x3d907f2f	0.07055508
88	0xbde39216	-0.11111848
89	0xbcc89e78	-0.024489626
90	0x3d1316c6	0.03591039
91	0xbce7b428	-0.028284147
92	0x3de4c841	0.11171008
93	0x3dc87ae3	0.09789064
94	0x3d04997d	0.03237294
95	0x3d8da5c1	0.06916381
96	0x3e1fe612	0.15615109
97	0xbd380344	-0.04492499
98	0x3d23d66b	0.039999407
99	0xbd80ee99	-0.06295509
100	0xbae4cc25	-0.0017455859
101	0xbe0a961b	-0.13533823
102	0x3e5f808b	0.21826379
103	0xbd924e4e	-0.07143842
104	0x3d9d9141	0.076937206
105	0xbd8a10ef	-0.06741511
106	0xbd3b0a51	-0.045664135
107	0x3dd06486	0.10175423
108	0x3bc84385	0.0061115646
109	0xbd899843	-0.06718495
110	0xbece7d77	-0.40330097
111	0x3d6c0e95	0.057631094
112	0xbd7aa92d	-0.061196495
113	0x3da7aad8	0.08186883
114	0xbe134cad	-0.14384718
115	0x3e03ec8b	0.12883203
116	0xbd6de04d	-0.058075238
117	0x3c9d3a41	0.019192817
118	0xbbc7120f	-0.006075151
119	0xbcb4f09a	-0.022087384
120	0x3db89c26	0.09014158
121	0xbdb1eed3	-0.0868813
122	0xb835b8ce	-4.3325876e-05
123	0x3da25416	0.07926194
124	0x3b8f08fc	0.0043650847
125	0x3a594fd0	0.0008289786
126	0xbd12fdc8	-0.035886556
127	0xbd687dcf	-0.056760605
128	0xbd784d2d	-0.060620476
129	0x3dc4c814	0.096084744
130	0xbd91681d	-0.07099936
131	0x3dd73e77	0.10509961
132	0x3c984cb8	0.01859127
133	0xbd826dc6	-0.06368594
134	0xbd8fa831	-0.07014502
135	0xbcd109cc	-0.025517367
136	0xbbc3844a	-0.005966698
137	0xbd055504	-0.03255178
138	0x3c8ff114	0.01757101
139	0x3d96c1ff	0.073612206
140	0x3c557cd1	0.013030247
141	0x3da7a1a8	0.0818513
142	0x3d8623a4	0.06549767
143	0xbd9ac3f5	-0.07556907
144	0xbd877125	-0.066133775
145	0x3d09994c	0.03359346
146	0xbdc7d19a	-0.09756775
147	0xbd09bd39	-0.033627722
148	0x3d3c4392	0.045962878
149	0x3da9ba85	0.08287529
150	0x3c9130d7	0.017723484
151	0x3d550c41	0.05201364
152	0xbc6222d9	-0.013802254
153	0x3daba1ad	0.083804466
154	0x3e075a4c	0.1321804
155	0x3e062c56	0.1310285
156	0x3d84aea9	0.06478626
157	0xbcbebe4c	-0.0232841
158	0x3c6db566	0.014508581
159	0x3db9e3c3	0.09076645
160	0x3d3d51b3	0.046220493
161	0x3d02d6eb	0.031943243
162	0x3cde3c5a	0.027128387
163	0xbd4184d7	-0.047245827
164	0x3daa84b0	0.083260894
165	0x3d83b34f	0.06430685
166	0x3cba328e	0.022729184
167	0xbe247d43	-0.16063409
168	0xbd22d76a	-0.039756216
169	0xbc655874	-0.01399814
170	0xbd79219c	-0.060823068
171	0xbd2b5222	-0.041826375
172	0x3c3c0901	0.011476756
173	0x3e035287	0.1282445
174	0x3c4d6af5	0.012537708
175	0x3d0ff2c2	0.03514362
176	0x3d91caa8	0.07118732
177	0x3d7c5318	0.061602682
178	0x3d96b444	0.07358602
179	0xbd61616f	-0.05502456
180	0x3d926e1a	0.071499065
181	0x3d97eb8c	0.07417974
182	0x3e048217	0.1294025
183	0x3de647b6	0.112441465
184	0xbd068cba	-0.03284905
185	0xbc391b82	-0.011298062
186	0x3cd3bd5b	0.025847128
187	0x3de0f831	0.10984839
188	0xbd4db898	-0.05022487
189	0x3d8e6f89	0.069548674
190	0xbca951c5	-0.020668874
191	0x3e18de7e	0.14928624
192	0x3b9f25cd	0.004856801
193	0x3dbbc9ee	0.091693744
194	0xbda6343b	-0.08115431
195	0xbd0ca768	-0.03433934
196	0xbd123468	-0.03569451
197	0x3deaa3e9	0.11457045
198	0xbd9766bd	-0.07392643
199	0x3d73de5b	0.059538227
200	0x3c708ace	0.014681531
201	0x3db2b74b	0.087263666
202	0x3de1e104	0.110292464
203	0x3dcdcb8a	0.100485876
204	0xbd5f6066	-0.054535292
205	0x3dc23bde	0.09484075
206	0xbd9d9ebd	-0.076962925
207	0xbca4a86b	-0.02009984
208	0xbe5e6e36	-0.2172173
209	0x3d9e9a36	0.07744257
210	0xbdab7369	-0.08371622
211	0x3dee5e40	0.116390705
212	0x3c889f19	0.016677426
213	0xbc802bed	-0.015645945
214	0xbe2ca2dc	-0.16859001
215	0x3da9973c	0.08280799
216	0x3d7dd9ee	0.061975412
217	0xbc9a762f	-0.018855182
218	0x3d8a88be	0.06764363
219	0xbd8b86ff	-0.06812858
220	0x3df6ba72	0.1204728
221	0x3cb7567a	0.022380102
222	0xbb8215b7	-0.003969874
223	0x3c295a92	0.010336535
224	0x3e179c5d	0.14805742
225	0x3c691a79	0.014227503
226	0x3dbbd79a	0.09171982
227	0xbda3d191	-0.07998956
228	0x3bf36c73	0.0074286996
229	0xbea807fd	-0.32818595
230	0x3dfa128c	0.12210569
231	0xbc0635a8	-0.008191504
232	0x3d323991	0.04351193
233	0x3d81808e	0.06323348
234	0x3d0e2252	0.0347007
235	0xbca5feb0	-0.020263046
236	0xbd7bbfcc	-0.06146221
237	0x3cb55d64	0.022139259
238	0xbebb6f1a	-0.366082
239	0x3e0a4496	0.13502726
240	0xbd8c6a79	-0.068562455
241	0x3d33de65	0.043913264
242	0xbf318650	-0.6934557
243	0xbd06448d	-0.03278022
244	0xbd8b460f	-0.06800472
245	0x3b0565b0	0.00203548
246	0x3e028cd6	0.12749037
247	0x3ce22731	0.027606579
248	0x3db3986f	0.08769309
249	0x3c9aede8	0.01891227
250	0xbd5be039	-0.053680632
251	0x3d1e77ab	0.038688343
252	0x3dee9485	0.116494216
253	0x3c8663de	0.016405042
254	0xbc6c9505	-0.014439826
255	0x3d9ec706	0.077528045

fc4.bias f4 [2]
0	0xbc8c8841	-0.017154815
1	0x3ca6a003	0.020339971
