models/cartpole_d3qn.pth (torch, 207692 bytes, 9 tensors)

ll_fc1.weight f4 [128, 4]
000000 4f bd e7 bd 00 e0 3a 3e 4b fd 23 bf b8 02 c0 be
       -0.113154046 0.18249512 -0.6405837 -0.37502074
000010 bb 3f ee bd 12 be 4a 3e 0b 00 e4 3e 91 a9 c8 3e
       -0.11633249 0.19799069 0.44531283 0.3919187
000020 3c 76 84 bd 04 99 e6 3d 34 19 09 be 50 51 a5 bd
       -0.06467864 0.11259654 -0.1338852 -0.0807215
000030 19 3a 0c bf e1 ad 99 be 42 a1 a4 be 8f 46 56 bc
       -0.5477615 -0.30015472 -0.3215428 -0.013078346
000040 78 90 8d 3e 0a c2 67 3e bb d5 27 bf 33 97 3d be
       0.27649283 0.22632614 -0.655605 -0.18514709
000050 32 61 c0 3d 15 d6 d1 3e 75 1d 6c be 2f 7e a8 3e
       0.093935385 0.40983644 -0.23058112 0.3290877
000060 dc a1 d0 bd 76 33 91 3b fd 02 01 3f 7c d7 01 bf
       -0.10187122 0.0044311834 0.50395185 -0.5071943
000070 c5 2c 8e be ba 9d 32 3c f4 4f e9 be 16 ff b5 3e
       -0.2776853 0.010901863 -0.45568812 0.35546178
000080 d0 f3 e3 be 71 23 8b be f6 df 97 be a6 ed ca be
       -0.44521952 -0.27175477 -0.29663056 -0.39634436
000090 a6 e8 b2 be ff 9e be 3e 8d b4 3f 3f 3d a4 a4 3e
       -0.34943122 0.3723068 0.74884874 0.32156554
0000a0 e9 da 7a 3d c2 4c 93 be 8e 8a 84 3e b2 28 e3 be
       0.061243925 -0.287695 0.2588696 -0.44366986
0000b0 35 f3 d5 be 51 92 6a be 18 79 22 3f 46 bd 89 3e
       -0.41787115 -0.22907378 0.63466024 0.26902217
0000c0 26 a3 99 be d2 14 0e 3d 5d a4 10 3f 9f 18 d8 3e
       -0.30007285 0.034687825 0.565008 0.42206284
0000d0 8b 68 45 3e fc cc 5f 3c b8 c2 49 3e 02 9c 6f be
       0.19278161 0.013659712 0.19703186 -0.23399356
0000e0 b8 c0 2f 3e 8d 56 a6 be 40 ef 07 bf a3 ea 7a be
       0.1716336 -0.32487908 -0.5309944 -0.2450357
0000f0 03 e1 95 3e 53 44 41 3e aa bd 05 bf d2 ba 88 3d
       0.29273233 0.1887372 -0.5224253 0.06676258
000100 32 58 48 3e 58 d3 39 bd 39 db c5 be f4 dc 9c 3d
       0.19564894 -0.04536757 -0.38643816 0.07659331
000110 8a 78 c5 3e 2e 35 db 3e 18 0a f5 be b9 00 1f be
       0.38568527 0.4281401 -0.47859263 -0.1552762
000120 af 1d b0 3d 2d 65 c3 3e 8c cb 6c 3f f0 fa ce 3e
       0.08599412 0.38163128 0.9249809 0.40425825
000130 73 db 39 3e 27 25 bd be 7a 23 08 be a2 71 a6 be
       0.1815012 -0.36942407 -0.13294783 -0.3250857
000140 c2 ae 0c bf dd ae ee 3e 64 d2 09 3f cf 04 f5 be
       -0.5495416 0.46617785 0.53836656 -0.4785523
000150 08 aa bf 3d c8 80 ac bd b8 82 a8 bd 1c 5f 6a be
       0.09358603 -0.084230006 -0.082280576 -0.22887844
000160 ec a3 f6 3d 4e a0 8c be f6 74 ed 3e 80 d3 6c 3e
       0.12042984 -0.27466053 0.46378297 0.23127556
000170 38 d9 bd 3e 59 58 07 3e ec 1a 20 bf b8 0d 9c be
       0.37079787 0.13217296 -0.6254108 -0.30479217
000180 90 00 90 3e da 7b 29 3c be f6 26 bf e4 c1 84 be
       0.2812543 0.01034447 -0.6522025 -0.25929177
000190 7e cc 09 3f a1 84 8e 3e b8 7a 79 be 78 7a 87 bd
       0.53827655 0.27835563 -0.2436322 -0.06615156
0001a0 9d f5 b1 be 07 19 2b bd 04 04 1f bf 0c 6d cd be
       -0.347577 -0.041771915 -0.621155 -0.4012226
0001b0 cd 1e 2b bc 9e 44 c0 3d 2d 56 17 bf a9 ea 88 3e
       -0.010444355 0.09388088 -0.5911587 0.26741531
0001c0 50 8a c2 be cc df 01 3f bc e2 0c 3f 0b 65 bb be
       -0.3799615 0.5073211 0.5503347 -0.36600527
0001d0 99 6c fa bd a9 80 99 3d 79 4d be 3e 33 ef 3b 3d
       -0.122277446 0.07495243 0.37168482 0.045882415
0001e0 b0 15 e4 3d 85 91 56 3d 22 b9 0a bf 6b 26 7f 3e
       0.11136949 0.052384872 -0.5418874 0.24916999
0001f0 97 e6 1b bf 6b 29 c3 be c9 48 cf bd 7d c9 47 be
       -0.6089873 -0.38117537 -0.101213045 -0.19510455
000200 0d b0 04 bd c3 62 69 be 42 c5 4f be 7e ed 9d bd
       -0.032394458 -0.22791581 -0.20290092 -0.07711314
000210 87 cc dd be f4 08 08 bd 91 af a0 3e 10 2c 8b bd
       -0.43320104 -0.033211663 0.31383947 -0.06795514
000220 f9 40 55 bd ba 2f 76 bc 5e 88 c8 3e 99 ec 99 3e
       -0.052063916 -0.015026027 0.3916654 0.30063322
000230 f0 8a b2 3e e8 fb a4 3e 36 a0 0b 3f 89 c5 24 bd
       0.34871626 0.3222344 0.5454134 -0.040227447
000240 72 e9 f3 be e9 ce 4a be c8 49 40 3f 4c 88 33 bc
       -0.47639042 -0.19805492 0.7511258 -0.010957789
000250 9d 57 68 be 4e ae cc be 25 b3 4a bf bf 8a d2 be
       -0.22689672 -0.39976734 -0.791796 -0.4112148
000260 df f7 11 be 63 31 83 3e e8 0d cd 3e 29 9d de be
       -0.14254712 0.25623617 0.40049672 -0.4347928
000270 2e b0 9f 3e 8a 52 c8 be f0 7b d8 bd 1c 9a 4f be
       0.31189102 -0.39125472 -0.10570514 -0.20273632
000280 9e 65 44 be a5 1c 14 be bf 19 6b be 2c d9 df be
       -0.19179389 -0.14464052 -0.2295904 -0.43720376
000290 4d 15 28 be 1c a7 ad bc 86 47 fb 3d f8 1b 61 3e
       -0.16414376 -0.021197848 0.122695014 0.21983325
0002a0 d6 94 d2 be 5a cf e5 bd 83 1b 48 3f 9f e4 17 be
       -0.41129178 -0.1122119 0.7816698 -0.14833306
0002b0 c1 e8 97 3e 80 5f 44 3e b0 77 2a bf d4 97 ad 3e
       0.29669765 0.19177055 -0.6658888 0.33904898
0002c0 5b 86 f6 3d 1f 79 be be d4 74 14 3e 0b ee b8 be
       0.12037345 -0.37201783 0.14497691 -0.36119112
0002d0 a4 eb d7 3d 75 66 4a bd f5 86 4f 3f 94 68 f7 3d
       0.10542992 -0.049414117 0.81065303 0.120804936
0002e0 5c e8 51 3e da 2e 1c 3e fd 6e 2e be 15 25 e2 bd
       0.20498794 0.15252247 -0.17034526 -0.11042229
0002f0 de 5e c1 be c0 1e a4 3e 93 45 4d 3f 90 ae 99 3e
       -0.3776769 0.3205471 0.80184287 0.30015993
000300 44 67 3d be 6b 5a 43 3c 6b ed 1e bf a9 28 a0 be
       -0.18496424 0.011923413 -0.6208102 -0.3128102
000310 30 2c 95 be 34 f9 2e 3e c4 8d 98 be 00 ba 32 bc
       -0.29135275 0.17087251 -0.2979566 -0.010908604
000320 20 20 65 bd 87 69 2a 3e 12 34 25 bf b2 4f a8 be
       -0.05593884 0.16641818 -0.6453258 -0.32873303
000330 12 f4 a5 be e9 7e cf 3e 2f 15 af be 72 0e b6 3e
       -0.32412773 0.40526512 -0.3419585 0.35557896
000340 5f 3c 63 3e 9f 39 bf 3d 65 1d cc bb 6d 6d a9 bd
       0.22190998 0.09337162 -0.00622909 -0.082728244
000350 3d 8b 01 3c 02 66 01 be 33 74 eb 3d f8 03 1c 3d
       0.007906732 -0.12636569 0.114967726 0.038089722
000360 df 07 0b bf 5b 4f 94 be 08 ee 0b 3f ae 6c be be
       -0.54308885 -0.28966793 0.5466008 -0.3719229
000370 5f fb 25 be 2e ed fa 3e 8c 84 3b 3e f2 8a 45 bd
       -0.16209172 0.4900908 0.18312281 -0.04822821
000380 9a 79 0b bf c2 fd 43 3e 41 82 04 be 5d ca ab bd
       -0.54482424 0.1913977 -0.12940313 -0.08388207
000390 10 da f9 bd 6d 56 c6 bc 66 65 6b be 19 43 c6 3e
       -0.12199795 -0.024211133 -0.22987899 0.38723066
0003a0 31 2a 9c bd 35 70 98 3e 85 87 4e 3f f2 fd 63 be
       -0.07625235 0.29773107 0.80675536 -0.22264841
0003b0 ce 90 82 3e 9c d7 a1 be 8b 21 13 bf 03 ca c8 3d
       0.25501102 -0.3160981 -0.5747306 0.09804156
0003c0 e9 bc b3 bc 68 d5 9d 3e 5a 59 60 be d5 1e bf bd
       -0.021940665 0.3082688 -0.21909085 -0.093320526
0003d0 7a cb 83 3e 5a 93 f7 be 42 15 b9 3e 30 b1 d3 be
       0.25741178 -0.48354608 0.3614903 -0.4134612
0003e0 8a 9e 5f bc 0e 1a a7 bd 81 f5 07 bf 4a fa 98 3d
       -0.0136486385 -0.081592664 -0.53108984 0.07469614
0003f0 e8 f0 af 3e 77 90 15 be f2 4e fb be 4c 96 41 be
       0.34363484 -0.1460589 -0.49083668 -0.1890499

ll_fc1.bias f4 [128]
000000 c8 ec 13 be 10 e2 1c be 76 87 0a 3e e8 a1 05 3e
       -0.14445794 -0.15320611 0.13528237 0.13050044
000010 58 31 2c be 0a 63 e3 3b cd a1 7f 3e 57 cd ec bd
       -0.16815698 0.0069392966 0.24964066 -0.11562603
000020 8c ae f2 3d f5 7f d1 bd d3 31 3d 3e a8 a0 b8 be
       0.118496984 -0.10229484 0.18476038 -0.3606007
000030 af fa b2 be 6a 4c ae be c9 c2 01 3f f2 ef a2 bd
       -0.3495688 -0.34042674 0.50687844 -0.07955922
000040 3d fe 0f bd 72 e7 55 be a9 cc 02 3f 4b da 04 3f
       -0.03515457 -0.2088907 0.51093537 0.5189559
000050 38 63 9f be 10 88 cf be 25 14 c1 be f8 9c 26 3c
       -0.31130385 -0.40533495 -0.37710682 0.01016926
000060 6b f8 74 be a8 39 c1 be 20 ad 16 be b6 f4 a9 3d
       -0.23922889 -0.377393 -0.1471448 0.08298628
000070 61 f6 61 be aa 11 e7 3d be db a8 bd d7 a7 25 be
       -0.22066642 0.11282666 -0.082450375 -0.16177307
000080 b6 fb ac bc 28 51 c9 3e fa 44 ac be ed c2 b4 3c
       -0.021116119 0.3931973 -0.33646375 0.022065604
000090 44 a1 22 be 8e 63 f6 3e bd 13 07 bf d2 6a f5 be
       -0.1588183 0.4812283 -0.52764493 -0.4793306
0000a0 0a 82 d2 3e f9 4a 9d be 02 c2 35 3e 0f 12 48 3d
       0.41114837 -0.30721262 0.1774979 0.048845347
0000b0 2d 07 17 be 18 14 df bd 18 e5 9f 3e d5 54 a1 3b
       -0.14748831 -0.108925045 0.31229472 0.004923443
0000c0 97 93 01 bf d8 21 97 be 9c 9c 7d be 15 c1 8d 3e
       -0.5061583 -0.29518008 -0.24766773 0.27686372
0000d0 83 9b 91 be 65 f4 f4 3e 02 45 ef 3c ee fd e1 bd
       -0.2843896 0.47842708 0.02920771 -0.11034761
0000e0 d2 ca cd 3e a4 85 89 3e 69 48 d2 3e c6 f1 93 3e
       0.40193802 0.26859772 0.4107087 0.28895396
0000f0 ea 8e 54 be 54 d9 a9 be 3f 2e a7 bc ea ce dd 3e
       -0.20757642 -0.3317362 -0.020407794 0.43321925
000100 69 76 2c be 70 38 d7 be f9 9b 66 3e b7 fb f7 3e
       -0.16842045 -0.42035246 0.22520436 0.4843423
000110 5c 0f 2f bd 74 53 d9 be 14 88 de be 88 62 17 3e
       -0.042739257 -0.42446482 -0.43463194 0.1478368
000120 29 85 55 bd 89 d9 5b be e1 ab aa 3d fe 83 55 3e
       -0.052128945 -0.21469702 0.083335645 0.20851132
000130 1f cc cf 3e 78 97 d1 3e 4f c7 9b bd 7e bb e1 be
       0.4058542 0.40935874 -0.076063745 -0.44088358
000140 d8 53 e7 be f4 fa e3 3e f8 63 92 3e 64 db 71 3e
       -0.45181155 0.445274 0.28591895 0.23618847
000150 51 0b 11 bf cc 7c dc 3e 9f e7 f7 3e 1c 3a f6 3e
       -0.5665789 0.43063962 0.484189 0.4809121
000160 30 f5 d7 be 24 0b 55 be bf 82 96 be 28 fb f6 3e
       -0.4217925 -0.20805031 -0.29396626 0.48238492
000170 ff 21 7e be 7f 2e 23 be 21 59 81 3e 02 fd a2 be
       -0.24817656 -0.15935706 0.25263312 -0.31833655
000180 04 1c 40 be 12 46 80 bd fc c7 37 bd 06 62 bd be
       -0.18760687 -0.06263365 -0.044868454 -0.36988848
000190 12 f2 da 3e 71 e6 3e be 28 44 42 3e 1c dc e8 3e
       0.4276281 -0.18642594 0.18971312 0.4548043
0001a0 9e a5 6d 3e f2 db 8a 3d 26 fe d5 3e 28 0e a1 3d
       0.23207709 0.067802325 0.41795462 0.07864028
0001b0 0c 29 6b be 66 a3 e5 3e 62 39 dc 3d 38 c6 f9 be
       -0.22964877 0.44851226 0.107531324 -0.4878404
0001c0 4f 06 29 be b0 16 cd be 08 06 d2 3e b9 f6 4c bd
       -0.16506313 -0.40056372 0.41020226 -0.05003998
0001d0 f4 1e 02 bf 1d 46 c4 bc 8f 92 98 3e 93 6d 0f 3e
       -0.5082848 -0.023959214 0.29799315 0.14006643
0001e0 e9 3f 1b 3e 80 95 0a 3d 9f 04 4d 3e 76 89 1f be
       0.15161099 0.03383398 0.20021294 -0.15579781
0001f0 fd bf 81 be 0e 49 ef be 09 d6 b9 be d2 e6 70 3e
       -0.25341788 -0.46735424 -0.36296108 0.23525551

ll_fc2.weight f4 [128, 128]
000000 c7 e9 fc bd bb 3a 3c bd 44 4e 39 3d b5 d1 30 bd
       -0.12349277 -0.045954447 0.045240656 -0.043168742
000010 ee 47 eb bd 08 fa 5e 3d 5f 92 96 3c 44 ad 25 bd
       -0.11488329 0.054437667 0.018380342 -0.040448442
000020 66 aa 09 be af 27 35 be 4f 40 b9 3d 3d 1a a6 bd
       -0.13443908 -0.1769092 0.09045469 -0.08110473
000030 b9 b2 14 39 8e ef 9e bd 0a c3 92 bd 90 55 a3 bd
       0.00014180959 -0.07760535 -0.07166107 -0.07975304
000040 bd b9 3e bd ce bf 81 3d b0 e5 80 3b f1 3b 92 3d
       -0.046563853 0.06335412 0.003933631 0.07140339
000050 18 ad 08 bd 6c 06 9d bc 58 23 18 3d 94 80 e8 bd
       -0.0333682 -0.019168101 0.03714308 -0.11352649
000060 11 eb 4c bd 34 70 c5 3d f1 57 b5 bd d3 ae db bc
       -0.050028864 0.09640542 -0.08854664 -0.026816761
000070 a2 a6 64 bd 6d d9 d6 3d ff 80 88 be c2 53 38 3e
       -0.055822976 0.104906894 -0.26660916 0.18000701
000080 21 66 34 bd 06 86 b4 3d 2f 6a 61 bd 64 8d 08 3e
       -0.04404271 0.088146254 -0.055032905 0.13335186
000090 55 b2 b8 3c a9 f0 d5 3b 8f 9b 1b 3d 77 ea c3 bc
       0.022545973 0.006528933 0.03799015 -0.023915512
0000a0 bc c9 cc 3d 2e 90 49 be 8c da 06 3e 4b f3 00 be
       0.09999415 -0.19683906 0.13169307 -0.12592809
0000b0 52 5e 59 bc fc cc 16 3e f3 7d bb 3c 25 47 03 bd
       -0.013267117 0.14726633 0.022887206 -0.03205027
0000c0 d1 dd 08 be 32 98 d8 3c 09 9d e5 bc 24 22 97 bd
       -0.13365866 0.02643976 -0.028028982 -0.07379559
0000d0 1c 2d 73 3d 0a 80 e7 3d b2 b0 da 3d f7 ec 55 bd
       0.05936919 0.113037184 0.10678233 -0.05222794
0000e0 c5 51 b4 3d 24 e2 a6 bd 72 d9 bf 3d 88 dd 95 bc
       0.08804659 -0.08148602 0.09367646 -0.01829411
0000f0 0b 8b 10 bd da 1e fc 3c df 21 48 be e3 d0 0b 3d
       -0.03528885 0.03077643 -0.19544171 0.034134757
000100 69 cc c8 bd 62 d9 8b be 28 8f 26 bc a5 bf dd 3d
       -0.09804613 -0.27314287 -0.010165967 0.10827569
000110 84 de df bd c2 22 33 bb da 62 bb bd 96 38 db bb
       -0.10931113 -0.002733395 -0.09149714 -0.006690095
000120 17 99 43 be 9e 5b 4b be 03 ce 01 3e 05 ce 8a bd
       -0.19101368 -0.19859168 0.12676243 -0.06777576
000130 96 b5 a1 3c 3c 33 4e 3c de 6d 08 bc cd 7e 9a 3d
       0.019739907 0.012585457 -0.008326976 0.075437166
000140 4e cf 92 3d 2b 2e d1 3a be 8b 81 bd 45 92 83 bd
       0.071684465 0.0015959194 -0.06325482 -0.06424383
000150 e9 d6 b5 bc 6f d3 5e 3d e7 a8 f5 3d 50 49 8e bd
       -0.022197204 0.054400858 0.11995106 -0.06947577
000160 80 1b 5b 3d f5 84 54 bd 4a cc eb bd 7d de f2 3d
       0.053493023 -0.05188461 -0.115135744 0.118588425
000170 ce c8 07 be 9b b8 aa be 66 ea e3 bb 92 51 6a 3d
       -0.13260195 -0.33343968 -0.0069554327 0.057206698
000180 7a 2e a4 3b 02 d5 aa bd f7 c8 b2 bd 72 79 53 be
       0.0050104233 -0.08341409 -0.08729737 -0.20651796
000190 58 d7 9f bd cf fb 63 bc 00 d9 93 3d d5 5c 84 bc
       -0.078047454 -0.013915016 0.07219124 -0.016157547
0001a0 b4 87 de 3c f8 f0 c5 3d f4 4d c6 3d f7 f7 a3 be
       0.027164318 0.09665102 0.09682837 -0.3202512
0001b0 5d a1 0e be 28 39 84 3d 3c bb e1 bd 50 2d 19 38
       -0.13928743 0.06456214 -0.1102204 3.6520243e-05
0001c0 14 2f 52 3c 8c e0 b4 3c d2 6b cd 3c 7c 40 41 3b
       0.012828607 0.022079729 0.025075827 0.0029487899
0001d0 ac 42 05 bd 28 df 0c 3d a7 58 ac 3c 39 29 0c be
       -0.032534286 0.034392506 0.021038366 -0.136876
0001e0 b1 a7 39 bd 2a 2a d8 3d 94 85 bf bd 22 c3 81 3e
       -0.04532594 0.10554917 -0.0935165 0.25344187
0001f0 93 0c da bc 1f a6 7d bd ff 61 2d bd f1 7f 51 3d
       -0.026617324 -0.061926004 -0.042329784 0.051147405
000200 0e 4c b3 bd 7b f6 a9 bd ef 35 4d 3d d3 50 4e bd
       -0.08754741 -0.082989655 0.050100263 -0.05037005
000210 38 4c b3 3d 41 21 43 3d 59 2e 77 3d e1 c3 a4 bc
       0.08754772 0.047639135 0.060346935 -0.020112934
000220 02 e2 b3 3d e3 ac 0a bf 27 94 d9 3d 90 a7 00 be
       0.08783342 -0.54170054 0.10623961 -0.1256392
000230 c1 5e d5 bd 14 60 58 3d f1 8b ae 3d b4 14 d4 bc
       -0.104184635 0.052826002 0.085227855 -0.025888778
000240 13 00 75 bb 57 21 21 bd 81 3d f5 bc d9 0d 52 bd
       -0.0037384077 -0.039338436 -0.029936554 -0.051282737
000250 31 3e d1 3c 3d 0f 80 3c e7 5f 24 bd f3 34 41 3d
       0.02554235 0.015632266 -0.040130522 0.047169637
000260 4b 4e 82 3d 41 63 f4 ba 97 a7 c3 bd da 79 3f 3d
       0.063625894 -0.0018645303 -0.095534496 0.046747066
000270 f1 41 f5 3b 11 64 80 bd 0e d4 97 3d db 4a 11 be
       0.0074846675 -0.06269086 0.07413493 -0.14188711
000280 2e de 6f 3d 2e 17 15 bd ac 7c 88 3c c2 a1 47 bd
       0.058561496 -0.03639906 0.01666101 -0.04873825
000290 a7 77 19 be 0e 95 0f 3e 52 dc 27 3d 20 b7 51 bd
       -0.1498705 0.14021704 0.0409816 -0.051200032
0002a0 c7 43 05 3d 00 d8 de bc a4 56 ea bd 96 53 8b 3d
       0.03253534 -0.027202606 -0.11442307 0.06803052
0002b0 ab b1 5d bc c6 93 7e be 1d 7f 04 3d fe 56 35 bd
       -0.013531129 -0.24861059 0.032347787 -0.044272415
0002c0 25 03 77 be b3 5c 96 3d 3a c8 3e bd 92 b4 ad 3d
       -0.24122293 0.073419 -0.04657767 0.08481707
0002d0 c4 8a 95 3d 01 b9 eb bb 69 b4 ae 3c 1f ff 33 bc
       0.07301858 -0.007193685 0.02132626 -0.010986119
0002e0 6f 33 d9 3c fb 43 89 3c 3c 07 85 bb 02 05 f5 3c
       0.026513783 0.016756048 -0.0040597003 0.029909614
0002f0 3a 9b 3e 3c a3 44 5a 3b fb e8 20 3e 9f 99 29 3d
       0.011633689 0.003330507 0.15713875 0.04140627
000300 dc 4d 27 bd 8b b7 b0 be 75 a8 d1 bc ac 0e 6f 3d
       -0.040845737 -0.34515032 -0.025593022 0.0583636
000310 97 83 f1 bb 07 d3 58 bd 19 3e d3 bc 9e d1 2f 3d
       -0.007370423 -0.052935626 -0.025786446 0.042924516
000320 25 a6 26 3d b0 31 40 bc a5 8e 88 3d f5 2f 01 3e
       0.04068579 -0.011730596 0.06667832 0.1261595
000330 87 ec 5f 3d a4 56 83 3d bb 95 19 3d 87 94 85 3d
       0.05466893 0.0641301 0.03749631 0.0652247
000340 8e 48 85 3b 4b 5c b8 bb 36 c7 04 3d 21 8e e3 3d
       0.004067487 -0.0056262366 0.032416545 0.11111093
000350 ca 24 ec bd fc ca 39 bd 67 01 34 3d e7 bc 28 bd
       -0.115304545 -0.045359597 0.04394665 -0.041195776
000360 65 bd b9 3a d4 3d 52 bd 2f 4a ac 3d 46 34 9c bd
       0.0014170824 -0.051328495 0.08412587 -0.07627158
000370 ca 5d 51 3d 06 00 57 be 64 bb 93 bb 03 da 4d bd
       0.051114835 -0.20996103 -0.0045084227 -0.05025674
000380 04 ad c7 3d fc b9 57 3c 58 83 0c 3d 40 fe ed 3b
       0.09749797 0.013166901 0.034304947 0.007262975
000390 b7 79 c9 3c 11 30 dc bc 79 13 53 3d d9 e6 37 3d
       0.024594171 -0.026878389 0.051532242 0.044897888
0003a0 52 47 84 bd 25 e3 aa bc 1c d8 41 3d 28 ec 89 3e
       -0.06458916 -0.020860264 0.04732524 0.26937985
0003b0 d2 0d 6e 3d e4 0f 75 3d d4 7d 3c bd 07 99 b4 bb
       0.05811865 0.059829608 -0.046018437 -0.0055114063
0003c0 13 7f 11 bd e0 1b 14 be aa c5 ed bc 4d 3d c2 3d
       -0.035521578 -0.14463758 -0.029024918 0.094843484
0003d0 b0 42 57 3b e6 8b f4 3c 27 70 54 3d 0d 98 e6 3c
       0.0032846145 0.029851865 0.05186477 0.028148675
0003e0 5f 63 35 3d 4b 71 3d bc 7e 77 86 3b ef fd bf bd
       0.04428422 -0.011562656 0.0041036 -0.09374606
0003f0 bd 1b da 3b c0 b5 7e 3d 05 ca 94 bd 16 df b2 3d
       0.0066561387 0.06218505 -0.07265095 0.087339565

ll_fc2.bias f4 [128]
000000 d3 5e b7 3c b0 35 e6 3d ab 64 5c bd f5 c1 4e 3c
       0.022384083 0.11240709 -0.053806942 0.012619485
000010 52 93 8a 3c 97 03 a0 bc 6e 8b 3b 3d d0 2e d1 3d
       0.01691595 -0.019532962 0.045787267 0.10214007
000020 40 c6 d2 3d c6 2f ba 3d 2d 84 34 3d 54 80 4a bd
       0.102917194 0.09091143 0.044071365 -0.04943879
000030 8d 6e d9 3d 25 20 08 bd 3a 01 c8 3c 7b 38 65 bd
       0.10616789 -0.03323378 0.024414647 -0.055962067
000040 da c9 25 3d 2e 44 3a 3b 7a fc 3d bc dd b7 93 bd
       0.040475704 0.0028421986 -0.01159584 -0.072128035
000050 fb 7c af 3c 19 1f a6 bc 74 67 62 bd c3 73 c5 bd
       0.0214219 -0.0202785 -0.05527444 -0.096412204
000060 34 17 d6 3d 3f ab 34 3d 8b 25 7b 3c 16 6d ac 3d
       0.104536444 0.044108626 0.015328775 0.08419244
000070 8d d6 5c 3c 67 6b 3e bc a1 51 96 bc 73 00 a8 3d
       0.013478887 -0.011622286 -0.01834947 0.08203211
000080 4d b1 c7 3b 47 d9 94 bb ae 7a ab bc fc 78 d4 3d
       0.006094134 -0.004542503 -0.020932522 0.103746384
000090 62 9b b0 bd 20 4c 80 3d 76 5e fd bc f7 4e c5 3d
       -0.08623387 0.0626452 -0.030928832 0.09634202
0000a0 c3 25 3f 3d 3f f7 65 bd 09 e8 f1 bc 59 bd 65 bc
       0.04666687 -0.056143995 -0.029529588 -0.014022195
0000b0 28 09 2a 3d b7 48 2f 3d 59 db 91 bc ea db 18 bd
       0.04151264 0.042793956 -0.017804788 -0.0373191
0000c0 bb b3 cf bd 96 76 f7 3c c0 35 f8 3d 1c 95 05 bd
       -0.10141703 0.030207913 0.12119627 -0.032612905
0000d0 7e d0 7c 3b ca cc bd 3d b4 fa 68 3d e2 6e 6e bd
       0.003857642 0.09267576 0.056879714 -0.058211215
0000e0 1b 0b 2c bd 55 ca f9 3d 70 c5 d6 bc cb 38 9e 3a
       -0.04200278 0.12196795 -0.026217192 0.0012071369
0000f0 0c 8f fe bd ff 95 b0 3d 0e f8 61 3c 37 5a f4 bc
       -0.12429628 0.086223595 0.013792051 -0.029828174
000100 d2 22 34 bd 08 c9 2c 3d 7f 5f 20 bd c2 f2 7a 3b
       -0.04397852 0.042183906 -0.039153572 0.0038291668
000110 7f 88 86 bd 7f c9 f2 3d eb 6c 59 3d cf c4 65 bc
       -0.06569003 0.118548386 0.053082388 -0.014023974
000120 be b1 86 3c e5 07 75 3d 90 0b 2c bd 59 7a ba 3d
       0.016442176 0.059821982 -0.042003214 0.09105367
000130 01 30 7a 3c e3 25 1a 3d 8b a0 11 3c 88 08 58 bd
       0.015270234 0.037633788 0.008888374 -0.05274251
000140 3c 4b 10 3d fe b2 09 3e 3d 51 a3 bc 30 d1 1b bd
       0.035228 0.13447186 -0.019936198 -0.038041294
000150 df 60 8b 3c 13 1d 95 3d 3f b8 ce bc 8d 6e 7d 3c
       0.017013965 0.07280936 -0.02523434 0.015468252
000160 69 2c 5d 3d c1 ad 9d bb 05 35 b9 bd fe 7b cb 3b
       0.05399743 -0.004811973 -0.09043316 0.0062098494
000170 fd bf 19 bc ae 0c 94 3d 6d 39 d0 bd 5c 5b bc 3d
       -0.0093841525 0.07228981 -0.10167203 0.09197113
000180 e0 4c d0 bc 87 54 a6 3d de 44 f0 bc 7c 68 b1 3d
       -0.025427282 0.08121591 -0.029329713 0.08662507
000190 ed 43 dc 3c c4 7e 78 3d 13 55 b3 bd 27 6a 44 bc
       0.026887858 0.060667768 -0.08756461 -0.011988199
0001a0 8b 4e 87 bd 27 91 43 3d c1 f1 bd bc 53 ef 86 3d
       -0.06606778 0.04774585 -0.023186566 0.06588616
0001b0 e2 c3 b6 bd b9 e2 c4 3d 2e 1a fd bb bb 04 b8 bd
       -0.089240804 0.096135564 -0.007724068 -0.08985277
0001c0 d3 fa 0b 3d fa 8d ab bd a2 52 ea 3c c4 b9 ff 3d
       0.03417475 -0.08376689 0.028603856 0.12486604
0001d0 ac 36 00 bd 19 21 b6 bb 73 c7 a6 3d f8 d4 28 3d
       -0.03130214 -0.0055581448 0.08143511 0.041218728
0001e0 9b 4d e0 bc 1b 18 0b 3d 32 c6 b6 bd 09 e1 2d bd
       -0.027380755 0.033958536 -0.089245215 -0.04245094
0001f0 58 54 61 3d e2 a9 a7 3c 5e d1 dc bc b4 fd 8e bd
       0.055012077 0.020466749 -0.026955303 -0.06981984

sl_fc3.weight f4 [256, 128]
000000 9b c0 ac 3d 57 41 54 3c 91 6d b2 3b 7f 0d a1 bd
       0.08435174 0.012955031 0.0054451902 -0.07863902
000010 23 27 9f ba d6 6f 38 bd 92 d0 95 bd 9e 80 63 3d
       -0.0012142401 -0.04502853 -0.07315172 0.05554258
000020 3d 2b 79 3d 8c 92 b8 3d 00 bd 4d 3d c0 a5 a8 3d
       0.06083225 0.090123266 0.050229073 0.08234739
000030 89 4e be 3d 60 5e 2f 3d 0d 92 9d 3d d8 1f 05 3d
       0.09292323 0.042814612 0.076938726 0.03250107
000040 a2 10 9a 3d d6 d1 96 bc 4c 96 39 3d b6 62 59 3d
       0.07522704 -0.018410604 0.04530935 0.053072654
000050 5c 37 9a bd 84 53 a4 3d e3 bd 81 3c 17 ce 9c bc
       -0.0753009 0.08023742 0.015837615 -0.01914124
000060 3e 73 3e bc 82 b3 13 bd 52 70 24 3d 31 84 31 3c
       -0.011624156 -0.036059864 0.04014618 0.01083474
000070 9b a6 ae 3c 04 a6 c4 bb a3 8b b8 3b 9c ea ce 3d
       0.021319678 -0.006001236 0.0056318804 0.10103342
000080 45 a2 b2 bd 1d 57 23 bc b4 1f 47 3d f7 f6 86 3d
       -0.08722357 -0.0099695 0.04861422 0.065900736
000090 5b f2 ca 3c 04 a8 5d 3d 87 a2 6b bd ab 20 25 bd
       0.024773767 0.05411531 -0.057528045 -0.040314358
0000a0 bb 26 21 bd 4d 35 93 3d 7a fe c0 3d 9d c0 6b 3d
       -0.039343577 0.07187901 0.094235376 0.057556737
0000b0 7f 19 04 3e 07 de 90 bc ee cd a9 3d 9c bc 45 3d
       0.12900351 -0.017683996 0.08291231 0.048275575
0000c0 b6 14 a3 3c 2b 7b 83 bb 50 d3 7a 3c d6 07 01 be
       0.019907337 -0.0040124855 0.01530917 -0.12600645
0000d0 7e ed bd 3d b6 cc b1 3d a4 82 40 bd fc d7 2b bd
       0.09273814 0.08681624 -0.04699959 -0.041954026
0000e0 d3 26 80 3c 5d b7 48 bd 4a 09 05 3d 8c 13 1b ba
       0.015643513 -0.049002994 0.032479562 -0.00059156935
0000f0 6a 57 9d bd f8 c4 40 3d 1b 68 a5 3d b6 fe 36 bd
       -0.076826885 0.047062844 0.08076497 -0.044676505
000100 a7 87 ec bc 60 a4 b5 3c 85 c8 29 3d 9e 7e 8a 3d
       -0.028873278 0.022173107 0.041450996 0.067624316
000110 b4 0d 90 bd b2 00 44 3d d6 c2 23 bd 24 ab 8d bd
       -0.07033864 0.047852226 -0.039980732 -0.06917408
000120 46 91 08 bd 9d be 54 bd 73 35 d9 3d 98 af 40 3c
       -0.03334167 -0.051939595 0.10605898 0.011760615
000130 0c 83 6a bc 71 77 48 3d f8 03 5b 3d 1d 83 6e 3c
       -0.014313471 0.048942033 0.05347058 0.014557627
000140 eb 46 ac 3c db fc 06 3d 12 d4 ac bc a7 7f 01 3e
       0.02102991 0.032955986 -0.021097217 0.12646352
000150 9e 94 d1 3d 41 97 f3 3c 6f 54 b3 3d 2f 86 ba 3d
       0.102334246 0.02973521 0.08756339 0.09107625
000160 80 d4 31 bd 3f 6e 9a bc 2e 28 5c 3c 1e d1 ad 3b
       -0.043415546 -0.018851398 0.013437314 0.0053044697
000170 4f b6 4e bc cb 00 4b 3d 9f c4 91 bd cf d5 11 bd
       -0.012616708 0.049561303 -0.071175806 -0.035604294
000180 1a 15 e1 be 4c a2 a1 3d e2 2f 79 3d e6 fd dd 3d
       -0.43961412 0.07892284 0.06083668 0.10839443
000190 78 b2 c6 3d a2 b1 6a 3d ba b7 68 3c f0 ce 55 bc
       0.09702009 0.05729831 0.01420396 -0.013049826
0001a0 dd de f2 3c 2a 34 bf be cf 02 d7 3d 04 99 6d 3d
       0.029647285 -0.37344486 0.104985826 0.058007255
0001b0 4f 27 9e bb 6b 42 c7 3b f9 9b 03 3e 54 74 41 3d
       -0.0048264633 0.0060809157 0.12852468 0.04723008
0001c0 6b 2f 04 3e 29 f6 44 bd 5d e1 1d bf 93 eb 2f bd
       0.12908714 -0.04808632 -0.61672 -0.04294927
0001d0 f2 ca eb bc 51 ad fc 3a fe 2a 0b 3e d7 ac b2 3c
       -0.028783295 0.0019277727 0.13590619 0.021810932
0001e0 74 e5 a0 bd 4a 21 d2 bb e5 d0 c6 3c 81 52 c7 3c
       -0.07856265 -0.00641266 0.02426953 0.024331333
0001f0 92 ca 71 3c d4 c9 40 bd 97 6c 8d be 25 a4 bf 3d
       0.014757769 -0.04706748 -0.2762191 0.0935748
000200 6e 8e 05 39 da fa 33 3c 67 31 81 3d 15 12 21 be
       0.00012736928 0.010985101 0.06308251 -0.15729554
000210 50 36 9f bd c1 29 68 bd 92 4e 81 3b b7 2f a0 3d
       -0.07774031 -0.056680445 0.003946134 0.07821601
000220 bf 12 85 3d 43 5f af bc ae 80 e5 3b 6d 1b 5c ba
       0.06497716 -0.021407729 0.007003865 -0.0008396421
000230 d7 a9 a5 3d 31 d3 59 bd 9a 61 85 3d 74 1a 40 3d
       0.08089035 -0.053179923 0.06512757 0.046900228
000240 31 48 82 3d bf 74 84 bd a2 4b dc bc da 7c 35 bd
       0.06361426 -0.0646758 -0.026891533 -0.04430852
000250 69 14 45 bd a5 3d 47 bd 47 27 a6 3c ff 98 bd 3d
       -0.048115168 -0.048642773 0.0202824 0.09257697
000260 87 fb b8 3d ad 49 50 bd e6 f8 e3 ba 52 dc d5 ba
       0.0903235 -0.050851513 -0.0017392903 -0.0016316271
000270 be 58 ff bc 8f 5f e1 bc 76 9b c0 3c 00 4a af bc
       -0.031170245 -0.027511386 0.02351163 -0.02139759
000280 dd 53 6c bd 99 99 41 3c 42 70 ba 3d a5 b6 d9 3c
       -0.057697166 0.011816406 0.09103443 0.02657635
000290 92 15 25 3e 7b 83 14 bd c4 d9 c3 3d d9 43 45 3d
       0.1612151 -0.036258202 0.0956302 0.048160408
0002a0 14 fb c3 3d cf a6 fb 3b 39 1c 73 3d 76 17 9c bd
       0.09569374 0.0076797972 0.059353087 -0.07621662
0002b0 ec 84 9f 3b 14 b6 5f 3c e5 f1 68 bc fd 7e 60 3d
       0.0048681404 0.013654251 -0.014217828 0.054808605
0002c0 c8 d7 b1 bc fe c2 d1 bc c3 8c 17 bd 5c cd 0d 3d
       -0.021709338 -0.025605675 -0.036999475 0.034619674
0002d0 c7 35 08 3e 46 93 23 3d 23 0f 4f bd 34 6b 09 3d
       0.13301764 0.039935373 -0.050551545 0.033549502
0002e0 4b 1d 24 3d 9c 34 a6 3d e7 32 9f 3c c7 42 93 3d
       0.040067 0.08115503 0.019433452 0.07190471
0002f0 b6 78 d4 3c d5 68 ec bc 4b f9 ad 3d 84 33 58 bb
       0.025936466 -0.028858582 0.084948145 -0.003298969
000300 38 d3 b0 bd bc f0 9a 3d 50 c7 42 bd ba b1 1d 3d
       -0.08634037 0.07565448 -0.04755336 0.03849957
000310 cc c7 b3 3d 45 f0 41 bc 84 c8 b6 3d 17 72 ac 3c
       0.087783426 -0.01183707 0.08924964 0.021050496
000320 b1 98 49 bd 4f a9 0b 3d 51 61 2f bc 95 dc 13 3c
       -0.049217883 0.034097012 -0.010704354 0.009024759
000330 6b ae 91 bd d3 34 a7 3d 59 85 6e bc 31 d3 8d 3d
       -0.07113346 0.08164372 -0.01455816 0.06925047
000340 10 6f 24 3d 3d dc e0 3c 4b 0b d6 3d b2 f3 7e 3d
       0.04014498 0.027448768 0.10451373 0.062244125
000350 a2 de 92 3d 0b b2 42 3d d9 8d 86 3d 82 bb 0a bd
       0.0717137 0.047533076 0.06570024 -0.033870228
000360 2a 7a 55 3c 3d c4 aa 3c 32 6c 55 bd c2 7a b5 3c
       0.013029614 0.020845527 -0.052105136 0.022153262
000370 62 55 86 3d 0d 50 b8 3d 93 79 3f 3c 5b 3e e2 bb
       0.06559254 0.089996435 0.0116867 -0.006904406
000380 44 aa 88 be 7f 86 3f bd 38 27 88 bc 0b b4 16 bb
       -0.26692402 -0.046759125 -0.016620263 -0.0022995498
000390 b1 24 0f bd 8a 67 c8 3d fc 12 69 bd e0 a4 44 b9
       -0.0349471 0.097853735 -0.05690287 -0.00018753437
0003a0 f4 29 8b 3d 9f 7c 27 bd 84 c4 9c 3d b0 81 92 bd
       0.06795111 -0.040890332 0.0765467 -0.07153642
0003b0 33 f2 7c bd c8 2d e7 3d f5 15 2c 3b 05 00 98 3d
       -0.061754417 0.11288029 0.0026258205 0.07421879
0003c0 69 91 e1 3d 49 21 0e 3d d5 dd 00 be f9 37 4e 3d
       0.11014063 0.034699712 -0.12584622 0.05034635
0003d0 77 07 93 3b 78 0c fd 3c 0a e2 82 3d c6 17 0f 3e
       0.004486974 0.030889735 0.0639077 0.13973913
0003e0 35 7d 34 3c 25 4f 1e 3d c2 40 ef bc 71 b3 ed bc
       0.01101618 0.038649697 -0.029205684 -0.029016228
0003f0 30 ef e0 3d e2 87 86 3b 37 bf 46 be fa 16 0a bd
       0.109831214 0.004105554 -0.1940888 -0.03371332

sl_fc3.bias f4 [256]
000000 28 dc a1 3d 62 42 b1 3c 69 8d 8e 3d 67 f2 56 bd
       0.079033196 0.0216381 0.069605656 -0.052477267
000010 e3 47 13 3e d3 57 c9 3d 66 1b 07 bd 0c 56 dd 3c
       0.14382891 0.09831204 -0.032985114 0.02701857
000020 b9 7a 60 3c 18 be cd 3c cf b7 af bd e1 9a c8 3d
       0.013701134 0.025115058 -0.085799806 0.09795166
000030 ef 39 31 3d 04 14 ce 3d 7e cb c4 3d 4a 38 20 3d
       0.04326814 0.100624114 0.096091256 0.03911618
000040 45 99 12 3e bb be c0 bb 06 7d eb 3d c1 53 f7 3a
       0.1431628 -0.005882112 0.11498456 0.0018869565
000050 bc aa eb 3b dc e9 aa b9 0c fc 84 bd e0 46 cb bd
       0.007191984 -0.00032599166 -0.064933866 -0.09925628
000060 4b cd 64 bd 7d 2a 7a 3c 07 f2 97 bd df 2d 00 bd
       -0.055859845 0.015268919 -0.0741921 -0.031293746
000070 1e f6 47 3c 01 6f e5 3d 9a 93 4d bc 83 ae 24 bd
       0.012204675 0.11202813 -0.012547398 -0.04020549
000080 ee 26 a6 bd 5e 7d e9 3c 92 51 4f 3c 9d 23 e2 3d
       -0.08112894 0.028502163 0.012653725 0.11041949
000090 4d c7 35 bd c8 d2 47 bb bd 1f 91 bb 62 ba 78 3d
       -0.04437952 -0.0030490626 -0.0044288323 0.060724624
0000a0 04 bd 96 bd 03 ff fc bb 0d 39 dd 3d 8c a8 ac 3d
       -0.073602706 -0.0077208295 0.10801897 0.08430585
0000b0 a4 3c 46 3d 63 8d d9 3c d4 87 42 3d 8a a3 30 bd
       0.048397675 0.026556676 0.047492817 -0.043124713
0000c0 fd 89 a5 3c fd 27 ec 3d b7 dc a8 bd 50 2f c0 3d
       0.0202074 0.11531065 -0.08245223 0.09384024
0000d0 9f 0a 37 3a 97 75 9e bd 2e df 9a 3c e9 05 a2 bd
       0.00069824787 -0.07737272 0.018905248 -0.079112835
0000e0 c0 86 b0 bd 33 cf 21 bd 96 62 a0 3d c1 10 b3 bd
       -0.086194515 -0.03950424 0.07831304 -0.0874343
0000f0 c7 40 02 3e 66 ee c3 bd 20 9e 55 3d 62 b7 c4 3d
       0.12720023 -0.09566955 0.052152753 0.0960529
000100 fb 0d 3a 3d 53 3f c5 bc e3 71 26 3d 44 f8 99 3d
       0.04542349 -0.024078047 0.040635955 0.07518056
000110 de 72 96 3d b8 21 77 3d df 83 d7 bd bc 83 86 3d
       0.07346128 0.06033489 -0.10523199 0.06568095
000120 89 ee 13 3d 36 b2 8e 3c aa 83 b2 bb af e9 e3 bc
       0.036116157 0.017418962 -0.0054478245 -0.02782139
000130 18 e9 2e bd c2 78 94 bd d0 54 14 3d 10 a5 0a 3d
       -0.042702764 -0.07249595 0.036213696 0.033848822
000140 32 8b 8c 3d 19 0c d8 3d a1 3b 11 3e 38 7a 99 bc
       0.06862487 0.105491824 0.14182903 -0.018735036
000150 f1 26 72 bd 7c 43 bb bd a1 e4 c2 bd 76 b3 db bc
       -0.05911917 -0.09143731 -0.09516264 -0.026818972
000160 68 e4 9b bd a3 1a 06 3d 5e eb 9c 3d 63 54 ad 3d
       -0.076119244 0.032740247 0.0766208 0.08463361
000170 48 6b 97 3c cb c8 3d 3d 98 a0 dc 3b 83 6c 2a 3d
       0.018483773 0.04633407 0.0067330115 0.04160739
000180 12 a4 25 3c 55 2b e6 3c 80 66 84 bd 63 e1 e4 ba
       0.010109918 0.028096834 -0.06464863 -0.001746219
000190 9d c2 db 3b 01 c2 0c 3e b8 c4 e4 ba e8 32 67 bd
       0.0067065493 0.13745882 -0.0017453646 -0.056445032
0001a0 79 b7 14 3b 6d 43 d1 3b 8c a0 0d 3e c8 09 c8 bd
       0.0022692366 0.0063862116 0.13830775 -0.097674906
0001b0 d7 11 86 bd db c5 a5 3c d9 58 ba 3d a0 7a 23 bc
       -0.065463714 0.020235946 0.090989776 -0.009977967
0001c0 bc bf 2e 3c ea 0b 96 3c 4c d9 27 bd 1d 71 d4 3c
       0.01066583 0.018316228 -0.040978715 0.025932843
0001d0 e8 f9 f8 bb 49 99 74 3d 5c 7f 84 bd 51 3d 99 bd
       -0.0075981505 0.059716497 -0.064696044 -0.07482398
0001e0 7f f7 15 3d 63 37 bf 3d a5 94 2f 3c 08 ee d7 3d
       0.036612984 0.09336736 0.010716592 0.10543448
0001f0 75 52 37 3d 96 c7 92 3c e5 e8 6d 3d 99 84 d4 3c
       0.04475637 0.017917436 0.058083434 0.025942134
000200 3e 37 8b bd 47 8a dc bc 3c 50 a3 bd 02 49 0c 3e
       -0.06797646 -0.026921405 -0.07974288 0.13699725
000210 81 12 fa 3c 0c cb 5e 3d ae 45 9a 3d 73 56 44 3d
       0.030526401 0.05439286 0.075328216 0.047934007
000220 8f 35 da bd c8 ab d6 3d 17 2a 6e 3b 2b 37 80 bc
       -0.10654747 0.104819834 0.0036341005 -0.015651306
000230 e3 f5 00 3d bb d8 79 3d 5f 3a de 3d b2 aa 99 bc
       0.031484496 0.060997706 0.10850977 -0.018758152
000240 9b 32 bd bb a1 b5 9d 3c ed 11 06 3e f4 e3 eb bc
       -0.005773855 0.019251646 0.13092776 -0.02879522
000250 ac fc 60 3c ba 57 15 bd 3e 1b a0 ba d6 45 85 3d
       0.013732117 -0.036460616 -0.001221515 0.06507461
000260 73 85 9d bc eb b1 47 bc 26 b5 9d bc f9 28 89 3d
       -0.019228673 -0.012188415 -0.019251417 0.06697268
000270 56 94 83 3c 27 18 c1 bd c7 86 a8 bc 35 38 a0 3d
       0.016061943 -0.09428435 -0.02057208 0.07823221
000280 37 6e 9e 3d b6 e7 61 3c ee 9e 74 bd ea 17 7b bc
       0.077358656 0.013788154 -0.05972188 -0.015325526
000290 6b e0 10 bc 9c 63 7c 3d 35 8b cd 3d ed 58 b3 bc
       -0.008842568 0.061618432 0.10036317 -0.021892989
0002a0 71 c8 c1 3d 21 0b 5c 3c e6 2c 8b bd b9 78 cd 3c
       0.09462059 0.013430388 -0.06795673 0.02508198
0002b0 49 77 8e 3c 6e f5 0f 3e 9d 57 63 bd 6b 21 42 3b
       0.017390864 0.14058468 -0.055503476 0.002962197
0002c0 c7 be 4e 3d 0c ed 03 3e eb 38 9d 3d 00 e6 8b bc
       0.05047491 0.12883395 0.07676872 -0.017077446
0002d0 4b 12 d6 3d dc 9d 6e bd f4 58 ef 3d 5d cc a9 3c
       0.10452708 -0.058256015 0.11686888 0.02072733
0002e0 fc f0 ca bc 08 06 a1 bd 54 89 7c 3d 09 8d d7 3d
       -0.024773113 -0.078624785 0.061654404 0.10524947
0002f0 92 93 c0 bd b7 27 9f bd c4 3c bd bd 62 3f b3 bc
       -0.09403147 -0.07771247 -0.09240106 -0.02188081
000300 73 c2 f9 bc 30 70 a7 3c 7a 50 c0 bb 68 28 10 3d
       -0.030488228 0.020439237 -0.0058689686 0.035194784
000310 07 f2 32 bc 25 b3 66 bc 47 85 58 3a c6 33 82 bc
       -0.010921962 -0.014080797 0.0008259606 -0.015893828
000320 88 d4 db 3d 0f 77 b2 3d 3e 56 79 3a b0 5d 6e 3d
       0.107338965 0.08714115 0.0009511447 0.058194816
000330 2b bd 02 3c fd 77 a4 bd 0b 01 03 bd 55 8a 34 bc
       0.0079796715 -0.080306984 -0.031983417 -0.011019309
000340 68 4a bf bd 93 99 ca 3d 36 ef a3 bc 1c cc 1e bd
       -0.09340364 0.09892573 -0.020011526 -0.038768873
000350 35 60 93 bd e8 15 d9 3d 02 ac 52 3d 86 a9 bf 3c
       -0.071960844 0.105998814 0.05143357 0.023396265
000360 6c e8 f3 3c d1 8f 43 3c 3f b8 06 3e 3d 36 00 3e
       0.029773913 0.011936144 0.13156222 0.1252069
000370 f5 32 e6 3c 4b 45 18 3c c1 05 50 3c 49 05 a3 3c
       0.02810047 0.0092938645 0.012696684 0.019899981
000380 f4 43 5a bd 94 2b 72 3c 17 07 12 3c 54 d4 20 3c
       -0.05328746 0.014780898 0.008912823 0.009816248
000390 c9 4e 29 3d c6 21 85 bc 4e 25 fe 3d 09 f7 f1 3d
       0.0413349 -0.016251456 0.12409459 0.11814696
0003a0 20 6d d4 3d 7c d9 9c 3c ea f0 0a 3e 5d 93 12 bd
       0.103723764 0.019146673 0.13568464 -0.035785068
0003b0 36 2b bf 3c 0b fc 42 bd f7 09 8b bd 20 37 89 bd
       0.023336034 -0.04760365 -0.0678901 -0.066999674
0003c0 45 6a ba 3c ce c6 b9 3d 5c 7f a1 bd 6a 32 66 bb
       0.022755751 0.09071122 -0.0788562 -0.0035125264
0003d0 81 4c 70 b8 63 15 ec 3d 35 82 00 bd d9 a7 1d bd
       -5.729171e-05 0.11527517 -0.031374175 -0.03849015
0003e0 17 47 4d bd cb c8 53 3d b6 84 82 3d 75 59 49 3d
       -0.050116625 0.051705163 0.06372969 0.04915758
0003f0 dc cd cb 3d c4 66 3a 3c 07 6a 73 3d c3 03 6d bc
       0.09951374 0.01137704 0.059427287 -0.014466229

sl_fc_v.weight f4 [1, 256]
000000 26 12 0a 3e a5 05 92 3d 2c 03 1e bf eb d6 0d 3d
       0.13483486 0.07129983 -0.6172359 0.03462879
000010 05 2a 7a 3d 1c 30 ec 3c e1 b3 06 ba b1 8b 3a bd
       0.06107523 0.028831534 -0.00051384984 -0.045543376
000020 87 06 b1 3d cc ef 13 bc 94 6a ee 3d dd c1 8d 3d
       0.08643823 -0.00902934 0.11641422 0.06921742
000030 a6 02 bd 3d af ac ef 3d 4a 34 20 3d e4 f5 33 3b
       0.09229021 0.11702859 0.039112367 0.0027459795
000040 0d 5b 71 3d c6 8a 9a bc 20 7a 6f be cc da a2 bc
       0.058924723 -0.018865 -0.2338643 -0.019879721
000050 8f f1 94 bc 32 82 85 bc 5c 6a 4e bd 3c ec 35 3c
       -0.01818159 -0.016297434 -0.0503944 0.011103686
000060 9f 56 13 bd 81 8f d9 bc 15 0d 56 3d 9a 24 8f 3d
       -0.03597128 -0.026557686 0.05225857 0.06989403
000070 1a d9 3b bc 15 41 13 be eb f8 55 bc da 41 11 bd
       -0.011465335 -0.14380296 -0.013059835 -0.03546319
000080 00 3a f9 bb cb 92 92 3d a8 ba cf 3d d4 17 96 3d
       -0.007605791 0.07156905 0.10143024 0.073287636
000090 21 aa e8 3b 9b ad 86 bd 59 11 09 bf a6 af 6d 3d
       0.007100359 -0.06576081 -0.53542095 0.05802884
0000a0 19 41 8f bd 58 17 f3 b9 2f 31 cd 3d fd 89 62 3d
       -0.06994838 -0.00046365964 0.10019147 0.055307377
0000b0 11 38 8e 3d 8f bb 05 3e 53 ca 25 bd 96 d0 2d 3c
       0.069442876 0.13059829 -0.040476155 0.010608813
0000c0 61 f2 a1 bc df 9a 75 bc 3b 54 43 bd f6 57 c4 3d
       -0.019768896 -0.014990537 -0.04768775 0.0958709
0000d0 4b 19 8a bc ec c4 34 bd ce ba ba 3d ff 32 46 bd
       -0.016857764 -0.04413311 0.091176614 -0.048388477
0000e0 ee aa 18 bd 86 11 0e bc 11 69 ca 3d f8 48 22 3c
       -0.037272386 -0.00867117 0.09883321 0.009905092
0000f0 1d 24 8f 3d a4 57 c2 39 84 52 9c 3c c4 62 94 3d
       0.0698931 0.0003706786 0.019082315 0.072454005
000100 52 54 b6 bc 9b 40 c0 bb d2 92 92 bc 4c 13 75 3d
       -0.022257004 -0.0058670766 -0.017892275 0.059832856
000110 54 e9 49 3d 9a 1a 77 bc 4c 75 00 bc 30 e7 1f 3d
       0.049294785 -0.015082026 -0.007840466 0.039038837
000120 0c 2f 98 3b 52 cf 94 3d 56 c2 97 3c 2f f0 89 3d
       0.0046442803 0.07266106 0.018525284 0.067352645
000130 74 40 d4 bd a6 1b 1a bd 12 d3 60 3d 7d 75 a9 3d
       -0.10363856 -0.037624024 0.054888792 0.08274362
000140 85 63 97 3d c4 5b 3d 3d 39 61 b0 3d 14 d5 0e 3b
       0.07392029 0.046230093 0.08612294 0.0021794485
000150 db a0 fb bc fe ad 87 bd 44 be a4 3c 1b 3b 8b bc
       -0.03071635 -0.06624983 0.020110257 -0.016995957
000160 f1 1a 93 3b 97 c3 b3 3d 9c 21 45 bc 6f 5f 9b 3d
       0.0044892957 0.0877754 -0.012031939 0.07586562
000170 d0 7b 01 3d bd 12 92 3c a8 37 89 3b 5c e5 0b 3b
       0.031612217 0.0178312 0.004187543 0.0021346426
000180 58 fd 21 3d 9e 51 fc bc 9d 23 8a ba 1a ed b7 3d
       0.039548248 -0.030800637 -0.0010539178 0.089807704
000190 37 b6 a1 bc e5 16 ac 3d e6 f3 62 bb b7 26 bb 3c
       -0.019740207 0.08402804 -0.0034630238 0.02284561
0001a0 3d 8c 1f 3c 27 d4 90 3d df a6 5e 3d 80 53 c7 bb
       0.009738025 0.07071715 0.05435836 -0.006082952
0001b0 f0 cf a5 3c 6a 91 38 bd d2 ab 85 3d 08 a8 4f bd
       0.020240754 -0.045060553 0.06526913 -0.050697356
0001c0 2a e2 29 3d 5f f3 e2 bc 60 13 05 3b 4e 5c 5e bd
       0.041475452 -0.027703939 0.0020305738 -0.054287247
0001d0 1b e0 c8 3c 06 6b 28 bc 1c df 8a bb f7 42 c8 bc
       0.024520924 -0.010279423 -0.0042380225 -0.024445994
0001e0 6e 39 1e 3d cd 49 8b 3c e1 c4 21 bd 88 07 d7 3d
       0.038628988 0.017002964 -0.0394944 0.10499483
0001f0 61 8e 83 3d c7 eb b7 3b 16 fe a5 3d ff 2e 2d be
       0.06423641 0.0056128236 0.08105104 -0.16912459
000200 e8 3f 42 3d ec 1a cd bc 12 c2 05 bd b9 c9 9a 3d
       0.047424227 -0.025037251 -0.032655783 0.07558007
000210 11 68 b8 3d 04 8a 9d 3d 6c 07 b3 3d 7d 72 90 3d
       0.09004224 0.0769234 0.0874165 0.07053087
000220 37 09 4b bd 2d 3e 69 3d cd a8 34 bd f8 36 5b bd
       -0.049569335 0.05694406 -0.044106293 -0.05351922
000230 9a 40 01 bd 24 17 2e bd 16 39 a1 3d c0 20 12 3b
       -0.03155575 -0.042502537 0.078722164 0.0022297353
000240 44 b9 8d 3c 65 4f 12 bd 63 39 1c 3d 1d a8 63 be
       0.017300256 -0.035720248 0.038140666 -0.22232099
000250 9f 13 1e bf 27 7f 42 bd ce 5f d7 3b 0e 04 70 3d
       -0.6174869 -0.047484543 0.0065727 0.058597617
000260 ce f8 34 bd e4 25 46 3d 49 ab 26 ba 54 99 ca bc
       -0.04418259 0.04837598 -0.0006357921 -0.024731316
000270 38 b3 34 bc f8 49 f7 3b a1 e4 36 bd e2 2d c4 3d
       -0.011029057 0.0075466596 -0.04465163 0.09579064
000280 6e c9 85 3d fc 6f a1 bc d2 be 5b bc 88 e3 14 3d
       0.0653256 -0.019706719 -0.013412194 0.036349803
000290 8c a5 66 3d f6 41 2b bd 77 70 33 be bd 36 2f 3d
       0.05631022 -0.041810952 -0.1752337 0.042776812
0002a0 7c 0b 2a be 38 7b 29 bd 8d d7 c7 bc 4b cc 85 3d
       -0.16605943 -0.041377276 -0.024394775 0.065331064
0002b0 e5 7e 26 3d af 13 65 3d b7 2c 8f bb 1c fa 76 bd
       0.04064836 0.055926975 -0.004369344 -0.060297117
0002c0 60 24 87 3d 65 a1 c6 3d 9a 84 91 3d 29 bb 4b 3b
       0.06598735 0.09698752 0.0710537 0.0031086898
0002d0 df e7 9e 3d 90 a0 b4 3b 56 a3 a6 3d d1 3e c4 bc
       0.0775907 0.0055123046 0.081366226 -0.023955734
0002e0 c1 36 5c bd 50 74 ed 3b 9c 38 e6 3a 8e 00 aa 3d
       -0.053763155 0.0072465315 0.0017564478 0.08300887
0002f0 d2 de 89 3b 75 e1 06 bc 55 8b 23 bd 22 22 36 3b
       0.0042074705 -0.008232464 -0.0399278 0.002779134
000300 38 f6 9f bc ab 7e 98 bc de 53 eb bc 9f 65 a4 bb
       -0.019526586 -0.018615087 -0.028726514 -0.005016997
000310 fb a7 a8 3d c1 53 c2 be be a7 48 be a8 ed 22 bd
       0.08235165 -0.37954524 -0.19595239 -0.039777428
000320 17 8c bf 3d ce 7b 94 3d db d5 f4 bc 09 28 3e 3b
       0.09352892 0.07250176 -0.02988713 0.0029015562
000330 42 ba c7 bc ee 78 7d 3b 7b 47 8e 3b c5 9f 9f 3d
       -0.024380807 0.0038676816 0.004342017 0.077941455
000340 ff 2b 8f bc 47 20 8d 3d bc 09 08 bd 11 d4 04 bf
       -0.017477034 0.06890922 -0.03321241 -0.5188609
000350 3a 1a 16 3d f3 7d af 3d a6 2f 9c 3d 6a 43 42 3b
       0.036646105 0.08568945 0.07626276 0.0029642233
000360 e5 7e 8c bc 21 36 fb bc a5 a2 c9 3d 1e 59 b1 3d
       -0.017150352 -0.03066546 0.09845475 0.08659576
000370 d4 76 ca 3d f3 65 2d bd 30 11 a7 3d 5e 69 07 bd
       0.09885946 -0.042333554 0.08157575 -0.03305947
000380 b6 f6 a8 bc 97 b2 b4 ba c4 51 0b 3c 47 32 b9 3d
       -0.020625453 -0.0013786134 0.008503381 0.09042793
000390 32 75 85 3d 58 5e 22 3d 20 d9 9b 3d 93 63 e9 bc
       0.06516494 0.039640754 0.07609773 -0.028489863
0003a0 d0 01 9d 3d a7 74 ad 3d 10 e2 0c 3d 3c 29 2c bd
       0.07666361 0.08469515 0.034395278 -0.04203151
0003b0 53 a2 d1 3d 86 74 c8 bc 62 18 cb 3c 7b b0 40 3e
       0.10236039 -0.024469625 0.0247919 0.18817322
0003c0 8e 40 98 3d 51 22 67 be d9 03 73 3b 54 2c 4b bd
       0.07434188 -0.22571684 0.003708115 -0.04960282
0003d0 68 db 39 bd f0 ed 2b 3d c4 be c7 bc d4 8e e0 bc
       -0.045375258 0.04197496 -0.024382956 -0.027411856
0003e0 da 7e 30 3d f9 80 b7 ba 27 0d 86 bb 71 15 9b be
       0.043089725 -0.0014000229 -0.0040909234 -0.30289796
0003f0 8e 9a 10 3e 02 0c a4 bd 57 9d 06 3d ed 7b 0e be
       0.14121458 -0.08010103 0.032864895 -0.13914461

sl_fc_a.weight f4 [2, 256]
000000 2b ca 35 3c d8 72 70 3b 7d 5e 15 bd a9 d6 22 bd
       0.011095564 0.0036689546 -0.036467064 -0.039755497
000010 be fe d5 bd 2e 3b 26 bd 8d 1b 0f 3a 96 0f a7 bc
       -0.10448979 -0.040583782 0.00054591225 -0.020393174
000020 4d 17 9a 3d f7 46 47 bd ed b6 7e be 5a a5 6e 3d
       0.075239755 -0.04865166 -0.24874468 0.05826316
000030 8f 39 fe 3b 5f dd a8 bd 3e 96 04 3e 10 51 2a 3e
       0.0077583264 -0.08245348 0.12947938 0.16632485
000040 52 84 93 bd 1c 0c 5d 3e b2 6d 37 be 08 16 45 3d
       -0.072029725 0.2158665 -0.17912939 0.048116714
000050 08 3e 48 bc 97 78 a6 3a 27 2d 29 3c 9f 19 a6 3c
       -0.012221821 0.0012700733 0.010325707 0.020275889
000060 7b 89 20 3d 0f 44 c4 3c d3 c8 20 3d 21 c4 fb 3d
       0.03919361 0.023958234 0.03925402 0.12293268
000070 23 9e 88 bc 44 46 81 3e 71 dd 2b 3b b9 c7 b2 b9
       -0.016676968 0.2524892 0.0026224519 -0.0003409961
000080 4a 08 7c 3d 5e 89 a9 3c 0f eb aa bd 87 eb d2 3d
       0.061531343 0.020695385 -0.08345615 0.102988295
000090 74 19 29 bc 5f 02 c2 bb 1d b0 09 3e b8 e8 4b 3d
       -0.01032101 -0.005920693 0.13446088 0.049782485
0000a0 82 d7 2e bc 2d 8e 57 3d 68 e0 53 3d 9d 83 85 bc
       -0.010671498 0.052625824 0.051727682 -0.01629811
0000b0 f9 77 3b bd 2e 63 59 bc 1a 04 58 bd 5c e0 78 bb
       -0.04576871 -0.013268275 -0.052738287 -0.0037975525
0000c0 8f dc 84 3c 8a 56 1b be 5b 97 ae 3c 7e 71 c8 3c
       0.016218452 -0.15169731 0.021312406 0.02446818
0000d0 4e 6b 1d be 16 53 4f 3d b1 ae d3 bd fc 85 02 3d
       -0.15372965 0.050616346 -0.10336054 0.03186606
0000e0 d0 0b 12 3c 3e 6a 54 3d 2f 55 3b 3d a9 92 3e 3d
       0.008913949 0.051859133 0.045735534 0.046526585
0000f0 10 3d c9 bc 7f 80 11 bc 84 06 59 bd b2 95 c1 bd
       -0.02456525 -0.0088807335 -0.05298473 -0.0945238
000100 05 d4 54 bd fc 05 34 3d fb 3b 57 bd ae 4f 3a 3d
       -0.05196001 0.04395102 -0.052547436 0.045486145
000110 5b 30 94 bd 3e b2 39 3d 85 e8 86 3b fb 09 01 3c
       -0.072357856 0.045336 0.004117074 0.007875915
000120 d8 cf 89 3c 65 31 d8 bc 8a 21 dc 3d 8a 3b 55 bc
       0.01682274 -0.02639074 0.107485846 -0.0130146835
000130 d3 72 00 be 73 f7 9a 3c 0b c8 dc 3c f9 52 71 bd
       -0.12543802 0.018916821 0.026950857 -0.05891702
000140 53 a8 6f 3b c8 47 56 3d 0a 6d d1 bc a9 02 18 3e
       0.0036568835 0.05231455 -0.02556469 0.14844765
000150 b6 1f 3e 3d e6 d2 a3 bc ab 59 f0 bc 19 7e ae bd
       0.04641696 -0.019998025 -0.029339632 -0.08520145
000160 1f af 91 bc ee 3e bd 3d d6 ac 51 3d 9e ea 96 bd
       -0.0177837 0.092405185 0.05119022 -0.073689684
000170 41 7e 6c 3d 67 3d b5 bd 17 67 2e 3b b5 a6 97 3c
       0.057737593 -0.08849602 0.002661174 0.01851211
000180 cb 1d 27 3d 20 ca 29 3b 8b 7d 57 bc a5 a2 55 bc
       0.040799897 0.002590783 -0.01315249 -0.013039266
000190 73 ca 35 bd 44 cd 1e bc cd 9d 48 bd fc d6 5f 3d
       -0.044382524 -0.009692494 -0.048978616 0.054648384
0001a0 d0 fc f3 bc fc d3 61 bc c3 70 31 3d b1 2d 35 3d
       -0.029783636 -0.013783451 0.04332043 0.044233028
0001b0 5c 61 ff bc db 17 e2 bb 8a 01 c4 3c c6 b2 33 bd
       -0.031174354 -0.0068998164 0.023926515 -0.043871664
0001c0 42 15 5d bd 05 b2 c9 bc 90 88 8e 3b 33 b2 00 3d
       -0.05397535 -0.02462102 0.0043497756 0.031419944
0001d0 fc 11 be 3d fd 27 f0 3c ac 15 3f 3c 93 94 38 bd
       0.09280774 0.029315943 0.011662882 -0.045063566
0001e0 f0 7b 4e 3d 0c 5e 01 3c 61 9c 84 3d da 73 a9 bd
       0.050411165 0.007895958 0.064751394 -0.0827405
0001f0 95 95 8d bd 21 0c e2 bb c0 c1 a5 bd fa df 88 be
       -0.06913296 -0.0068984185 -0.080935955 -0.2673338
000200 f8 43 ad 3c 60 c2 3c 3b d8 eb 7d 3b 29 b3 bf bd
       0.021150574 0.002880238 0.003874531 -0.09360344
000210 99 34 60 3b 2b df 17 bb 6b 6a 7e 3c ea 08 83 bd
       0.0034211038 -0.002317379 0.015528302 -0.063981846
000220 04 2d a2 3c d8 48 05 3a 46 68 cb 3c 90 27 39 bc
       0.019796856 0.0005084402 0.024829995 -0.011300936
000230 e5 6b 19 3e 5c ec 46 3d ce aa 15 bb b8 39 a9 3c
       0.14982565 0.048565254 -0.0022837403 0.020657405
000240 c0 ae ae bc 27 9e 0b bd 1d 61 5d bd ac 6b 91 bd
       -0.021323562 -0.034086373 -0.054047693 -0.07100615
000250 4a c6 09 3e 08 32 49 bd 59 a9 b5 bc 9f 5b 98 3c
       0.13454548 -0.04911998 -0.022175478 0.018598376
000260 76 9c 50 3d 44 6a a3 3c 19 db ed 3b ec d4 da bc
       0.050930463 0.019948132 0.0072587845 -0.026712857
000270 22 4e 0e bd fe 9a 14 3b 4a f4 1b 3c 83 58 79 bd
       -0.034742482 0.002267539 0.009518692 -0.060875427
000280 12 7c 80 3d 5e f3 05 3d 18 ee 94 3d 92 d6 57 bd
       0.062736645 0.032702796 0.07271975 -0.052694865
000290 21 36 87 3c 24 d4 26 3d 4c 2e ba 3e 13 cd 52 3d
       0.016505303 0.040729657 0.36363447 0.051465105
0002a0 45 4a 49 be 9d 35 73 bd e6 97 d8 bc 3d d2 1a be
       -0.19657238 -0.0593773 -0.026439618 -0.15119262
0002b0 30 8a ca 3d e8 36 52 bd c9 7f 1e 3d a4 27 4f 3c
       0.098896384 -0.051321894 0.038696084 0.012643728
0002c0 69 cc 7f bc f3 2b 8d b9 ca f6 90 bd 41 14 57 3c
       -0.0156127 -0.0002692636 -0.07078321 0.0131273875
0002d0 56 15 00 bb 48 37 1b 3c 62 04 db 3b 73 46 ac 3c
       -0.0019543967 0.009473629 0.006683872 0.021029687
0002e0 e1 e0 21 3d 70 ee de bb 60 22 13 3d dc 61 9a bd
       0.0395211 -0.0068033263 0.035921454 -0.075381964
0002f0 2a 26 b0 bc 13 81 8f 3c 6f ff 41 3d 99 04 56 3d
       -0.021502573 0.017517602 0.04736274 0.05225048
000300 8b 08 a6 3c 2f ca 7c 3d 33 3a 8e 3c b2 79 c6 bc
       0.020267745 0.061716255 0.017361736 -0.02422795
000310 78 35 76 bd d0 d8 97 3e 29 22 b1 bd b4 fe d6 3c
       -0.060109586 0.29657602 -0.08649094 0.026244499
000320 5d a0 91 bc e9 37 c3 bc f6 e8 b1 3c ac 96 bc 3c
       -0.017776662 -0.023830371 0.02171753 0.023021065
000330 80 94 5e 3c 1b 22 36 bb 55 13 1c 3c f3 98 74 bc
       0.01358521 -0.0027791325 0.0095260935 -0.014929044
000340 68 fd 2e 3c 91 e8 8e bd 2c 5a 27 3d 90 5e 53 3e
       0.010680534 -0.06977952 0.04085748 0.20641541
000350 fa eb 31 bd 04 fa 70 3b 50 d0 16 bd 38 fe f1 3b
       -0.043437935 0.0036770115 -0.036819756 0.0073850416
000360 1b c0 64 bd 69 77 b9 bc e1 8a 37 3d d4 9e 0a 3d
       -0.05584727 -0.022639947 0.04481018 0.033842877
000370 19 8e 36 bb ed 22 60 3d b1 87 29 bd fa ce 6f bd
       -0.0027855693 0.054720808 -0.04138917 -0.058546998
000380 57 47 1c bc 30 a1 73 bd e6 25 a3 3c e3 79 b4 bb
       -0.009538493 -0.059479892 0.019915532 -0.005507694
000390 3d 6d 27 3d 10 78 10 3c 8b 94 88 3b 90 93 6e 3e
       0.040875662 0.008817688 0.0041680983 0.23298478
0003a0 93 c6 58 3d 14 d6 46 3c 7b 75 53 bd 06 5a 25 bd
       0.05292375 0.012136001 -0.05162571 -0.040369056
0003b0 57 36 7b be 8e d0 55 bd 4c d3 f0 3c 9e df 67 be
       -0.24532448 -0.052200846 0.02939763 -0.22643897
0003c0 6a d0 e9 3c dc ef 95 be b0 a7 28 3d c2 aa 4e 3c
       0.028541762 -0.2928456 0.041175544 0.012613954
0003d0 b9 e0 0e 3d 5c a5 1a bd a0 5a c4 3c c7 c4 1f 3d
       0.03488228 -0.037755355 0.023968995 0.03900602
0003e0 a0 05 49 3d 2e 35 f7 bc 04 ed 53 bd 2a 34 77 3e
       0.04907763 -0.030176725 -0.051739708 0.24140993
0003f0 24 42 f6 3c 69 89 50 be fd 8c df bc 77 b0 3d 3e
       0.030060835 -0.20364918 -0.027288908 0.18524347

sl_fc_a.bias f4 [2]
000000 d2 ae af bb 0a 92 2f bd
       -0.0053614164 -0.042863883
