models/cartpole.pth (torch, 270412 bytes, 8 tensors)

fc1.weight f4 [128, 4]
000000 76 87 7e 3c 00 9b 52 3e 47 c4 33 bf 04 9d 9b be
       0.015535226 0.2056694 -0.7022137 -0.3039323
000010 e8 81 20 be 96 d5 73 3e ac b8 fb 3e 28 43 b8 3e
       -0.15674555 0.23811945 0.4916433 0.35988736
000020 f3 57 7d bd 8b 7f 4f 3d 37 76 ca be db cd 3e 3c
       -0.061851453 0.050658744 -0.39543316 0.011645759
000030 90 3c d3 be cb f9 4e be 12 c0 e1 be 25 2d 9d bd
       -0.41257143 -0.20212476 -0.4409185 -0.07674626
000040 d2 de 40 3e e1 76 80 3e d4 29 27 bf 76 2c 3f be
       0.18834999 0.25090697 -0.652982 -0.18669304
000050 68 2b bf 3d d7 c9 ea 3e 28 79 10 be 9d 7f b8 3e
       0.09334451 0.45857117 -0.14108717 0.3603486
000060 ac 48 db bd 0a fe 98 3b e7 4d 38 3f 2e 10 d9 be
       -0.107072204 0.0046689557 0.7199387 -0.42395157
000070 32 31 85 be 6b 24 8c 3d be 29 d8 3d 54 98 aa 3e
       -0.26014096 0.06842884 0.10554837 0.33319342
000080 22 0f 90 be 07 ae 8e be 26 47 18 bf 33 91 c3 be
       -0.28136545 -0.27867147 -0.59483564 -0.38196716
000090 fd 2e b6 be 42 3b b8 3e 28 a9 3f 3f 74 71 ab 3e
       -0.35582724 0.3598271 0.74867487 0.33484995
0000a0 35 f2 51 3d 20 2a 8a be 61 38 73 3e b5 3c e4 be
       0.051256377 -0.26985264 0.23751976 -0.44577566
0000b0 9a b0 b1 be 68 ab 5b be 22 d6 20 3f 8b f0 84 3e
       -0.3470505 -0.21452105 0.6282674 0.2596477
0000c0 4e f6 8c be f1 64 35 3c cc b5 32 3f 75 86 e5 3e
       -0.27531666 0.01107143 0.6980865 0.44829145
0000d0 b5 42 95 3e 8f 3b 8f 3c 22 4e db 3e e0 8f 95 be
       0.29152456 0.017484454 0.42833048 -0.2921133
0000e0 cb 5c f2 3d 0d c9 b7 be d7 f8 00 bf 6c 01 81 be
       0.11834105 -0.35895577 -0.503797 -0.25196397
0000f0 7a 94 2f 3e c4 80 56 3e b0 e8 c0 be 94 c7 70 3d
       0.17146483 0.20947558 -0.37677526 0.058784083
000100 25 d3 bc 3e ca 1d c5 3c 40 f8 5f 3e bb cb 4e 3d
       0.3687984 0.024062056 0.21872044 0.05048726
000110 3e ce 92 3e dd a9 db 3e 0a ef 2d bf 7a 46 19 be
       0.28672975 0.42903033 -0.6794287 -0.14968291
000120 5e a2 e0 bc f7 00 b3 3e fe 11 60 3f 18 90 f7 3e
       -0.027421173 0.34961674 0.87527454 0.48352122
000130 c1 63 ae 3d af 0a db be 3c c3 69 3e 11 37 a4 be
       0.0851512 -0.42781588 0.22828382 -0.32073262
000140 63 0b ec be dc e8 c3 3e 84 88 2a 3f 36 77 d2 be
       -0.46102437 0.38263595 0.66614556 -0.41106576
000150 c8 81 6c 3e 0c 42 90 bd fb b0 0e bf d5 f0 91 be
       0.23096383 -0.070438474 -0.557388 -0.28504053
000160 b0 e2 9f 3e 0d 99 7b be d7 c0 d9 3e 3e b6 5e 3e
       0.31227636 -0.24570103 0.42529938 0.21749207
000170 3c 87 c8 3e ab e2 31 3e c3 e2 4b bf 90 16 9c be
       0.39165676 0.17371623 -0.79642886 -0.30485964
000180 b9 f9 95 3e 03 ba 8d 3d 04 1c 33 bf 51 96 7a be
       0.29292086 0.069202445 -0.69964623 -0.24471404
000190 40 89 03 3f b4 2e 9e 3e a3 62 08 bf 8d bd d5 bd
       0.513813 0.30895007 -0.5327551 -0.104365446
0001a0 87 59 d5 be c1 86 85 bd 54 27 18 bf ff bc a2 be
       -0.41669866 -0.06519843 -0.5943501 -0.31784818
0001b0 dd bb cb bd cd f0 0b 3e 6e 09 7c be 58 a9 6e 3e
       -0.099479415 0.13666077 -0.24612972 0.23306787
0001c0 64 35 93 be 65 a3 ca 3e 51 0d 0c 3f f3 5a bb be
       -0.2875167 0.39577785 0.5470782 -0.36592826
0001d0 85 cb f7 bd 2a ca c9 3c b4 45 14 3d 1b ea 00 3e
       -0.12099365 0.024632532 0.036199287 0.12589304
0001e0 ff c0 31 3e 18 16 f0 3d ed 11 2f be 72 ef 08 3e
       0.17358778 0.11722964 -0.17096682 0.13372591
0001f0 70 30 e7 be ab c5 96 be c6 97 41 be f1 0c 8c be
       -0.45154142 -0.29447684 -0.18905553 -0.27353624
000200 ad 5c 5e be 8a 13 bf be d7 c8 b7 bd 9c 34 8b 3d
       -0.2171504 -0.37319595 -0.08973854 0.06797144
000210 a7 7d d6 be 07 46 f5 bc c8 ef 46 3f 14 dd 48 bd
       -0.4189274 -0.029940618 0.7770963 -0.04903896
000220 a9 19 a6 3d 83 00 4b 3c 50 cb 0f 3f 95 5b 9d 3e
       0.08110363 0.012390259 0.56169605 0.30733934
000230 79 9e ed 3e c9 9e a3 3e a5 8b 35 3f 2b 02 4f bd
       0.46409968 0.3195708 0.70916206 -0.050539177
000240 a6 25 fc be c1 95 54 be 74 4f 44 3f ef 70 18 bc
       -0.49247473 -0.20760252 0.76683736 -0.009304269
000250 38 af 37 be ab e5 b1 be 53 94 58 bf f9 bf df be
       -0.17937934 -0.34745535 -0.84601325 -0.4370115
000260 b5 9d 29 be 48 13 67 3e bf 22 14 3f 22 15 e5 be
       -0.16564067 0.22565949 0.5786552 -0.44742686
000270 2e b0 9f 3e 8a 52 c8 be f0 7b d8 bd 1c 9a 4f be
       0.31189102 -0.39125472 -0.10570514 -0.20273632
000280 42 8d ca bd 0b b6 a1 bd 97 d5 5c be c7 f3 dd be
       -0.09890224 -0.0789605 -0.21565853 -0.4335005
000290 55 25 92 bd dc 6e 8f 3c f9 78 d1 3d ab 36 59 3e
       -0.07136027 0.017508917 0.10228152 0.2121226
0002a0 b8 5a df be b8 e5 a8 bd e7 f1 4b 3f 64 5b 44 be
       -0.436239 -0.082469404 0.7966599 -0.19175488
0002b0 83 ba 98 3e c6 45 23 3e f4 c6 3b bf fd dc ac 3e
       0.29829797 0.15944585 -0.73350453 0.3376235
0002c0 c2 0f b5 3d 9f fe 73 be 02 a7 08 3f 02 51 cc be
       0.08840896 -0.23827599 0.53379834 -0.39905554
0002d0 a5 56 61 3d cf b0 19 bd 46 09 47 3f a3 d8 cc 3d
       0.05501427 -0.037522133 0.77748525 0.10002258
0002e0 22 59 67 3d 0d 62 b2 3d dd 69 99 3e 6e 23 49 bd
       0.056481488 0.08710108 0.2996358 -0.049106054
0002f0 ef 44 d5 be e3 00 8e 3e 05 23 6b 3f e5 77 b5 3e
       -0.41654155 0.27735052 0.9185031 0.35443035
000300 e8 b9 52 be da c0 eb bc ee 7e 4d bf 7f 1f 98 be
       -0.2057873 -0.028778482 -0.80271804 -0.2971153
000310 4e 25 64 bd 62 38 41 3e 87 75 4f bf 73 45 74 bd
       -0.05569964 0.18869165 -0.8103871 -0.059636544
000320 55 9f af 3d c7 4c 91 3e a4 b4 3e bf ec f8 9f be
       0.08575312 0.2837889 -0.74494386 -0.312446
000330 5e 31 e9 be a2 82 c5 3e ee f4 17 3e fd 22 cf 3e
       -0.45545477 0.38576227 0.14839527 0.4045638
000340 e6 29 84 3e bc 27 83 3d b1 91 be be 38 72 04 be
       0.25813216 0.06404063 -0.3722053 -0.12934196
000350 8e 8b 4f 3d 7d 7a b3 bd 00 85 be bb 87 84 6d 3d
       0.0506702 -0.08763597 -0.0058141947 0.057987716
000360 2f df 9f be 84 fa 82 be 7c 3d 02 3f c1 9c db be
       -0.31224963 -0.25581753 0.5087507 -0.4289303
000370 2d 46 11 be da bc eb 3e aa 44 fb 3e bf 6e 40 3c
       -0.14186926 0.4604252 0.49075824 0.011745154
000380 68 14 ce be 43 e3 86 3e 5b 50 66 be 2b 1b 03 be
       -0.40249944 0.26345262 -0.2249159 -0.12803333
000390 46 f6 5b be 8f be 32 3c aa 58 55 3e 41 26 b1 3e
       -0.21480665 0.0109096905 0.20834604 0.34599498
0003a0 d8 8a c4 3c 7e 15 bf 3e fe 7b e5 3e cd a4 94 be
       0.023991987 0.37321085 0.4482116 -0.29031983
0003b0 e8 f4 81 3e ea 8a a5 be 1c ff 9e be 95 55 0f 3e
       0.2538216 -0.32332546 -0.31054008 0.1399749
0003c0 81 35 60 bb 56 6e a5 3e 04 14 58 3e f6 79 8b 3d
       -0.0034211578 0.32310742 0.21101385 0.068103716
0003d0 f2 cf 8b 3e be 8e ef be 71 ea c0 3e 14 d9 cb be
       0.27307087 -0.4678859 0.37678865 -0.39814055
0003e0 ab a7 2c bd 5b 41 a5 bd fa 2d fa be e0 10 d2 3d
       -0.042152088 -0.08069106 -0.48863202 0.10257125
0003f0 5b 24 f8 3e 7c 0f e8 bd e7 33 31 bf 31 63 5d be
       0.48465237 -0.113310784 -0.6921982 -0.2161987

fc1.bias f4 [128]
000000 2c 05 0e be cd fe 38 be 0a 77 d6 3d ac 68 23 3e
       -0.1386916 -0.18065949 0.10471924 0.15957898
000010 ce 9b 7e be 67 8d 48 3d f7 0a 88 3e bf 5f 27 be
       -0.24864122 0.048962977 0.26570866 -0.16345118
000020 6b eb 04 3e e2 42 bf bd 43 2c 48 3e 67 7f db be
       0.1298043 -0.09338929 0.19548135 -0.42870638
000030 69 f4 98 be 86 94 8b be bf 68 ed 3e d6 c9 4c be
       -0.2987397 -0.27261752 0.46368977 -0.1999887
000040 10 b1 b8 bc ba c1 8f be e7 94 fc 3e 21 37 00 3f
       -0.022545367 -0.2807749 0.49332353 0.5008412
000050 60 d4 e6 be 62 cc a8 be c6 b0 c5 be 2a 64 08 bd
       -0.45083904 -0.32968432 -0.3861143 -0.03329865
000060 98 c3 22 be 60 fa ac be 6b fd 85 be 62 8d 86 3d
       -0.15894926 -0.3378477 -0.26169905 0.065699354
000070 be ce 94 be 14 09 ff 3d de ac 7d be 7f 25 3d be
       -0.29063982 0.124529034 -0.24772975 -0.18471335
000080 74 2c 88 3d ac d3 d1 3e 41 2b a0 be 17 5e 38 3d
       0.06649104 0.40981805 -0.31283 0.045011606
000090 32 05 4b be ea 9c fb 3e e9 11 0e bf d2 6a f5 be
       -0.198262 0.49143153 -0.5549608 -0.4793306
0000a0 6f 96 f9 3e 9d 15 ad be e8 c8 4e 3e 9d a4 02 3d
       0.48747584 -0.33805552 0.20193827 0.03189527
0000b0 33 9b 47 bd cc 71 0e be e6 17 b6 3e 76 ed 96 3c
       -0.048731994 -0.13910598 0.35565108 0.018423777
0000c0 c2 86 ff be fe db 3d be 45 85 20 be 1d 4e 83 3e
       -0.499075 -0.18540952 -0.15675838 0.25645533
0000d0 5d 98 94 be 27 29 f7 3e 4b 65 bb bd 09 b9 02 be
       -0.29022494 0.48273584 -0.091501795 -0.12765898
0000e0 c3 c6 bc 3e 49 9e 95 3e 88 28 dc 3e 85 66 8f 3e
       0.36870393 0.29222324 0.42999673 0.28007904
0000f0 21 60 63 be 94 da b1 be e1 24 13 bc 54 26 c4 3e
       -0.22204639 -0.34737074 -0.008980961 0.38310492
000100 09 08 55 be 9e 01 db be a9 39 48 3e ad a8 e0 3e
       -0.20803846 -0.4277467 0.19553246 0.4387869
000110 58 da 36 be 7c bd f0 be e5 c5 ea be 58 f1 b3 3d
       -0.17856729 -0.47019565 -0.45854107 0.08786267
000120 43 77 26 bd ea 05 95 be d9 d4 36 3d 88 43 43 3e
       -0.04064108 -0.29106075 0.04463658 0.1906873
000130 42 64 df 3e 44 73 ce 3e 01 04 f6 bd 8c 23 0c bf
       0.43631178 0.40322316 -0.120124824 -0.5474174
000140 d8 53 e7 be d6 48 f2 3e 77 18 1d 3e 72 54 7c 3e
       -0.45181155 0.47321194 0.15341364 0.24641588
000150 f6 1e ea be 03 a7 fc 3e 94 96 fe 3e 0f 89 f2 3e
       -0.45726746 0.4934617 0.49724257 0.47370192
000160 30 f5 d7 be 2e d8 6e be f9 75 ef be 5d 01 dd 3e
       -0.4217925 -0.23324654 -0.46769693 0.43165103
000170 50 3e 83 be 89 92 5e be ef ab 8f 3e 0e 66 a4 be
       -0.25633478 -0.21735586 0.28060862 -0.32109112
000180 5f 84 a3 be 22 0a 5f bd 10 57 94 bd e7 75 d0 be
       -0.3193693 -0.054453023 -0.07243168 -0.40714952
000190 e1 ed df 3e be 27 9b be f3 28 2b 3e 70 aa d9 3e
       0.43736175 -0.30303758 0.1671484 0.42512846
0001a0 44 d9 76 3e 60 ae 42 3d 85 14 db 3e 6a d9 c2 3d
       0.24106318 0.04752958 0.42789093 0.09514125
0001b0 0d e6 60 be c7 cf fc 3e 85 9f f7 3d a0 28 12 bf
       -0.21962757 0.49377272 0.12090973 -0.5709324
0001c0 80 07 5b be 90 37 a7 be b3 42 c6 3e 28 5f 9b bd
       -0.2138958 -0.32659578 0.38722762 -0.07586509
0001d0 e5 54 12 bf 60 d2 fb bd 24 aa a0 3e c3 e6 e2 3d
       -0.5716079 -0.12295985 0.31379807 0.110791706
0001e0 8e 31 23 3e 1c 75 18 3e 28 85 4c 3e 43 91 fa bd
       0.15936872 0.14888424 0.1997267 -0.12234738
0001f0 5a 76 9d be 04 c5 e6 be 54 b2 c5 be 40 f9 6d 3e
       -0.30754358 -0.45072186 -0.38612616 0.23239613

fc2.weight f4 [256, 128]
000000 cd 77 31 3b a1 96 49 3d cf 21 19 3d 51 7a 9e 3c
       0.0027079463 0.049215917 0.037385758 0.019345434
000010 44 99 ec bc b5 ae f4 3d e4 ea ba bd 54 07 89 3d
       -0.028881676 0.11947385 -0.09126833 0.06690851
000020 f6 7a 3a bd 6a 08 83 3c 32 10 14 3d 75 08 f0 bc
       -0.04552742 0.015995223 0.036148258 -0.029300908
000030 54 00 12 3e 3a c6 96 be e6 e4 77 bd bb 68 4d bd
       0.14257938 -0.2944811 -0.06052103 -0.050148707
000040 47 c3 82 3c 8a c2 cb 3d 41 69 5e bd 16 1c 2a 3d
       0.015962256 0.09949215 -0.054299597 0.04153069
000050 8d 5a 24 be 0e ed 51 be c2 4c 60 3b e2 6e 58 bb
       -0.16050167 -0.20500585 0.0034225439 -0.0033025076
000060 70 01 d3 3d 5f 06 3b 3d b0 f7 1c 3d f5 52 6e 3c
       0.103030086 0.045660373 0.03832215 0.014546146
000070 cd c4 0b be cb 14 4e 3d e4 16 d9 bc 1b cf 9c 3c
       -0.13649292 0.0503128 -0.026500173 0.019141724
000080 35 86 2c bd 63 6f 15 3d b6 1b 55 bc 63 a2 be bc
       -0.042120177 0.03648318 -0.013007095 -0.023270791
000090 6b 06 e4 3c 03 8a 99 3c 8c ca 08 be 77 ea c3 bc
       0.027835092 0.018742567 -0.13358516 -0.023915512
0000a0 99 21 a5 3d c1 a5 18 be 2b 77 76 bc 89 14 c7 bd
       0.08063049 -0.1490698 -0.01504306 -0.09720714
0000b0 c0 2f 8d bd 39 79 65 3e a1 d7 0e bc 99 52 b7 3d
       -0.06893873 0.22409524 -0.008718402 0.08951301
0000c0 44 78 29 be 85 7c 0b 3d d9 f8 b2 3d 77 28 9f bd
       -0.16549784 0.034054298 0.0873887 -0.0777139
0000d0 48 d1 8c be 86 fc b9 3d fb af 99 bd ca ec 5f be
       -0.2750342 0.09081368 -0.07504269 -0.21867672
0000e0 97 49 8c 3d eb fb a6 bd 33 4e 4e 3b f5 04 0b bc
       0.06849974 -0.08153518 0.0031479716 -0.008485069
0000f0 f3 45 ee bd da 1e fc 3c 3a 1c 61 be 13 9d 52 3d
       -0.116344355 0.03077643 -0.21983424 0.05141933
000100 78 9c 92 bc 06 73 2b be 5a da 84 3b 17 1c cd 3d
       -0.017896876 -0.16743097 0.00405435 0.10015123
000110 1f a7 26 3c f4 37 87 3d 27 27 04 be d1 e5 e0 bc
       0.010171681 0.06602469 -0.1290556 -0.027453335
000120 51 0f 59 be 83 87 28 be c2 91 69 3d e3 e1 33 bc
       -0.21197249 -0.16457944 0.05702377 -0.010979149
000130 fd 32 19 bc 9f a8 31 3d 5d dc 00 3d 3b 50 b0 3d
       -0.009350535 0.0433737 0.031460155 0.08609053
000140 4e cf 92 3d 77 06 07 bd 69 00 bf 3c 60 cd 90 bc
       0.071684465 -0.03296515 0.023315625 -0.017676055
000150 08 48 ca bc ea 4a 2d 3c 22 51 ae 3d bd ff 7f bd
       -0.02469255 0.010576943 0.085115686 -0.06249975
000160 80 1b 5b 3d 4d 29 2b bd 0f 6b 94 bd bb 7c 65 3d
       0.053493023 -0.041787434 -0.07246982 0.056027155
000170 a3 11 a5 bd 6f e3 47 3e 27 5f 5f bd ea bc 40 3d
       -0.080600046 0.19520353 -0.054534104 0.047055162
000180 6b a7 ec bc 9f a9 5c be 0b 0b 47 bd d1 c0 10 be
       -0.028888425 -0.2154908 -0.048594516 -0.14136054
000190 be 4e 1a bd 17 a5 1a 3d 50 2b 59 3d 71 01 1e 3c
       -0.03767275 0.0377551 0.05301982 0.009643898
0001a0 b1 d1 1c 3d 8e 6d 5f 3d 52 c3 95 3d 40 2e de bc
       0.038285915 0.05454784 0.07312645 -0.027121663
0001b0 f7 c0 f8 3d a9 1d 95 bc be 7c c4 bd e2 97 d4 bc
       0.1214618 -0.01820262 -0.09594105 -0.02595133
0001c0 f1 22 ef 3d cc 92 e7 3d be 34 6f 3c 77 c5 9c bb
       0.116765864 0.11307296 0.014599977 -0.004784282
0001d0 b1 fd 51 be 65 15 d1 3d bf b0 17 bd 82 06 5f bd
       -0.20506932 0.10209159 -0.037033793 -0.054449566
0001e0 11 81 c0 bc 70 8b 17 3d 1e 66 7e bd e0 de 56 3e
       -0.023499044 0.036998212 -0.062109105 0.20983458
0001f0 ff dd 90 3d ad 66 04 be 01 54 42 bd 58 63 68 3d
       0.070735924 -0.12929793 -0.047443394 0.056735367
000200 f5 7a 9b bd 9d a1 d3 bc 3c 4d b0 3c aa 26 95 bd
       -0.075918116 -0.0258339 0.021521203 -0.07282765
000210 e4 2a 24 3d 19 3d 2b 3d ed 77 41 3d 14 d1 66 bd
       0.040079966 0.041806314 0.04723351 -0.056351736
000220 89 38 a4 3d 43 9a 56 bd 9d d8 a4 3d f7 b8 ad bd
       0.08018596 -0.05239321 0.08049128 -0.08482545
000230 65 48 a1 bd 74 7a 39 3d d4 75 f8 3a 0a 16 a7 3b
       -0.07875136 0.045282796 0.0018956014 0.005099063
000240 61 7b 48 bd c3 07 39 bd fb e6 02 bd 27 6f bf bd
       -0.04894579 -0.045173418 -0.03195856 -0.093473725
000250 96 83 7a bb 4c fd 9d bc fa ee 9c b8 83 4f a9 3c
       -0.0038225404 -0.01928582 -7.4831725e-05 0.020667797
000260 0d 2b 9b 3d da 16 6d 3c 00 e6 27 bd ee fe 14 bd
       0.07576571 0.01447078 -0.04099083 -0.036375932
000270 a1 7d 84 bd 35 95 83 bd 9f 39 69 bc 7a 10 80 bc
       -0.06469274 -0.06424943 -0.014234929 -0.015632857
000280 b3 0e 21 3d d9 be 37 bd 2d 4f 90 3d ff ad 8e bd
       0.03932066 -0.04485974 0.070463516 -0.06966781
000290 ae b5 83 39 a9 6a 93 3d a3 90 a1 3d 20 b7 51 bd
       0.0002512163 0.07198078 0.078889154 -0.051200032
0002a0 45 28 06 3c 58 0f 2b 3c 86 51 49 bd 3d 2a fa bc
       0.008188312 0.01044067 -0.049150012 -0.030537719
0002b0 06 2d 7b 3c c4 bf 7b bd c8 72 eb 3b bf a9 1c 3d
       0.015330559 -0.06146218 0.007185314 0.03824782
0002c0 36 aa 7b bd 7f b1 3d 3d 22 5f 64 bc c3 70 10 3d
       -0.061441623 0.04631185 -0.013938697 0.035263788
0002d0 e8 54 7d 3d 96 e2 0a bd b8 41 21 3d 0b 22 08 bd
       0.06184855 -0.033907495 0.039369315 -0.03323559
0002e0 11 4c a7 bc a1 6b 75 bc d2 a4 04 bc ae f6 ea bc
       -0.020422013 -0.014979274 -0.008095937 -0.02868208
0002f0 1d e7 4a 3c a3 44 5a 3b 1c 7e 65 3d dc 57 cf bc
       0.012384203 0.003330507 0.05602847 -0.02531045
000300 ee 19 14 3a c5 ac 06 bd 30 ac 8d bd a3 df e7 3c
       0.0005649616 -0.03287961 -0.06917608 0.02830488
000310 80 f3 53 3b 98 fd 10 bd 6b d0 f4 bc 52 de 81 3c
       0.0032341182 -0.035398096 -0.029884538 0.01585308
000320 e8 ec 82 bc 5b 8c 47 3d 4d c9 1d bb 5f 1c d7 3c
       -0.015982106 0.048717838 -0.0024076283 0.026258646
000330 9e b8 32 3d 44 42 ed bc 34 a4 1c 3d 87 94 85 3d
       0.043633096 -0.028962262 0.038242534 0.0652247
000340 8e 48 85 3b e6 c6 23 3c 39 48 93 bb 41 b7 5d 3d
       0.004067487 0.009996152 -0.0044946936 0.054129843
000350 dd d9 18 bd c4 aa 47 bd 96 5b 01 3d de 8e a9 bd
       -0.037317146 -0.04874684 0.031581484 -0.08279203
000360 65 bd b9 3a 94 7f 26 bd 2a f5 6e 3d 16 14 b8 bd
       0.0014170824 -0.04064901 0.058339275 -0.08988206
000370 0d 84 5b 3d 5a 0b 70 3d f9 a4 45 3c b0 f8 c0 bb
       0.05359273 0.058604576 0.012063258 -0.005889021
000380 b5 2f b2 3d 30 81 3a bd 71 17 e8 bb dd 89 1e bd
       0.08700506 -0.04553336 -0.0070828726 -0.038705695
000390 19 fd 81 bc c4 5e 9d 3c 58 62 8c 3b e2 dc c4 bc
       -0.015867757 0.019210227 0.0042841844 -0.024031106
0003a0 90 fd b4 bd 89 4d 94 3b 2d 77 23 bc 5a 51 12 3c
       -0.08837426 0.0045258445 -0.009977144 0.008930529
0003b0 9e 72 6f 3d f5 9c a0 3d 8b ca 56 bd 07 99 b4 bb
       0.058458917 0.07842437 -0.052439254 -0.0055114063
0003c0 31 0f 11 bd ef d5 a6 bd e0 e3 92 bd 9f 2b 98 3d
       -0.03541488 -0.08146273 -0.0717237 0.07430195
0003d0 9f 74 2b 3d 2f 78 42 3d f0 f1 29 3d 72 c4 99 bd
       0.041859265 0.047477897 0.041490495 -0.07508172
0003e0 85 15 18 3c b6 f1 9e 3d 94 a9 5f bd a5 08 a1 3d
       0.009282474 0.077609465 -0.05460508 0.07862977
0003f0 bd 50 be 3c c0 b5 7e 3d c8 17 1b bd ce 47 19 3d
       0.023231858 0.06218505 -0.037864476 0.037421994

fc2.bias f4 [256]
000000 20 d8 8a bc dd 1a c0 bd e1 76 ee 3c bf 81 45 3d
       -0.01694876 -0.09380124 0.02910942 0.04821944
000010 4e 98 03 3e 72 1f 33 3d dc 07 1f 3d 92 7a db 3d
       0.12851068 0.04373116 0.038825855 0.10716738
000020 cb bb e8 bc 47 97 08 bd f2 96 ce 3d fa 83 aa bd
       -0.02840986 -0.033347394 0.10087384 -0.08325954
000030 9c e7 0a 3c 04 2e 1c bd f6 07 8e bd 23 f3 93 bc
       0.008478072 -0.03812982 -0.06935112 -0.018060273
000040 ea 7e 70 3d 97 f6 a4 3d 32 cb b6 3d 96 9a c6 bc
       0.058714785 0.08054846 0.08925475 -0.024243634
000050 69 2f 00 3d de bb 9a 3d 9e 18 a4 bc c2 45 9c 3d
       0.031295214 0.07555364 -0.02003127 0.07630493
000060 94 be 97 3d 85 89 b9 bd 47 28 ea bb 17 a8 1b bd
       0.07409397 -0.09059433 -0.0071459147 -0.0380021
000070 5a 4e 37 3d 78 65 a1 3d 9c 5a d7 bc a4 5a f0 3c
       0.044752456 0.07880682 -0.026288323 0.029340096
000080 22 84 bd 3d e7 d1 7e 3d e3 a2 67 bd b9 50 d0 3c
       0.09253718 0.062211897 -0.056551825 0.025429117
000090 c0 2b c4 bb 07 5a 31 3d b5 6d 6b 3d c6 70 a4 3c
       -0.0059866607 0.043298747 0.05747767 0.020073306
0000a0 66 6b 97 3c 2b cc b2 bd a0 fa a1 3d 4c 0d 00 3d
       0.018483829 -0.08730348 0.07909131 0.03126268
0000b0 2c 36 97 bb 86 e1 0f 3d 94 d3 4d 39 07 b8 1b 3d
       -0.004614612 0.035127185 0.00019629142 0.0380173
0000c0 03 89 08 bc 34 7a 7a 3d b3 98 cc bc 77 16 93 3d
       -0.008333447 0.0611517 -0.024975156 0.07182019
0000d0 88 a4 05 3e 72 9a 27 3d 4b 6a 63 bd ab 4f 7b 3d
       0.13051045 0.040918775 -0.05552129 0.061355274
0000e0 28 49 0a 3e 37 5d a9 3d 30 be 58 3d 84 a9 87 bc
       0.1350447 0.082697324 0.052915752 -0.016560324
0000f0 d7 4a a5 3d cc 42 06 3e 6b 24 02 3e ab 06 04 3d
       0.08070915 0.13111418 0.12709205 0.03223292
000100 8a c0 fb bc 71 a7 ea 3d e8 e4 c5 bc 73 fc 52 bd
       -0.030731458 0.11457718 -0.024157003 -0.051510286
000110 41 24 9d 3d 9d e3 55 3d 45 27 d5 bd 55 b1 2c bc
       0.076729305 0.052219022 -0.10407881 -0.010540326
000120 1e 1b bf 3c 65 40 7f 3d e7 f0 d0 3d c5 db 8d bd
       0.02332836 0.06231727 0.102021985 -0.06926683
000130 fb 71 ab 3d 56 94 81 bc 4c a9 e7 3d e7 26 dd bc
       0.083713494 -0.015817802 0.11311588 -0.02699609
000140 7e 5d 83 3c 40 bb a0 3c af 49 94 3c 0f 6d b1 3d
       0.016035791 0.019620538 0.018101541 0.086633794
000150 7e be 30 bd 9f b6 92 3d 24 1c 01 bd 3f 97 f9 bc
       -0.043150418 0.071637385 -0.031520978 -0.030467628
000160 71 62 17 bd 86 fb f8 3d 0e 86 3e 3d ec 87 dc bb
       -0.036959115 0.12157349 0.046514563 -0.0067300703
000170 c9 56 d9 3d 23 01 42 bd 5a c7 e3 3c 77 34 f9 3a
       0.10612256 -0.047364365 0.02780502 0.0019012828
000180 f8 ce af bd 3e 69 5c 3d b9 06 42 3c d3 be 47 bd
       -0.08584398 0.053811304 0.011842423 -0.04876597
000190 e1 96 56 3b 87 b0 26 3a 39 d2 0f bd c8 18 4f bd
       0.003274374 0.0006358702 -0.035112593 -0.050560743
0001a0 53 0a aa 3d 86 0e a4 3d 1a e8 ca bd b3 cf af bc
       0.083027504 0.080105826 -0.09907551 -0.021461343
0001b0 78 88 89 bd 2c b5 d9 bb 20 78 0f 3c 90 52 a4 3c
       -0.067154825 -0.006643912 0.008756667 0.0200589
0001c0 04 ca 31 bd 60 6e 33 bd 2c 36 fb 3d ca 06 04 3e
       -0.043405548 -0.043806434 0.12266192 0.12893215
0001d0 71 5e a1 bd ab 38 57 bd 2b b3 f5 38 2f 05 03 bc
       -0.078793414 -0.052544277 0.00011715883 -0.007996841
0001e0 86 26 78 3d 14 38 2a bd c6 9e fa bc bf 28 54 3d
       0.060583614 -0.041557387 -0.030593287 0.05179667
0001f0 d5 e4 2a bc 48 cd 96 bc b6 53 3e 3d 97 09 86 3c
       -0.010430534 -0.018408433 0.04646655 0.016361995
000200 6c 3a 80 bb 86 17 9c 3a 3b 50 7d bc eb 00 b5 3c
       -0.0039132144 0.0011908866 -0.015461023 0.022095164
000210 cc 17 9e bd fd 0d 4b bc 5f 9d c4 bc 69 7b 47 3c
       -0.07719383 -0.012393472 -0.024000822 0.012175419
000220 b3 ef a2 3d c1 8f 95 bd 89 97 a5 3c bc b0 c9 b9
       0.07955875 -0.073028095 0.02021386 -0.00038469385
000230 15 f3 80 bd ad a6 66 3c cc d0 aa bd e1 f6 7a bd
       -0.06296364 0.014077825 -0.08340606 -0.0612706
000240 48 32 80 3d af dd 26 bd f7 fb 4d bd 38 95 12 bd
       0.062595904 -0.040738758 -0.05028912 -0.035786837
000250 16 ee 5d 3b 01 a4 2c 3d c0 63 94 bd 8e 8f 13 3d
       0.0033863834 0.042148594 -0.07245588 0.036025576
000260 a8 72 ad bd 38 65 33 bd fd df d1 3d 1d 94 1d 3d
       -0.084691346 -0.0437977 0.102478005 0.03847133
000270 94 0b e7 3d 9a ac a1 3d dd 05 ac 3d 76 6f e0 3d
       0.11281505 0.07894249 0.08399556 0.109587595
000280 47 97 16 3d 06 fa d4 bd 72 be 34 3d 24 c8 3c 3d
       0.036765363 -0.10399251 0.044126935 0.046089306
000290 d9 8b a7 bc 0f 1e 15 3c 7f a8 0a 3d 10 18 3c 3d
       -0.020452427 0.009101405 0.033852097 0.045921385
0002a0 60 51 9f bc aa ab 7d bd ab 7d 8b 3d 55 72 6c 3d
       -0.019447982 -0.06193129 0.06811079 0.057726223
0002b0 a6 44 d2 bb 4e e0 01 3e c3 79 50 bd f6 d3 99 bd
       -0.006416875 0.12683222 -0.05089737 -0.075111315
0002c0 aa a5 92 3d 21 2f ad 3d 79 88 a9 3c a3 47 4e 3d
       0.07160504 0.08456255 0.020694958 0.050361287
0002d0 64 c7 8f bd 64 37 9e 3d d5 f7 4a bd 59 ca 6c 3d
       -0.070204526 0.07725409 -0.049552757 0.05781016
0002e0 99 78 90 3d f2 83 39 3d b9 cb c4 3d 1c 37 97 bc
       0.07054252 0.04529185 0.096091695 -0.018458895
0002f0 df 99 aa bb 14 6b b5 bd 42 5c 80 bd 53 24 aa bc
       -0.005206331 -0.08858314 -0.06267597 -0.020769274
000300 fc de 81 bd 31 e5 8a b9 08 58 57 3d 64 62 d4 bd
       -0.06341359 -0.00026492172 0.052574188 -0.10370329
000310 c7 87 87 3d 27 55 87 3d 13 b7 91 bd fa f7 f4 bb
       0.06617694 0.066080384 -0.07114997 -0.00747585
000320 68 af da 3d ce b6 11 bd 3b 93 e2 3d 24 10 b3 bb
       0.10677987 -0.035574727 0.11063238 -0.0054645706
000330 c2 21 12 bb b7 11 a9 bd 48 84 5e 3d 41 e6 8e 3d
       -0.0022297953 -0.08255332 0.054325372 0.06977511
000340 f8 33 8c 3d 00 1e 28 3d c9 14 76 3d 50 de 60 3d
       0.0684585 0.041044235 0.060078416 0.054899514
000350 72 90 d1 bb e0 a9 4b 3c 55 e8 80 3d 53 c0 1d 3d
       -0.006395393 0.012430638 0.06294314 0.038513493
000360 c1 c6 2e 3d 91 02 cf bc 03 0e 36 3d 72 ba eb 3d
       0.042670015 -0.025269778 0.044446956 0.11510171
000370 f3 6f 63 3d 11 22 56 bd 2f 7f a6 3c b1 f7 c4 bd
       0.055526685 -0.052278582 0.020324318 -0.09617556
000380 12 13 a4 3c e8 e5 fd 3b 96 bd c8 3b ff c1 50 bd
       0.020028625 0.007748354 0.006126116 -0.05096626
000390 fb 96 35 3b 9e a0 36 bd a4 34 e1 bd 69 cb 07 3d
       0.00277084 -0.04458677 -0.109963685 0.03315297
0003a0 be 74 8c b9 01 95 c6 bd 1e da 9f 3c 0d 28 b1 bd
       -0.0002678986 -0.09696389 0.019513186 -0.08650217
0003b0 18 f1 1d bc a0 dc ab bd ea eb 61 3c e4 e7 3c bc
       -0.009640001 -0.0839169 0.013789156 -0.011529896
0003c0 d1 fb 4a bd b1 55 1e 3d 3f 55 4b bd 44 2c 14 bd
       -0.049556557 0.03865594 -0.049641844 -0.036175027
0003d0 74 a6 d1 3c e8 b0 70 3c 3c 7c 23 ba de 8c d7 bc
       0.025592066 0.014690615 -0.0006236469 -0.026312288
0003e0 2c 10 7f bd b9 92 ce bc 01 0e c6 3d 04 89 ae bd
       -0.062271282 -0.025216447 0.0967064 -0.085222274
0003f0 2e 03 0f bd cc d3 25 bd 36 34 69 3d 98 59 10 3d
       -0.03491514 -0.04048519 0.056934558 0.035241693

fc3.weight f4 [128, 256]
000000 d8 b4 b1 3c b0 6c d5 bb e2 5c 66 bd f0 f2 20 3c
       0.021692678 -0.0065132007 -0.056240924 0.009823546
000010 10 a9 04 bc 20 a1 f7 3b 40 5b ba 3b 66 e2 6e bd
       -0.008096948 0.0075570494 0.0056871474 -0.05832138
000020 2a 63 5e bd 1c a8 30 3d c0 db 73 bc b8 28 92 bc
       -0.05429379 0.04312907 -0.014883935 -0.017841682
000030 80 c0 20 3b 66 55 58 bd 80 82 b3 ba b4 95 06 3d
       0.0024528801 -0.052815817 -0.0013695508 0.03285761
000040 e4 88 a7 3c 44 f7 47 bd 40 fe 9f 3c 1c 6e 21 3d
       0.020451017 -0.048819795 0.019530416 0.03941165
000050 f2 aa 28 3d 58 b1 c4 bc 7c 8c a6 bc b0 bc 25 bd
       0.04117865 -0.024010345 -0.02033066 -0.04046315
000060 58 b4 cf 3c c2 40 32 3d 8c 4d 25 bd f8 fb d4 3c
       0.02535455 0.04351879 -0.040357158 0.025999054
000070 b4 91 92 3c 70 72 84 3b 38 b8 48 3d 08 05 0b bc
       0.017891742 0.0040419623 0.04900381 -0.008485086
000080 98 88 74 bc 96 bf 2e bd f8 d3 50 3d 12 3b 05 3d
       -0.014925145 -0.04266318 0.0509834 0.032527037
000090 c6 8e 58 3d 38 e4 07 bd 50 3a 05 bc 00 7a 59 3c
       0.052870534 -0.03317663 -0.008131579 0.013273716
0000a0 ae 5e 76 bd d0 48 77 bd 74 86 dd bc b0 a9 1e bd
       -0.060148887 -0.060372174 -0.027041651 -0.038736045
0000b0 0c ca 71 3d 22 0d 4d 3d 7c 3c f2 bc 28 a1 64 bd
       0.059030578 0.050061353 -0.029569857 -0.055817753
0000c0 10 ed 6d bd 30 bc 88 bb 6a 24 4e bd 8a b3 0e bd
       -0.05808741 -0.0041728243 -0.050327696 -0.03483919
0000d0 9c e3 b1 3c 20 e7 c6 bc f0 84 f4 bc 38 a6 24 bc
       0.021714978 -0.02428013 -0.029848546 -0.010049395
0000e0 ea 20 69 3d ea aa 08 3d 48 45 1e 3c b8 7b 2a 3d
       0.056916155 0.03336612 0.009660073 0.041621894
0000f0 38 86 4d bc 80 f2 80 bc f0 0e f1 bb c0 fd fb ba
       -0.012544207 -0.015740633 -0.007356517 -0.0019225404
000100 3c 47 b2 bc 38 73 2b 3d 50 57 00 3d a6 9d 7c 3d
       -0.021762483 0.041857928 0.031333268 0.061673783
000110 26 13 75 bd 6e 7d 5d bd ea 1a 00 bd 80 46 a0 3a
       -0.059832714 -0.054074697 -0.031275667 0.0012228042
000120 60 4f 3f 3c 2c 01 13 3d 22 f0 63 bd 70 b6 1e bd
       0.011676639 0.03588979 -0.05564893 -0.038748205
000130 d0 00 1b 3d 58 7e 14 bc 7c c2 48 bd e2 8e 5b bd
       0.03784257 -0.009063326 -0.0490136 -0.05360306
000140 34 63 70 3d 40 6a 28 bb 3a 0c 20 3d ea e8 5e bd
       0.058688357 -0.0025698096 0.03907416 -0.054421343
000150 c0 48 64 bb ec 02 89 3c de fd 48 bd 88 57 67 3c
       -0.0034833401 0.016725026 -0.04907023 0.01411999
000160 a4 95 4c bd 40 40 78 bd c0 29 c9 3a 78 49 1f 3d
       -0.049947396 -0.06060815 0.0015347525 0.038888425
000170 00 87 80 39 ec f4 81 bc f4 e9 09 3d 22 04 25 3d
       0.00024514645 -0.015863858 0.03367038 0.040287144
000180 00 df 49 bb 78 96 f8 3c a8 80 09 bd 20 76 55 bd
       -0.0030803084 0.030345187 -0.03356996 -0.052114606
000190 d0 37 b5 3b ec a2 0b bd c4 4a 09 3d a0 28 49 bc
       0.005530335 -0.03409092 0.033518568 -0.012277752
0001a0 70 43 22 bc 22 c4 25 bd 18 3e 15 bc 28 64 3a 3c
       -0.009903774 -0.04047025 -0.009109043 0.011376418
0001b0 3a 80 12 3d 92 43 09 bd f8 2b 65 bc 32 07 1b bd
       0.035766818 -0.033511706 -0.013987534 -0.03784866
0001c0 c0 c5 ca bb 88 ad 88 bc 38 a1 d3 3c 00 61 4d 3b
       -0.0061881244 -0.016684309 0.025833711 0.0031338334
0001d0 a0 73 fc 3c ba 38 0e 3d fc f6 79 bd ec db 84 3c
       0.030816853 0.034722067 -0.06102656 0.016218148
0001e0 40 1b 5f bc 20 43 0e bb 80 4a 90 3a 84 0b 46 3d
       -0.013617337 -0.002170749 0.0011008531 0.048350826
0001f0 f0 59 41 bc 52 fa 76 bd 30 13 38 3c e0 42 80 bc
       -0.011801228 -0.060297318 0.011235043 -0.015656888
000200 c0 07 ae 3b 3c 53 3e bd dc 6a f4 bc e0 21 ce 3b
       0.0053109825 -0.046466097 -0.02983611 0.0062906593
000210 04 64 7e 3d a0 1c 79 bd 22 b7 1b 3d 70 16 ab 3c
       0.0621071 -0.060818315 0.038016446 0.020884722
000220 da bc 2e bd e2 d3 79 3d cc d7 fa bc 80 e4 46 bc
       -0.04266057 0.060993083 -0.030620478 -0.01213944
000230 20 22 5b 3c 58 61 0c 3d b0 6b 40 bc 86 7e 5f 3d
       0.013374835 0.03427252 -0.011744425 0.05456402
000240 cc 00 97 bc 70 ba 31 bd ee 97 27 bd a8 a7 09 3c
       -0.018432997 -0.04339069 -0.040916376 0.008401789
000250 ec ce 39 bd 84 4f 1d 3d 12 4d 45 bd 90 75 30 3c
       -0.04536335 0.03840591 -0.048169203 0.010770217
000260 60 6e 6f bc 8c a7 50 3d 68 b7 12 3d 00 a0 54 37
       -0.014613718 0.050941035 0.03581944 1.2673438e-05
000270 00 90 fd 3a 9c 27 99 bc 8c 71 af bc 10 05 3e 3d
       0.0019345284 -0.018695645 -0.021416448 0.046391547
000280 68 3c e3 bc 0c a6 75 3d 64 8d 65 bd e8 1b 89 3c
       -0.027738765 0.059972808 -0.056043044 0.01673694
000290 3c 7b de bc 9a 65 50 3d e0 8a 29 bb 20 3e e5 3b
       -0.027158372 0.050878145 -0.002587013 0.0069959313
0002a0 a0 f9 27 3d 90 a0 3e bc 46 75 60 bd 82 31 39 3d
       0.041009545 -0.011634961 -0.05479934 0.04521323
0002b0 c0 61 6c 3c 40 1f 6a bb 38 26 ed bc e0 8b 92 3c
       0.014427602 -0.0035724193 -0.028948888 0.017888963
0002c0 5a 6e 0f 3d b2 ba 1c bd e8 b9 97 bc 64 fb b5 3c
       0.03501735 -0.038263984 -0.018521264 0.022214599
0002d0 68 ba 1d bd 78 eb 54 3d fa 3c 68 3d f8 f9 7a bc
       -0.03850785 0.051982373 0.056698777 -0.015318386
0002e0 4a 5e 4e 3d 84 a9 27 bd 80 7b c6 3b 46 89 1f bd
       0.05038289 -0.040933147 0.006057203 -0.038949274
0002f0 68 07 d2 3c 76 91 2b 3d 44 27 25 bd 66 9e 29 bd
       0.025638297 0.04188677 -0.04032065 -0.041410826
000300 de b1 07 3d 1e 24 16 3d 9c 8b 38 bd 60 18 0a bb
       0.03312861 0.036655538 -0.045055017 -0.0021071658
000310 d0 76 2c bd 00 e9 63 3c 08 41 23 bd 5a 3d 0b 3d
       -0.042105496 0.013910532 -0.03985694 0.033994056
000320 38 3a b8 bc 8c 16 65 3d a8 4d c9 bc dc 6d 12 bd
       -0.022488698 0.055929706 -0.024573162 -0.0357493
000330 90 f0 47 bc a0 92 55 3d ec ec f2 3c 40 ac ab bb
       -0.012203351 0.052141786 0.029653989 -0.0052390397
000340 90 a4 1f bd b0 ff 68 bc a0 2e 71 3d 60 a1 62 3c
       -0.0389753 -0.014221117 0.058882356 0.01383242
000350 5e b7 47 3d 7e 75 20 3d 30 86 9e 3b 0c 39 3d bd
       0.048758857 0.03917455 0.0048377737 -0.046196982
000360 ac 59 63 3d 90 b4 d0 3b 48 9a 5b 3c 82 44 1f bd
       0.05550544 0.006369181 0.013403483 -0.038883694
000370 fc bb 82 3c 48 46 40 bc 30 4d 45 bd fc 8f 64 3d
       0.015958779 -0.011735506 -0.048169315 0.055801377
000380 68 86 7d bc d6 8f 15 bd 0e 99 40 bd dc c0 7c 3d
       -0.0154739395 -0.036514126 -0.047020964 0.061707363
000390 3c df 61 3d c4 ac 73 3d b0 e5 75 3d 76 34 14 bd
       0.055144534 0.059490934 0.0600335 -0.036182843
0003a0 b4 4b 75 bd ba 51 36 3d aa cd 4c bd 10 45 6b bc
       -0.05988665 0.044511534 -0.050000824 -0.0143597275
0003b0 c0 ad 9a ba e4 10 b8 bc ea 2e 02 bd 98 8f ae bc
       -0.0011801049 -0.022468992 -0.031783022 -0.021308705
0003c0 c8 a4 2a 3d d8 3a 7a 3d dc a1 a0 3c b4 4d 47 bd
       0.041661054 0.061091274 0.01960843 -0.048658088
0003d0 28 f4 fe bc 00 4b e0 bb 04 8c 9f 3c 1c f8 37 bd
       -0.031122282 -0.006844878 0.019475944 -0.04491435
0003e0 4a aa 74 3d f4 b6 c7 bc 9e 47 17 bd 2c e3 6f bd
       0.059732713 -0.024379231 -0.036933534 -0.058566257
0003f0 52 cd 46 bd 8c 6e 96 3c 96 f1 0d bd 2e 33 16 bd
       -0.048535652 0.01836326 -0.034654222 -0.036669903

fc3.bias f4 [128]
000000 ca cf 4b 3d 88 f1 a8 3d 92 d1 b4 3b 8b ab b4 3d
       0.04975871 0.082491934 0.005518147 0.08821782
000010 d6 c9 e9 3c 9b ea 8f bc c1 89 94 bd fc a7 54 bd
       0.028538626 -0.017567923 -0.07252837 -0.051918015
000020 00 69 24 bd 28 b2 6b bc 04 00 6b 3c c6 7c bd 3d
       -0.0401392 -0.0143857375 0.014343265 0.09252314
000030 0a 46 87 3d 47 bc 64 3d 23 ba 78 3d 96 47 cc bc
       0.06605156 0.055843618 0.06072439 -0.024936479
000040 16 90 46 3c 5c 74 85 3c 5d 5a 18 bc 05 66 0a bd
       0.012119314 0.016290836 -0.009298888 -0.0337887
000050 a4 e5 7a bd 08 40 ba 3d 61 de b6 3c dd 8a 07 3d
       -0.06125416 0.09094244 0.022322835 0.033091415
000060 15 3e f7 3c 98 31 77 bd 0a b2 7c 3c 01 02 f8 3d
       0.03018097 -0.06035003 0.015423307 0.12109757
000070 9d a5 2b 3c c0 80 9f bb 2c fd de 3c b1 97 af 3d
       0.010476497 -0.004867643 0.027220331 0.08573855
000080 7a 10 02 3c 3d bd 12 3d 9d d6 4e 3d d4 d7 45 3c
       0.007938499 0.035825003 0.05049764 0.012075383
000090 5f 23 f4 3c 58 31 14 bd 3c f6 68 3d a9 a0 2f 3d
       0.029802023 -0.03617987 0.056875452 0.042877827
0000a0 75 08 67 3d ce 23 fc 3d d4 34 e6 bb 2e b0 57 bd
       0.05640455 0.12311517 -0.0070253406 -0.052658252
0000b0 3e 70 9d 3c 79 98 3c 3c 28 37 1c bc d4 22 25 bd
       0.01921856 0.011510962 -0.009534635 -0.040316418
0000c0 7e 38 d9 3d 74 b8 2c bd cc 92 d1 3d dc b7 44 3d
       0.10606478 -0.042168096 0.102330774 0.048026904
0000d0 04 f8 bd 3d 30 a8 01 bd d2 01 3e 3d 82 85 f3 3d
       0.09275821 -0.031654537 0.046388455 0.11890699
0000e0 4f 41 45 bd 2b 58 06 3d ea a7 0d 3c c8 fa 27 3d
       -0.048157986 0.032798927 0.008645991 0.041010648
0000f0 80 10 85 3b 80 ad d9 bc 3a fe 87 3d d7 0f b4 3d
       0.004060805 -0.026571989 0.06640287 0.08792084
000100 76 3a 30 bd f5 fe f2 3d 37 93 aa 3c 38 3c 9f 3c
       -0.043024503 0.118650354 0.02082215 0.019437894
000110 e7 0b 81 bd 09 0e 69 bd 32 96 ae 3c 4c 33 dd bc
       -0.06301098 -0.05689815 0.021311853 -0.027002
000120 ff 69 ff 3c e6 3f fc 3d 37 27 c5 3d 18 ae a9 3d
       0.031178473 0.12316875 0.0962662 0.08285159
000130 06 05 4a bd c9 ee d3 3d 7a 8d 2f bd e8 ab 81 3c
       -0.049321197 0.10348279 -0.042859532 0.015829042
000140 93 d4 a7 3d c4 c1 ce 3d 28 41 da 3c e4 14 14 3c
       0.08194842 0.100955516 0.026642397 0.009038184
000150 96 3c 40 3d e0 21 c3 3d ff 68 9c bd 7f b2 51 3d
       0.04693278 0.095279455 -0.07637214 0.051195618
000160 38 49 62 bd 86 67 39 bd a0 9e f2 3d d7 7e ed 3c
       -0.055245608 -0.045264743 0.118466616 0.028991146
000170 fe 5e b2 3d 6d f6 97 3d d2 af 2b bd 4e bb 9d bc
       0.087095246 0.07420049 -0.041915722 -0.019254353
000180 3b 30 0a 3d 66 d7 ef 3c 3e 7d d6 3d 34 61 d1 3c
       0.033737402 0.029277515 0.10473107 0.025559045
000190 4e bf 59 3c fc f1 ae 3d 99 1f 8f 3b aa ce 60 bd
       0.0132902395 0.085422486 0.0043677804 -0.05488459
0001a0 1c d1 8c 3d dc 76 86 bd 6c fb e6 bc 63 0a 80 3d
       0.06875822 -0.065656394 -0.02819606 0.06251981
0001b0 40 2a 80 bc 11 e7 47 3c f9 a8 2e bd 0e 6e ca 3d
       -0.015645146 0.012201087 -0.042641614 0.098842725
0001c0 32 ea 31 3d 70 a0 2e 3d bf 85 0e bd 28 a6 d3 3d
       0.043436237 0.042633474 -0.03479552 0.10334426
0001d0 72 f8 7d 3c 6c 26 cf bc 19 95 09 3d 72 82 94 bd
       0.0155011285 -0.025286876 0.033589456 -0.07251443
0001e0 d3 f3 c6 3b bc 0c e6 bc 30 98 64 bd 30 34 74 3d
       0.0060715466 -0.028082244 -0.0558092 0.059620082
0001f0 60 bc af 3d 5e 87 c8 bc d8 47 c1 bc 7d 69 69 bd
       0.085808516 -0.02447861 -0.023593828 -0.056985367

fc4.weight f4 [2, 128]
000000 b3 dd 26 3d 9b 0e 4b 3d 5a e9 fb 3b 18 10 00 3e
       0.040738773 0.049574476 0.00768773 0.1250614
000010 04 aa cb 3d 7d 0a 59 3c b1 6e cb bc 21 a7 ab 3d
       0.09944537 0.0132471295 -0.024833055 0.08381487
000020 b4 9a a9 bd be 3f 06 3d 76 04 16 bd 74 1e 0a 3e
       -0.082814604 0.032775633 -0.036625348 0.1348818
000030 5b 7c e4 3d 5d 42 d0 3d d9 cb c1 3d b4 d5 19 3d
       0.111565314 0.10168908 0.09462709 0.03755732
000040 c2 3f 8b 3d 59 30 8d 3d 37 7a 0b 3e f6 43 5c bc
       0.0679927 0.06893987 0.1362084 -0.0134439375
000050 14 ef 8d bd 40 df 1b 3d d9 d4 62 3d c6 1b dc 3d
       -0.06930366 0.038054705 0.05537877 0.10747485
000060 b4 28 64 bd 69 77 ec 3c 82 0f 08 bb a7 af f6 3d
       -0.05570288 0.028865533 -0.0020761197 0.12045222
000070 bf ff 0b 3e 40 78 48 bd 54 2a be bc 3f 83 90 3c
       0.13671778 -0.048942804 -0.023213543 0.017640708
000080 28 72 ab 3d bf 28 eb 3d f4 70 83 bc 76 90 2f bc
       0.08371383 0.11482381 -0.016045071 -0.0107155945
000090 5b b2 81 3d be 13 1a 3d f3 9d fe 3c 4f 41 c5 3d
       0.06332847 0.037616484 0.031081175 0.09631597
0000a0 47 9d cb 3d 5d 4e 90 3e c8 a2 42 bf b7 c5 22 3c
       0.09942108 0.28184786 -0.76029634 0.009934834
0000b0 b9 1e 40 bd b3 0d b0 3d 10 b9 b4 3d cf bb 1d 3d
       -0.0469043 0.08596363 0.0882436 0.038509186
0000c0 cf e7 ae 3d a8 42 80 bd cc 44 de 3d 59 bc 3f bd
       0.08540308 -0.06262714 0.10852966 -0.04681048
0000d0 50 63 8c 3d 47 f8 38 3d 80 82 d1 3d 73 a2 1e 3d
       0.0685488 0.04515865 0.10229969 0.038729142
0000e0 aa 9a 07 bd 3b 74 91 3d 9d cc 23 bf 1d 66 dc 3d
       -0.033106484 0.07102247 -0.6398409 0.10761664
0000f0 01 c2 b2 3d 68 d9 c3 ba dd 5f 88 3d a5 6d 00 3e
       0.087284096 -0.0014942111 0.066589095 0.12541826
000100 9c f1 1b bd cd 2e 82 3d 7e ae a8 bd f7 3e b9 bc
       -0.038072214 0.06356583 -0.08236407 -0.022613032
000110 3e cc 59 3d 7b 35 1c 3d a6 9b 69 3d b9 67 90 3d
       0.053173296 0.03813694 0.057033204 0.070510335
000120 5a 1c a3 3d 6f 65 d4 3d 9a 72 fd 3a a7 d6 02 3d
       0.07964392 0.103709094 0.0019336522 0.03194299
000130 98 a9 76 3d 56 60 d9 3c 2e d5 7b 3d b8 65 b0 3d
       0.06022033 0.026535194 0.0614826 0.08613151
000140 37 b9 02 3e 62 87 01 3e f2 ed a3 3d c0 51 fb 3d
       0.12765966 0.126493 0.08004369 0.12271452
000150 f6 1a c7 3d 01 74 9d 3d 78 e6 af bc cc 0e c9 3d
       0.09721939 0.076881416 -0.0214722 0.098172754
000160 c7 12 8d bd 78 9e c8 bc d2 7c 3e 3d 07 62 e7 bc
       -0.06888347 -0.024489626 0.046505757 -0.028244985
000170 17 b1 b2 3d cc aa df 3d 7d 99 04 3d 20 91 5a 3d
       0.087251835 0.10921249 0.03237294 0.05336106
000180 56 01 3c 3e a7 51 37 bd 7e 27 40 3d 36 2f 81 bd
       0.18359885 -0.044755604 0.046912663 -0.06307833
000190 0e 95 02 bb b4 73 e9 b9 8a bb 1f 3e bb c7 97 bd
       -0.001992527 -0.0004452743 0.15598884 -0.074111424
0001a0 ea 2b a6 3d 3e d8 8d bd 01 70 05 be 7b ed cf 3d
       0.08113845 -0.069260105 -0.13031007 0.10152718
0001b0 5d 92 c9 3b 35 81 89 bd 51 48 92 bd 48 1b 95 3d
       0.006151481 -0.067140974 -0.071426995 0.07280594
0001c0 b6 a3 79 bd a8 f1 c4 3d a1 28 f9 bc 75 b6 06 3e
       -0.060947143 0.09616405 -0.030414881 0.1315554
0001d0 71 fc 6d bd bb 67 93 3b 0f 82 ed 3b 08 01 60 bd
       -0.058102075 0.0044984496 0.00724817 -0.054688483
0001e0 74 18 c8 3d d3 ee b1 bd e8 ea b1 39 7c 11 b7 3d
       0.09770289 -0.0868813 0.0003393509 0.08938882
0001f0 ba 59 71 3c 0f 4c 53 3c cb fd 12 bd 8c 59 91 bd
       0.014730865 0.012896552 -0.035886567 -0.07097158
000200 2d 4d 78 bd db 89 c1 3d 17 74 91 bd 45 4a bc 3d
       -0.060620476 0.09450122 -0.071022205 0.09193853
000210 a0 2c 39 3e cc e1 82 bd 07 a1 90 bd cc 09 d1 bc
       0.1808343 -0.063907236 -0.070619635 -0.025517367
000220 4a 84 c3 bb 04 55 05 bd d0 b8 8f 3c 70 26 2a 3e
       -0.005966698 -0.03255178 0.01754418 0.16616225
000230 c0 f2 b3 3c 5a 29 b1 3d 8d f0 8c 3d 23 be 9a bd
       0.021966338 0.08650465 0.06881819 -0.07555797
000240 d8 de 8b bd 4e bc 42 3d 42 71 9b bd 4d bd 09 bd
       -0.068296134 0.047542863 -0.075899616 -0.033627797
000250 92 43 3c 3d 70 9d b5 3d 88 e3 fd 3c 2d 01 6e 3d
       0.045962878 0.088679194 0.030992284 0.05810659
000260 9f e0 7c bc ad a1 ab 3d 10 cb bb 3d d1 01 03 3e
       -0.015434413 0.083804466 0.091695905 0.12793662
000270 9e c3 8e 3d 4c be be bc cb fd 6c 3c 37 27 c0 3d
       0.06970905 -0.0232841 0.014464806 0.0938248
000280 9d 98 54 3d e9 1f 40 3d 1e 53 ea 3c 52 96 41 bd
       0.051903356 0.046905432 0.028604086 -0.047262497
000290 91 d3 bb 3d 4f b3 83 3d 06 bf a1 3c 01 76 c4 be
       0.091712125 0.06430685 0.019744407 -0.3837128
0002a0 99 4d f6 bb e2 04 97 be bf 22 05 bd 22 52 2b bd
       -0.0075165746 -0.29495913 -0.03250384 -0.041826375
0002b0 98 62 3b 3c c7 c4 04 3e f5 6a 4d 3c c2 f2 0f 3d
       0.011437081 0.1296569 0.012537708 0.03514362
0002c0 b3 0e 96 3d 46 61 80 3d 25 f1 a1 3d 37 48 61 bd
       0.073270224 0.062685534 0.07907323 -0.05500051
0002d0 41 67 9a 3d 8c eb 97 3d a2 46 06 3e 05 cd df 3d
       0.07539225 0.07417974 0.13112882 0.10927776
0002e0 f9 9d 55 bd 45 a7 21 bd 54 77 31 be d1 42 e6 3d
       -0.052152608 -0.03946616 -0.17330676 0.11243213
0002f0 98 b8 4d bd 89 6f 8e 3d 97 4d 9d 3b 72 3b f6 3d
       -0.05022487 0.069548674 0.004800509 0.12023057
000300 53 62 c7 3b ca c9 b6 3d f7 e1 a5 bd d8 50 0d bd
       0.006084719 0.08925207 -0.0809974 -0.034500927
000310 70 32 59 bd 32 86 82 3d 64 3a 98 bd 5b de 73 3d
       -0.053026617 0.06373252 -0.07433012 0.059538227
000320 03 94 bc 3c 64 b3 b6 3d c5 37 c6 3d b1 97 cd 3d
       0.023019796 0.08920935 0.09678606 0.100386985
000330 66 60 5f bd 4e cb c8 3d 86 d7 5e bd 1a da 19 3c
       -0.054535292 0.09804402 -0.054404758 0.009390378
000340 99 bb 68 bd e7 0d a5 3d 69 73 ab bd 38 6b f8 3d
       -0.056819532 0.08059292 -0.08371622 0.12129825
000350 6a ca a7 3c c0 ff 02 3c b1 55 0f bd 4f 4e dd 3d
       0.02048226 0.007995546 -0.03499383 0.10805952
000360 f5 c5 41 bc 2f 76 9a bc 00 8b 82 3d 94 66 8b bd
       -0.011826982 -0.018855182 0.063741684 -0.068066746
000370 22 1d 46 3e 95 8d d8 3c eb 4a 33 3c e9 ee f8 bb
       0.19347051 0.0264347 0.010943155 -0.0075968397
000380 7f 80 69 3e 3b 79 6d 3c b4 5f 19 3e f9 f4 a3 bd
       0.22802924 0.014494236 0.14977914 -0.08005709
000390 a7 69 f5 3b 2b 1f 40 3e 3f 7a d9 3d 64 e4 b6 bb
       0.0074894014 0.1876189 0.1061902 -0.0055814255
0003a0 72 2b 32 3d d6 d8 76 3d 93 37 9c 3d f8 40 a3 bb
       0.043498464 0.060265385 0.076277874 -0.00498211
0003b0 ff 2b 7b bd 3f ff b6 3c e5 9a af 3d cb 1b 0b 3e
       -0.061321255 0.022338508 0.08574466 0.13584821
0003c0 a2 32 8c bd 9a d9 44 3d 7d e3 8a bd 45 52 2f bc
       -0.06845595 0.048059084 -0.06781671 -0.010700767
0003d0 fa 4a 8b bd 5a 08 55 bc 11 b0 f1 3d c3 bb ca 3c
       -0.0680141 -0.013002479 0.1180116 0.024747735
0003e0 ae 07 da 3d e8 ed 9a 3c 9f 02 66 bd 6a d8 41 3d
       0.10645996 0.01891227 -0.056154843 0.04732553
0003f0 e8 1b db 3d 8c 35 08 3d 05 95 6c bc bb 7f 85 3d
       0.10698682 0.03325419 -0.014439826 0.06518503

fc4.bias f4 [2]
000000 cb 9a 51 bc ac b3 a1 3c
       -0.012793253 0.019738995
